python/results/2017_12_22_10_38_44/agent500/model.npz (npz, 14896 bytes, 6 tensors)

model/hidden_layers/0/W f4 [40, 40]
000000 95 a4 e0 bc da 74 57 be 6e d3 2b 3e 79 89 be be
       -0.027422229 -0.21040669 0.16779873 -0.37214258
000010 4a 23 ab 3d c9 c7 17 3e 92 ba b1 3d d1 fc 91 3d
       0.0835634 0.14822306 0.086781636 0.07128299
000020 18 8f e2 3d b4 0f df 3d f2 f7 6b be 2a 82 ff 3d
       0.11062449 0.10891667 -0.23043802 0.12475999
000030 80 bd 65 3e 98 7e 1e be ef 45 b9 3e 04 c1 90 3c
       0.2243557 -0.15477979 0.36186168 0.017670162
000040 0a 22 82 3c 08 95 0d 3e c8 58 84 3e b4 85 cc 3d
       0.015885372 0.13826382 0.25848985 0.09986439
000050 ff e2 9b be 4e 27 b7 be 59 fb 9c be de 17 5f be
       -0.30446622 -0.35772175 -0.30660513 -0.21786448
000060 6e 95 25 3e 6f 82 4e bd d5 20 e0 3c ae 60 a6 3e
       0.16170284 -0.05041736 0.027359406 0.32495636
000070 db b8 a6 3d ee f8 3c bd 3f 1b 27 be 4c 40 72 bd
       0.08140727 -0.046135835 -0.16318987 -0.05914335
000080 06 e1 a1 3d a4 30 09 bd 90 ec aa 3e 8a 23 f9 3c
       0.07904248 -0.033493653 0.33383608 0.030412454
000090 f0 14 17 be f3 55 0b be 35 2c ad 3e ee 5d a5 3d
       -0.14754081 -0.13607006 0.3382279 0.08074556
0000a0 a8 7b 1d bd 5b 8e 4c 3f c8 19 e0 3e b2 2e 7a be
       -0.038448006 0.7990472 0.4376967 -0.24431875
0000b0 ee 83 87 3e 5c fb 95 3d f3 3d ae 3e 1a 33 d0 3d
       0.26467842 0.073233336 0.34031639 0.10165997
0000c0 2f ba 99 bd 97 c1 d0 bc 9f c4 17 bd d1 ed 0c be
       -0.07506215 -0.025482936 -0.037052747 -0.13762595
0000d0 3b a0 8c bd 6b d0 9b be 61 a7 74 3c 96 f9 bd be
       -0.06866499 -0.30432448 0.014932484 -0.3710448
0000e0 78 37 86 bd e1 5e 48 be d2 6a 81 3d fd cb 35 be
       -0.065535486 -0.19567443 0.063192025 -0.17753597
0000f0 46 17 2a 3e 1b 0d 98 3e 71 8f d3 3e 01 dd e1 3e
       0.1661044 0.296975 0.41320375 0.44113925
000100 64 9c ff 3e 2b c7 eb 3e a5 6b 2b 3f af 62 f0 3e
       0.49924004 0.4605039 0.6696113 0.4695029
000110 a3 8f 08 3f 38 09 64 3e 93 0b 90 3e 6b ff ac 3c
       0.5334417 0.22269142 0.2813383 0.021117887
000120 20 78 92 3d d5 f7 86 3d 7e 84 ba 3e cf 6b 19 3c
       0.07151818 0.06590239 0.3642921 0.0093640825
000130 e3 da 77 3e 2f fd 33 3e 85 49 2d 3e 0c 77 55 3e
       0.24204592 0.1757705 0.16922577 0.20846194
000140 c1 d2 8b bc 65 8b 0f 3d 07 fd 7d be c4 8b c2 3e
       -0.017068269 0.035045046 -0.24803554 0.37997258
000150 78 6c 63 3d f8 66 87 bc d1 b1 f7 bd f3 f0 0b 3d
       0.055523366 -0.016528592 -0.12094463 0.034165334
000160 1d 5e 88 3d 07 df 51 3c d6 33 8b 3c b2 bd 43 bd
       0.06658576 0.0128095215 0.01699249 -0.04778833
000170 0d 4f 9c 3e b0 93 95 bd 63 83 90 3d 5b 43 e3 bd
       0.3052906 -0.0730356 0.0705631 -0.110968314
000180 fa f2 a9 be 7d 6b a3 be cf 27 4c be b2 63 a8 be
       -0.3319319 -0.31917945 -0.19937061 -0.3288856
000190 7d 74 20 3d 9e d0 15 be 31 70 21 3e 06 e5 67 3d
       0.039173592 -0.14630362 0.15765454 0.0566149
0001a0 34 cb 0d be 57 6b a6 be 52 65 37 bc 42 c0 c9 3e
       -0.13847047 -0.3250377 -0.01119359 0.39404494
0001b0 e1 35 cf 3d 21 cc d8 bd 29 49 9c 3d c8 45 1d be
       0.101176985 -0.105858095 0.07631142 -0.1535865
0001c0 25 ee 45 3e 2d fc 14 be 41 07 22 3d f1 f1 0f bd
       0.19329126 -0.14549322 0.0395577 -0.035142843
0001d0 4d a5 ba 3d bc 22 30 be 72 dc b9 ba c2 20 1e 3c
       0.0911356 -0.1720075 -0.0014180078 0.009651365
0001e0 bf 70 b8 3d 9e 97 3e 3d 5b 18 e1 bd 4d a6 a3 be
       0.090058796 0.046531312 -0.109909736 -0.31962815
0001f0 30 4a 0c bd e9 1e 39 3e ea d4 90 bd a3 5a 46 3e
       -0.03425044 0.18078198 -0.0707186 0.19370513
000200 e0 de 7b 3d 31 f2 f4 bd 83 2b 48 3e 2d c7 cf 3d
       0.061491847 -0.11960257 0.19547848 0.10145412
000210 e6 b0 00 be 7d 3b e4 be d2 3e d6 bd 08 a6 a7 be
       -0.12567481 -0.44576636 -0.10461201 -0.3274386
000220 62 47 bd be e1 d9 ae be 9d 6b a3 bd cd 9a 3a be
       -0.36968523 -0.34150603 -0.0797951 -0.18223114
000230 48 17 30 be 2b 70 cc be 39 09 b2 bd 24 9d 27 be
       -0.17196381 -0.39929327 -0.08693165 -0.16368538
000240 b0 c2 84 bb 1b 84 cd be c2 14 1e 3d b6 ea ed 3c
       -0.004051529 -0.4013985 0.038594015 0.029042583
000250 49 6b d9 bc e1 58 15 3e 1e 41 d8 bd 04 44 22 3e
       -0.026540415 0.14584686 -0.10559295 0.15846258
000260 19 8c a2 3d 78 f4 9c 3d 72 1f 81 3d e3 5f 82 be
       0.07936878 0.07663816 0.06304826 -0.2546378
000270 92 0b 94 bd 12 9f 86 3d 73 a3 33 3e ef 7c 62 be
       -0.07228769 0.06573309 0.1754282 -0.22117971
000280 91 d2 ab bd 6f 6d 33 be dd b0 29 3d fe bb 6f bc
       -0.08389772 -0.17522214 0.041428436 -0.014632223
000290 79 2e 83 be b3 8a 4a 3e 3f 16 86 3e 1e e9 80 be
       -0.25621393 0.19779472 0.26188847 -0.25177854
0002a0 ff f9 98 3d 54 04 67 bd 5a 47 2c 3d 71 35 fc 3d
       0.07469558 -0.056400612 0.042060234 0.12314881
0002b0 15 3e 0f bc 57 4d 5e 3e bf 70 e7 3c e2 fb 47 bd
       -0.008742829 0.2170919 0.028252004 -0.0488242
0002c0 9b 59 a8 3c 6c 50 be 3e 28 12 af bc 1d 8a 4c 3e
       0.02055054 0.37170732 -0.021370962 0.19974561
0002d0 39 e3 c9 3d 87 fa 6f 3c 92 f0 b8 3d d3 87 9e 3e
       0.098577924 0.014647133 0.0903026 0.30963
0002e0 65 5e a9 bd c9 da 9a be 66 21 12 3e 4f dd bc 3c
       -0.082699575 -0.30245045 0.14270553 0.023054747
0002f0 2f 9d 7f be 22 44 a3 bd 49 70 e9 bd c2 4b 54 3e
       -0.24962305 -0.0797198 -0.1139837 0.20732024
000300 7f b3 ec 3d 7c 9c ed 3e 6c ca 69 be 9c 8b d6 bd
       0.11557674 0.4640845 -0.22831124 -0.10475847
000310 41 17 3f 3d a8 a3 b4 3d 3d ba 31 3e 3c c2 5b 3e
       0.046653036 0.088202775 0.173562 0.21460813
000320 91 19 42 bd 45 6e f8 3d 5a 72 8a be c7 24 a2 be
       -0.047387663 0.12130407 -0.27040368 -0.31668684
000330 ab 47 e6 3d bd a2 1b be 32 8d f3 bd 20 5c 5b be
       0.11244138 -0.15198798 -0.11892165 -0.21421862
000340 b1 bd 80 3d 94 bf 40 3e 92 0f 38 3e d7 4e c0 bd
       0.06286181 0.18823081 0.1797469 -0.093900375
000350 67 ec 76 bb 50 f7 ad bd 27 9c 7f bd 64 07 18 be
       -0.0037677528 -0.08494437 -0.062404778 -0.1484657
000360 9d 01 24 3e 3c 7f 15 b9 c0 75 bc 3a 8a 69 48 be
       0.1601624 -0.00014257146 0.0014378354 -0.1957151
000370 0d bc 96 3e 6c 7e e1 3e 37 8f 3a 3e 11 ef 6c 3e
       0.29440346 0.44041765 0.18218695 0.23138072
000380 da fc ed bd 92 cd 06 be b3 9d 89 3d ee c5 be bd
       -0.11620493 -0.13164356 0.06719532 -0.09315096
000390 21 5e d8 bb ba 73 3a 3e 43 ac a3 3e 71 79 13 3e
       -0.006603018 0.18208209 0.31967363 0.14401795
0003a0 99 c9 8c 3e aa 0f 6c 3e 2c 82 a5 3d 3d ee 47 be
       0.27497557 0.2305285 0.08081469 -0.19524474
0003b0 d3 76 03 3d 62 04 7d bb 91 c3 ac 3d dd e2 b4 3d
       0.03209574 -0.0038607349 0.08435739 0.08832333
0003c0 57 9a 0e 3d c2 31 5f be 55 23 0b be 5b 40 59 3f
       0.03481516 -0.21796325 -0.13587697 0.84863824
0003d0 55 a0 26 bc 05 7b 1b 3c 8a b3 6d 3d fe 2c 16 3c
       -0.010170062 0.009489779 0.05803255 0.009166
0003e0 04 8d 05 3e eb a4 81 3e f8 02 a5 bd 39 63 c6 bd
       0.13042074 0.25321135 -0.08057207 -0.09686894
0003f0 f5 5f 7d be 21 df ae bd 61 77 7b be f1 6c f7 bd
       -0.24743636 -0.08538652 -0.24557258 -0.12081326

model/hidden_layers/0/b f4 [40]
000000 1c 75 97 3e 00 1d 03 bd a6 c4 93 3c 16 d7 56 be
       0.29581535 -0.03201008 0.018038105 -0.20980486
000010 68 96 b1 3e 5e 09 13 3f c5 b3 9b be 76 8b a2 3e
       0.34685063 0.5743617 -0.3041059 0.31747025
000020 bf fb 9e be 7f 83 e3 3e 12 08 ec 3c 88 5d dd bb
       -0.31051442 0.4443626 0.028812442 -0.0067555346
000030 60 34 2d be 98 fb 22 3e f0 a8 b1 3c 3d 7e 80 3d
       -0.1691451 0.15916288 0.021687001 0.06274078
000040 ba c1 6a be eb 53 9f be d2 ed 73 3e d5 79 71 3d
       -0.22925463 -0.31118712 0.2382119 0.05895408
000050 4b 22 b9 3d 7a b2 76 3e d4 ca 04 be a1 ec 29 3e
       0.09039744 0.24091521 -0.12967998 0.16594173
000060 9d a6 30 3d e7 da 56 be 26 6a 8f be e5 d1 14 3c
       0.043127645 -0.20981942 -0.28010672 0.009083246
000070 1e da 4d 3d 08 68 08 bd ae ea 53 3d 80 79 49 3e
       0.05025684 -0.033302337 0.05173748 0.19675255
000080 e8 0b 8c bd 0b 90 f8 3e 38 88 c3 be 1a 1e e8 3d
       -0.068382084 0.48547396 -0.38189864 0.113338664
000090 eb 4b 45 be c6 c8 81 be 43 a9 5d 3d 6e 2f 25 3e
       -0.19267242 -0.2534849 0.0541165 0.16131374

model/hidden_layers/1/W f4 [40, 40]
000000 63 f4 0c 3c 6e d4 c0 3e 19 07 b7 be 66 a7 3b 3e
       0.008603188 0.3766207 -0.35747603 0.18325576
000010 20 1b 56 3e ec 23 19 3e 99 97 3d 3e 79 1f dd 3c
       0.20908785 0.1495511 0.18514861 0.026992546
000020 2d 85 64 be c7 f2 c8 3d 28 f3 c3 bb 6d db a4 bd
       -0.22316428 0.09811931 -0.005979914 -0.08049665
000030 f6 3a a5 3e 73 39 03 3d 8b f5 7d bd 83 a5 09 be
       0.32271546 0.03203721 -0.062001746 -0.13442044
000040 07 e5 80 3d 0a 74 8f 3e 02 bc 81 3d 6c 2e d1 bc
       0.062936835 0.28018218 0.06334688 -0.025534831
000050 52 a0 ac be 8f e8 6f bd 4d 8c 8b be cc bb 03 3f
       -0.33716065 -0.058571395 -0.27255479 0.5145843
000060 1a 5d 09 3f 3d 2e 4a 3c f1 5f 0d bd 69 7f 03 bf
       0.53657687 0.012340126 -0.034515325 -0.5136629
000070 de e8 42 3d 2a fd 2c 3d c8 cf c9 3d 19 2c 55 3e
       0.04758536 0.042233624 0.09854084 0.20817603
000080 58 85 ca 3e b9 a4 94 3c 16 1d 0e 3e 90 ee 9c be
       0.39554858 0.018144952 0.13878283 -0.3065076
000090 90 cc 0f 3e df c5 7f bd 51 76 95 3e 24 bd 4e be
       0.14042878 -0.062444564 0.2919183 -0.20189339
0000a0 29 73 88 3d 04 e4 16 3e eb 7e 99 bd 0e 5e a8 bd
       0.0666259 0.14735419 -0.07494911 -0.082210645
0000b0 23 fb 2f bd 26 b2 10 bf 1a 1f 94 3e 9a cc da 3c
       -0.042964112 -0.5652183 0.2892998 0.02670889
0000c0 c2 9c a3 3e 0f 71 cb be 1e 70 e7 bd 9d 60 64 be
       0.31955534 -0.39734694 -0.113006815 -0.2230248
0000d0 f2 cd 7c 3e 22 2d 47 3d 29 15 31 be 49 55 3e be
       0.24687937 0.048627026 -0.17293228 -0.18587221
0000e0 f4 bf 17 3e b2 c5 2e 3e f2 b6 83 be f9 46 99 3c
       0.14819318 0.17067602 -0.25725514 0.0187106
0000f0 c0 3b 59 be ba 0d 27 3d 38 78 fe 3d 10 a2 b6 bd
       -0.21214199 0.040784575 0.12425274 -0.0891763
000100 68 6a 32 3e 36 be 30 3e 04 58 5f 3e ef 2c 04 be
       0.17423403 0.1726006 0.21810919 -0.12907766
000110 e5 55 09 be 09 1a d7 3e f2 60 a2 be 8d d6 da bc
       -0.13411672 0.4201205 -0.31714588 -0.026713634
000120 8c 47 b9 3e e8 10 ef be 39 25 0d bc b0 fc 49 3e
       0.36187398 -0.46692586 -0.008614832 0.19725299
000130 a6 f1 ba 3e ac fb 4c bd 5d 1b ec 3d a8 a4 8d be
       0.36512488 -0.0500447 0.11528657 -0.27664685
000140 45 b3 20 3e b8 a0 9b be 59 29 95 bd 62 6e a3 3d
       0.15693386 -0.30396056 -0.07283277 0.07980038
000150 37 92 8f be 3f 39 ad ba d3 6b 41 be 50 25 ed 3e
       -0.2804124 -0.0013215913 -0.18888788 0.4631753
000160 86 d7 8b 3e 6d db 25 bd 1d b3 59 3e 4d 00 b4 3d
       0.2731287 -0.040492464 0.21259733 0.0878912
000170 db 4c 8e be fd cc 1f 3d 41 9b 67 3d ac 28 c0 bd
       -0.2779301 0.03901385 0.056544546 -0.093827575
000180 fd 18 4b be fc 44 2b bf 80 42 b6 3d 6c 26 14 be
       -0.19833751 -0.66902137 0.088994026 -0.14467782
000190 0f ec e9 3d 17 3f 25 3f 92 32 76 be 1c b4 24 3d
       0.11421978 0.6454939 -0.24042729 0.04021083
0001a0 fc 27 2b be 0e 8c ae bd d7 dd 9b 3d 17 16 f8 3e
       -0.16714472 -0.08522807 0.07610672 0.48454353
0001b0 17 32 17 be 0d 67 12 3d 6f cd a6 be 76 56 31 be
       -0.14765202 0.035742808 -0.32578608 -0.17318138
0001c0 50 c2 79 bf d2 7b 00 bc 3f 70 a6 3e ec ec 9c be
       -0.9756212 -0.007842021 0.32507512 -0.30649507
0001d0 3e 23 2b bf b5 05 0f bf 7d d4 06 3d be 3b 22 3f
       -0.6685065 -0.55868083 0.03291749 0.6337241
0001e0 12 b5 cf 3d 14 0d 17 3e d9 16 86 bc b2 32 0b 3e
       0.10141958 0.14751083 -0.016368316 0.13593557
0001f0 27 d5 b2 be 20 d4 6f be d2 c7 e8 3e 2d 2c a4 3d
       -0.34928247 -0.23420763 0.4546495 0.08016238
000200 57 fc 22 3e 84 7b dd be a6 31 4c be ff 56 b4 bd
       0.15916573 -0.43258297 -0.19940814 -0.08805656
000210 38 2f 26 3e a1 f0 ea bc e2 13 71 bd cf c7 a2 3a
       0.1622895 -0.028679194 -0.058856852 0.0012419167
000220 2e 44 b8 3d a8 48 be 3d 42 8a 38 be e1 2c 13 3d
       0.08997379 0.09291202 -0.18021491 0.03593147
000230 62 35 0c be d0 26 e1 bd ea a4 84 bd a6 29 d4 be
       -0.13692239 -0.10993731 -0.06476767 -0.41438025
000240 8f 71 83 be aa 90 4e 3e 2e a2 82 3e eb 94 f2 3d
       -0.25672576 0.20172372 0.25514358 0.1184481
000250 e0 c5 ed 3d 56 b9 81 3e fe 73 84 3d 14 0f b3 be
       0.11610007 0.25336713 0.06467436 -0.3497244
000260 aa c3 59 bd 27 69 10 be d5 77 27 3e c7 dc f5 3d
       -0.053165115 -0.14102612 0.16354306 0.120050006
000270 5a d3 4e 3e 77 73 23 3d 9f 47 c7 3d 9e 43 2d bc
       0.20197812 0.039905038 0.097304575 -0.010575203
000280 76 d2 80 bd fe 2f 2d 3f 18 c7 55 3e 79 9d de 3c
       -0.06290142 0.67651355 0.2087673 0.027174698
000290 79 82 11 be d1 26 de 3e b1 ab f5 bc 9a 1d 67 bc
       -0.14209928 0.4338899 -0.029989095 -0.014106179
0002a0 cb f6 0f 3e 08 f8 e8 3b ed b9 27 be c1 f5 02 3e
       0.14058988 0.0071096458 -0.16379519 0.1278906
0002b0 71 bf 91 3e 1e a5 cf 3b 56 d1 4f 3d 99 a3 e6 bd
       0.2846637 0.006336822 0.050736748 -0.112616725
0002c0 1b c0 02 bf 72 02 46 3d 4d a5 a8 3e fd bb 93 be
       -0.5107438 0.048342176 0.32938614 -0.2885436
0002d0 c1 a9 b4 be 35 be 37 be 67 37 bd be 8d 5b 70 be
       -0.35285762 -0.17943652 -0.3695633 -0.23472424
0002e0 8b 52 d4 3e 0a 32 f0 3d 6f 5f 1f bf 48 49 16 bf
       0.41469225 0.11728294 -0.62254995 -0.5870557
0002f0 ab 24 0b be 64 d4 12 be 71 85 3c 3e a3 fc d4 3a
       -0.13588206 -0.14338833 0.18410279 0.0016249608
000300 40 14 54 3e 88 f9 24 be 0e 1e 50 be cf b5 15 be
       0.2071085 -0.16110814 -0.20323965 -0.14620136
000310 07 e9 28 3f ed f1 92 bd d7 47 78 3e de bf 88 be
       0.6598057 -0.0717505 0.24246155 -0.26708883
000320 6d a6 89 be 32 ce 99 be 07 7b 0a 3e c6 33 e2 bb
       -0.26884785 -0.30040127 0.13523494 -0.0069031445
000330 78 b1 20 3e 18 21 aa be 22 a0 80 3e 8f a9 a4 be
       0.15692699 -0.33228374 0.25122172 -0.32160613
000340 fb 50 ab 3e 4b 56 88 be 50 b7 11 be 59 c6 f5 bd
       0.3346022 -0.26628336 -0.14230084 -0.120007224
000350 cd ab 41 3d fa c1 8d bd 82 0b 10 be 07 18 ee 3c
       0.047282983 -0.06921764 -0.1406689 0.029064192
000360 b2 d6 c6 3e 88 a2 94 3e 58 96 38 be 08 d3 f3 3c
       0.38835675 0.29030252 -0.18026102 0.029763713
000370 c5 ff 69 bd 0e f4 a1 3d dc 3e 20 be 9c d6 9b 3d
       -0.057128686 0.07907878 -0.15648979 0.07609293
000380 84 36 16 3d 74 ad 85 3e dc fe 52 3e 62 6c 7b 3d
       0.036673084 0.26108897 0.20605034 0.06138266
000390 31 7f 30 be 34 98 23 be 11 ef 8e 3b 6d e5 2d be
       -0.1723602 -0.1597603 0.004361995 -0.1698205
0003a0 1e 78 0b 3c 9d a1 aa be 3b 4a aa 3e 72 92 27 be
       0.008512525 -0.33326426 0.33259758 -0.16364458
0003b0 4e df 00 3e 27 64 8d 3e 7b 91 f7 3c 48 5d 32 be
       0.12585184 0.27615473 0.030220738 -0.17418396
0003c0 64 a2 20 3e b8 a1 4a be 1e 5e 37 3e 58 96 54 be
       0.15686947 -0.19788253 0.17906997 -0.20760477
0003d0 e7 49 f5 3e d3 05 eb 3d 11 93 9b bd c7 0f 33 3e
       0.47907946 0.1147572 -0.0759641 0.17486487
0003e0 a3 50 2c 3e ea f5 46 3e f9 46 3a bc 09 e7 5b be
       0.16827635 0.19429746 -0.01136946 -0.21474852
0003f0 50 50 94 bc 07 c9 c2 3e da e8 99 bd 0e aa ea 3d
       -0.018104702 0.38043997 -0.07515116 0.114582166

model/hidden_layers/1/b f4 [40]
000000 3d 57 1c 3d d4 63 3b be d9 44 0a 3e 17 10 25 be
       0.038169134 -0.182998 0.13502826 -0.16119419
000010 ce ec 65 3d 52 98 6f be 32 34 52 3d 29 d6 87 bc
       0.056134038 -0.2339795 0.05131931 -0.016581612
000020 61 d6 d4 bd cb 3f bd bc bc e4 4a bd 1e bd f4 bd
       -0.10392452 -0.023101708 -0.049534544 -0.11950134
000030 b3 1c 68 3e 9c 13 04 be b8 47 b9 3c 73 3b 01 be
       0.22667198 -0.12898105 0.022617206 -0.12620334
000040 49 dc fb 3d 4c 02 a5 bc 6b 18 e2 bd a7 6c 17 3c
       0.122978754 -0.020142697 -0.110398136 0.009242213
000050 1a d6 1c bc 08 ab 77 3d 0d 37 74 3d 51 aa 75 bc
       -0.00957253 0.060465842 0.059622813 -0.01499422
000060 10 cb 8e bc 82 07 1a 3c fe 54 27 3c 75 b8 d3 3d
       -0.017430812 0.009401204 0.010213135 0.10337917
000070 5c 69 92 3d 82 9b d4 3d d2 b9 f8 3c e3 59 02 bd
       0.07149002 0.10381223 0.030362044 -0.031824004
000080 22 16 a7 bc ce a9 64 3d cf ce a6 3c 9d 35 9d bd
       -0.020396296 0.055826 0.020362286 -0.076762415
000090 2c ad be bd 46 bc 38 3c 24 bf 2a be 80 ab 7e bc
       -0.09310374 0.011275357 -0.16674477 -0.0155438185

model/output/W f4 [9, 40]
000000 e4 c5 d6 3e 2c dc ff 3e 83 40 28 bf ab bb 30 3e
       0.41947854 0.49972665 -0.6572344 0.1725909
000010 a3 df a2 3e 68 85 e9 3e 05 c3 5d be d2 2d e6 bc
       0.31811246 0.45609593 -0.21656425 -0.02809802
000020 7a 13 80 3e 99 81 90 3d d2 13 bc 3e 35 96 2c 3e
       0.2501486 0.07055969 0.36733872 0.16854174
000030 43 59 8c be 25 f5 73 3e b1 52 57 3e 57 23 50 3e
       -0.2741185 0.23823984 0.21027638 0.20325981
000040 42 6c 18 be 47 12 7d 3e 97 a1 9c 3d 81 5a 37 be
       -0.14885047 0.24714004 0.07648008 -0.17905618
000050 a9 4f 0d 3e 03 5d d5 be f3 b5 76 3e 15 77 d9 bd
       0.13799919 -0.41672525 0.24092846 -0.10618416
000060 4e 76 bd bb aa ce 6d be 29 9f bb be 9c 42 80 be
       -0.0057819253 -0.23223367 -0.36644867 -0.2505082
000070 0f 58 46 be 82 51 f0 bd ea f2 fb be 9b 68 8e 3e
       -0.19369529 -0.117342964 -0.49208766 0.27814183
000080 0a 6f 90 3e ee 2f da bb 32 d6 60 3e 23 2d 14 3f
       0.28209716 -0.0066585457 0.21956709 0.57881373
000090 f9 21 d9 bc 72 8d 5b be 41 63 96 3e c9 9c 6d 3e
       -0.026505457 -0.21440676 0.293726 0.2320434
0000a0 6c 2b 0a 3d 34 3a ad 3e 0c 07 2e bf 15 12 92 3e
       0.033732817 0.33833468 -0.679795 0.2852942
0000b0 bd 64 ba 3e 77 3f bd 3e ae 14 b0 bd e7 e5 bd 3b
       0.36404982 0.36962482 -0.08597694 0.0057952288
0000c0 3b 60 64 3e 5a c5 bb 3c 55 a5 ed 3e 93 3b 9e 3e
       0.22302334 0.022921253 0.464152 0.30904827
0000d0 61 1b ff be 9b d2 1b 3e 03 9b 2c 3e 34 93 58 3e
       -0.49825576 0.15217058 0.16856007 0.21149904
0000e0 16 28 1a be f7 5a d1 3e 6b a8 5e be 16 b9 fb be
       -0.15054354 0.40889713 -0.21743934 -0.49164647
0000f0 33 58 8b bd a7 41 29 be a6 cb 2c 3e 8d d5 d5 3d
       -0.06803932 -0.1652895 0.1687456 0.10441122
000100 33 f5 c8 3d b6 7d 0a be b6 48 76 be 6c 0b b9 be
       0.09812393 -0.13524517 -0.24051175 -0.36141527
000110 63 70 1b be a9 c7 cd be d3 ee a6 be e0 dd da 3e
       -0.15179591 -0.4019139 -0.32604083 0.42747402
000120 a0 11 44 3e ee 1a d2 bb 0c 2b 8c bc 05 86 06 3f
       0.19147348 -0.0064119017 -0.01711037 0.5254825
000130 2e b9 04 3d b4 f1 7e be 9e 71 b5 3e d4 6e 08 3e
       0.032403164 -0.2489689 0.35438246 0.13323528
000140 45 36 e5 3e 0d 45 9d 3e 70 cd ea be 50 b5 bc 3e
       0.44767967 0.30716744 -0.4585986 0.3685708
000150 f4 3b 01 3f 90 1b 07 3f 62 1c 99 be 09 8e 81 be
       0.50482106 0.5277643 -0.29904467 -0.25303677
000160 08 e6 e2 3d d6 a7 95 3d cf 90 c6 3e 67 fa 8d 3e
       0.11079031 0.07307403 0.38782355 0.27730104
000170 35 59 6d be 4c 0d 1b 3e b5 61 32 3e 08 cf 7c 3e
       -0.23178561 0.15141791 0.17420085 0.24688351
000180 87 5a 39 be 07 79 99 3e ee 57 0a 3e ef a7 d6 3b
       -0.1810094 0.2997515 0.13510105 0.006550781
000190 40 e2 5f 3d 8d 8a 60 be 12 66 5d 3e b8 8a b9 3c
       0.05465913 -0.21927853 0.21620968 0.022649154
0001a0 5b 61 d3 3d 49 0e 13 be 00 31 d9 be 2f 8b b6 be
       0.103213035 -0.14360918 -0.42420197 -0.35653064
0001b0 97 53 f6 bd f9 e0 fc bc 18 f4 e0 be 7b 66 b3 3e
       -0.12027662 -0.030868994 -0.4393623 0.35039124
0001c0 a8 d6 a8 3e 59 d7 ae bd 0d 71 09 3e b0 a7 e4 3e
       0.3297627 -0.08537168 0.13422032 0.44659185
0001d0 fb ed ff 3d c3 18 ee be 60 24 85 3e 18 40 86 3e
       0.12496563 -0.46503267 0.26004314 0.26220775
0001e0 4e 33 b3 3e f3 bf 93 3e c7 20 a2 be 1d d9 bf 3e
       0.3500008 0.28857383 -0.31665632 0.37470332
0001f0 31 28 c5 3e c3 95 83 3e 0c 92 76 be f3 79 bd 3d
       0.38507226 0.25700197 -0.2407915 0.092517756
000200 0d 33 34 3e a4 1f 0a 3e f4 9b b3 3e ba 4c ba 3e
       0.175976 0.13488632 0.3507992 0.36386663
000210 bb 4f ac bd 19 20 a0 3e 11 80 aa be e7 76 21 3e
       -0.08413645 0.3127449 -0.33300832 0.15768014
000220 38 8f 2a be c1 51 d2 3e ff 47 48 be 34 c2 15 bf
       -0.16656196 0.41077998 -0.19558714 -0.58499455
000230 c0 89 46 3e 29 36 b0 be 61 b3 96 3d a4 7e 55 be
       0.19388485 -0.3441632 0.073584326 -0.20849091
000240 c0 04 c5 3d ae 44 19 be a0 dc e8 be b9 06 8c bd
       0.096200466 -0.14967605 -0.45480824 -0.0683722
000250 66 6f b4 bd e3 66 79 be b5 0d 9a be 88 fb ba 3e
       -0.0881031 -0.24355654 -0.30088583 0.36520028
000260 ce df 72 3e e0 fc 85 3d 15 69 be 3e e4 b4 2c 3f
       0.23718187 0.06542373 0.37189546 0.6746352
000270 31 91 08 be 35 63 22 3c 5e b6 c5 3e 40 7a bb 3e
       -0.13336636 0.009911348 0.38615698 0.36616707
000280 5b d4 06 3e 2c f3 f4 3e fd cb f3 be 4f c8 89 3e
       0.13166945 0.47841775 -0.47616568 0.26910636
000290 62 c2 ac 3e d0 dd 17 3f 34 d8 63 be e9 34 94 be
       0.33742052 0.59322834 -0.22250444 -0.28946617
0002a0 84 d4 1b 3e d8 cf 03 3e 1b ba c8 3e bf 88 bf 3e
       0.15217787 0.12872255 0.39204487 0.37409016
0002b0 61 4f 9b be 5e 55 6b 3e 48 7a b4 bd 42 fe 45 3e
       -0.30334 0.22981784 -0.08812386 0.19335273
0002c0 89 fe 89 be 8e 5a e0 3e b2 8d 3d 3c 49 f6 9d be
       -0.26952007 0.43819088 0.011569427 -0.30851963
0002d0 5a 0b 17 3e 99 b1 55 be 0e c1 17 3e cd a4 9e bc
       0.14750424 -0.2086853 0.14819738 -0.019365693
0002e0 e5 16 f9 3c 54 90 f5 be 09 9a 7f be ca 09 f4 bd
       0.030406425 -0.47961676 -0.24961103 -0.119159296
0002f0 6a dd 24 be fc 9a 9a bd e5 d0 d7 be 7b 66 94 3e
       -0.16100088 -0.07549092 -0.4215156 0.28984436
000300 3b 81 28 3b 8f 7b f6 bc a9 5e d6 3d e5 b3 28 3f
       0.0025711793 -0.030088214 0.10467274 0.658995
000310 4d a4 0c be a9 97 d0 be f9 6e 8b 3e 4c 30 16 3e
       -0.13734551 -0.40740708 0.27233103 0.14666861
000320 83 8f 32 3e 5a bd ed 3e 7c 2f 50 bf 44 d9 1e 3c
       0.17437558 0.46433526 -0.81322455 0.009695355
000330 76 22 89 3d 65 18 87 3e 46 49 99 be 6b a0 86 bd
       0.06696026 0.263858 -0.29938716 -0.06573566
000340 79 dd aa 3e 03 c4 be 3d 54 7d dd 3e fd 77 0e 3e
       0.33372095 0.0931473 0.4325968 0.1391296
000350 98 29 e9 be d5 66 2c 3e bd e7 45 bd 78 49 44 3e
       -0.45539546 0.16836102 -0.048316706 0.19168651
000360 e1 65 44 be 45 a6 23 3e a0 39 01 bf 0d 11 3c bf
       -0.19179489 0.15981396 -0.50478554 -0.7346352
000370 9c 10 6a 3d d6 92 a4 be 8d 5c dc 3e fe 4c 02 be
       0.057144746 -0.32143277 0.4303936 -0.12724683
000380 d4 40 45 3e e5 55 1a bf 3a fb e9 bd 12 ad a7 be
       0.19263011 -0.60287315 -0.11424871 -0.3274923
000390 9d ec 16 3d a1 17 d4 be 04 a0 c3 be 37 16 6d bd
       0.036846746 -0.41424277 -0.3820802 -0.057882514
0003a0 3f 96 25 3e 67 53 b3 bd 5d 90 9f 3b 8a ef ad 3e
       0.16170596 -0.08756142 0.0048695044 0.33971816
0003b0 c4 57 4b 3e 19 8b 96 be 16 b0 cc 3e 39 ba df 3d
       0.19857699 -0.29402998 0.39978093 0.10924191
0003c0 4b 68 3b 3e eb 78 11 3f 21 bc 1e bf bb 78 9e 3e
       0.18301503 0.5682513 -0.6200581 0.30951485
0003d0 94 98 cf 3e a0 c2 d0 3d 38 30 f9 bd fb 77 86 3e
       0.40546095 0.10193372 -0.121674 0.26263413
0003e0 cc 62 c4 3d cc 10 90 3d 79 de c1 3e 10 b2 f3 3e
       0.095891565 0.07034454 0.37865046 0.47596788
0003f0 4a ac de be b7 21 49 3e 0a ac df 3b fb 74 04 3e
       -0.4349082 0.19641767 0.0068259286 0.1293525

model/output/b f4 [9]
000000 55 e5 1b be ae d3 8f 3d 63 ce 04 3c 4d 54 dd bc
       -0.15224202 0.070227966 0.008105847 -0.027017737
000010 08 fb 99 bc 15 81 b8 bc 0d 72 1c bd e4 d1 9c 3d
       -0.018796459 -0.022522489 -0.038194705 0.07657221
000020 07 e4 21 3d
       0.039524104
