python/results/2017_12_22_10_38_44/agent500/target_model.npz (npz, 14909 bytes, 6 tensors)

model/hidden_layers/0/W f4 [40, 40]
000000 53 8b eb bc 9e 71 57 be 43 5a 2b 3e a3 ac be be
       -0.028752958 -0.21039435 0.16733651 -0.37241086
000010 46 33 aa 3d 2d 54 17 3e 9d 7f b1 3d bf ad 91 3d
       0.08310561 0.14778204 0.086669184 0.071132176
000020 1b 4c e2 3d 71 db de 3d 8f 0a 6c be 1e 4f ff 3d
       0.11049672 0.10881699 -0.23050903 0.12466262
000030 7c 9d 65 3e a0 97 1e be 44 2a b9 3e 98 35 8f 3c
       0.22423357 -0.15487528 0.3616506 0.01748161
000040 db e2 80 3c 50 66 0d 3e f1 44 84 3e 89 4c cc 3d
       0.015733173 0.1380856 0.25833848 0.099755354
000050 63 e6 9b be a2 36 b7 be 7a 12 9d be 6b 46 5f be
       -0.3044921 -0.3578387 -0.3067816 -0.21804206
000060 14 84 25 3e 58 5f 4e bd 8b cc df 3c dc 55 a6 3e
       0.16163665 -0.050383896 0.027319213 0.3248738
000070 30 aa a6 3d ad 1c 3d bd 89 23 27 be fe 60 72 bd
       0.081379294 -0.046169925 -0.1632215 -0.05917453
000080 76 cd a1 3d 16 59 09 bd c4 e4 aa 3e 27 c6 f8 3c
       0.07900517 -0.033532225 0.3337766 0.030367924
000090 68 1e 17 be 40 62 0b be 06 11 ad 3e 7d 77 a4 3d
       -0.14757693 -0.13611698 0.3380205 0.08030603
0000a0 c5 99 16 bd 5a 84 4c 3f 38 6c e0 3e 21 3f 7a be
       -0.03676774 0.7988945 0.43832564 -0.24438144
0000b0 80 bd 87 3e 46 0b 97 3d 60 72 ae 3e fb 15 d1 3d
       0.26511765 0.07375197 0.34071636 0.102092706
0000c0 9f 2d 99 bd cb 46 cf bc a1 05 17 bd c6 b4 0c be
       -0.07479405 -0.025302311 -0.036870603 -0.13740835
0000d0 0d 09 8c bd 68 ae 9b be 2a c5 7b 3c 66 c6 bd be
       -0.06837664 -0.304065 0.015366832 -0.37065428
0000e0 82 bf 85 bd f9 30 48 be ce af 81 3d 10 92 35 be
       -0.06530668 -0.19549932 0.0633236 -0.177315
0000f0 40 5d 2a 3e a0 29 98 3e 3d 9c d3 3e 7f df e1 3e
       0.16637135 0.29719257 0.41330138 0.44115826
000100 36 9a ff 3e 0b be eb 3e 7b 6a 2b 3f 85 65 f0 3e
       0.4992234 0.4604343 0.6695935 0.46952453
000110 d9 8e 08 3f 15 0b 64 3e f0 0a 90 3e 06 c8 ac 3c
       0.5334297 0.22269852 0.28133345 0.021091472
000120 d8 73 92 3d 6b 08 87 3d 41 92 ba 3e 89 57 1b 3c
       0.07151002 0.065934025 0.36439708 0.009481319
000130 d3 ee 77 3e 2c 09 34 3e f1 79 2d 3e 17 c9 55 3e
       0.24212198 0.17581624 0.16941048 0.20877491
000140 6a a1 9a bc 95 80 0f 3d a7 42 7e be dd 63 c2 3e
       -0.018875796 0.035034735 -0.24830113 0.37966815
000150 0a d6 62 3d a9 0b 88 bc e6 a0 f7 bd 1f ad 0b 3d
       0.055379905 -0.016607122 -0.12091236 0.034100648
000160 8e 33 88 3d 3b d0 51 3c d4 2f 8b 3c 8a c0 43 bd
       0.06650458 0.012805994 0.01699058 -0.04779104
000170 1a 4c 9c 3e 00 97 95 bd f5 69 90 3d 55 4a e3 bd
       0.3052681 -0.073041916 0.0705146 -0.11098162
000180 f3 f2 a9 be 2e 69 a3 be 94 16 4c be 42 5e a8 be
       -0.33193168 -0.31916183 -0.19930488 -0.32884413
000190 aa c0 20 3d fa de 15 be 69 41 21 3e c5 e9 66 3d
       0.03924624 -0.1463584 0.15747608 0.056375284
0001a0 51 fc 0d be b4 7b a6 be 2b 18 38 bc 61 c5 c9 3e
       -0.13865782 -0.32516253 -0.011236231 0.394084
0001b0 eb 61 cf 3d 2a ae d8 bd dd 53 9c 3d bb 45 1d be
       0.10126098 -0.10580094 0.07633183 -0.15358631
0001c0 66 eb 45 3e 88 02 15 be 65 ce 21 3d bf 20 10 bd
       0.19328079 -0.14551747 0.039503474 -0.03518748
0001d0 db a7 ba 3d 96 22 30 be 52 29 c6 ba 9b 9f 1a 3c
       0.09114047 -0.17200693 -0.0015118516 0.009437467
0001e0 d5 80 b9 3d b8 7e 3d 3d 99 6a e0 bd 7e 47 a3 be
       0.09057776 0.046263427 -0.10957832 -0.31890482
0001f0 21 3f 0b bd 84 53 39 3e 97 ec 90 bd f7 5d 46 3e
       -0.03399575 0.18098265 -0.07076376 0.19371782
000200 91 ee 7b 3d 4f 13 f5 bd 2f 2d 48 3e f9 c7 cf 3d
       0.06150681 -0.119665734 0.19548486 0.10145564
000210 93 af 00 be 98 39 e4 be d6 3a d6 bd 97 a1 a7 be
       -0.12566976 -0.4457519 -0.10460441 -0.3274047
000220 49 3f bd be 5d c4 ae be b6 25 a3 bd d8 76 3a be
       -0.36962345 -0.34134188 -0.07966177 -0.18209398
000230 82 04 30 be aa 42 cc be ee 41 b1 bd 8a 55 27 be
       -0.1718922 -0.3989461 -0.08655153 -0.16341224
000240 95 28 87 bb 0d 9d cd be f4 12 1d 3d 85 8d eb 3c
       -0.004124711 -0.40158883 0.038348153 0.028754005
000250 11 57 dc bc 73 0b 15 3e a1 94 d8 bd 29 2e 22 3e
       -0.026896985 0.14555149 -0.10575224 0.15837921
000260 31 6f a2 3d 58 de 9c 3d f2 18 81 3d 53 64 82 be
       0.07931364 0.07659596 0.06303586 -0.25467166
000270 a2 34 94 bd 2f 9b 86 3d 0c 9f 33 3e 0c 5b 62 be
       -0.072366014 0.06572568 0.1754114 -0.22105044
000280 81 24 ae bd 7a 1e 33 be 00 b5 27 3d ce 9b 75 bc
       -0.08503056 -0.17492095 0.0409441 -0.01499076
000290 41 53 83 be 47 43 4a 3e 5b 0e 86 3e bb f9 80 be
       -0.25649455 0.19752227 0.26182827 -0.2519053
0002a0 16 b6 98 3d ff 12 67 bd 3c 15 2c 3d 17 1f fc 3d
       0.07456605 -0.0564146 0.04201244 0.123106174
0002b0 89 10 10 bc 57 42 5e 3e 36 cd e6 3c a5 56 48 bd
       -0.008793005 0.21704994 0.028174024 -0.048910756
0002c0 57 c1 a7 3c 63 42 be 3e 9b c6 af bc b3 63 4c 3e
       0.020477934 0.37160024 -0.021457007 0.19959907
0002d0 8d 98 c9 3d 88 2b 6a 3c 67 31 b8 3d 00 67 9e 3e
       0.0984355 0.014292605 0.08993798 0.30937958
0002e0 98 41 a9 bd 83 cc 9a be e7 52 12 3e 4b 54 be 3c
       -0.08264464 -0.30234155 0.14289437 0.023233553
0002f0 f0 5c 7f be da dc a2 bd 30 38 e9 bd 07 5a 54 3e
       -0.24937797 -0.0795228 -0.1138767 0.20737468
000300 03 c5 ec 3d 25 a0 ed 3e 65 cd 69 be 55 86 d6 bd
       0.115610145 0.46411243 -0.22832258 -0.104748406
000310 fd 6a 3f 3d cc b4 b4 3d cb c8 31 3e 48 aa 5b 3e
       0.04673289 0.08823547 0.17361753 0.21451676
000320 08 cc 40 bd 72 76 f9 3d 08 85 8a be a6 5a a2 be
       -0.04706958 0.12180795 -0.2705462 -0.31709784
000330 e4 ac e5 3d 4c de 1b be 8a 17 f3 bd 3f 3f 5b be
       0.11214617 -0.15221518 -0.11869724 -0.21410845
000340 8d cd 80 3d 9d c2 40 3e ef 07 38 3e 9c 63 c0 bd
       0.06289206 0.18824239 0.17971776 -0.09393999
000350 47 51 7b bb d9 0b ae bd 3a 0a 80 bd 22 18 18 be
       -0.0038348006 -0.084983535 -0.062519506 -0.14852956
000360 9c f1 23 3e dc 26 79 b9 42 d3 bb 3a 91 58 48 be
       0.16010135 -0.00023760967 0.0014329928 -0.19565035
000370 33 df 96 3e fc 75 e1 3e 23 66 3a 3e 42 bb 6c 3e
       0.29467162 0.44035327 0.18203025 0.23118308
000380 48 ac ed bd e4 87 06 be 78 fd 89 3d 26 a8 be bd
       -0.11605126 -0.13137776 0.067377985 -0.093094155
000390 f1 63 d3 bb 7c 8e 3a 3e 3f b5 a3 3e 9f 8c 13 3e
       -0.006451123 0.18218416 0.31974217 0.14409111
0003a0 3e d1 8c 3e c2 1f 6c 3e 54 92 a5 3d e3 db 47 be
       0.2750339 0.2305899 0.080845505 -0.19517474
0003b0 51 24 04 3d 42 d9 74 bb e1 be ac 3d 95 69 b4 3d
       0.032261197 -0.003736094 0.08434845 0.08809201
0003c0 1f b7 0f 3d ae b1 5f be bc c4 0a be fd 6f 59 3f
       0.035086747 -0.21845123 -0.1355161 0.84936506
0003d0 9c 64 21 bc 97 79 22 3c ef 58 6d 3d c1 df 19 3c
       -0.009850647 0.009916685 0.05794614 0.009391726
0003e0 82 c8 05 3e 4e a2 81 3e 1a de a4 bd 6e 26 c6 bd
       0.13064769 0.2531914 -0.08050175 -0.09675299
0003f0 63 2a 7d be c7 6e ae bd c1 32 7b be fe e6 f6 bd
       -0.247232 -0.08517223 -0.2453108 -0.12055777

model/hidden_layers/0/b f4 [40]
000000 1c 36 97 3e 96 46 00 bd 5c b1 92 3c 8f c1 56 be
       0.2953347 -0.031317316 0.017906837 -0.20972274
000010 41 7c b1 3e 2c 09 13 3f f7 a6 9b be f1 7b a2 3e
       0.3466511 0.5743587 -0.30400822 0.31735185
000020 b2 cc 9e be 70 45 e3 3e d1 74 ea 3c 45 ba d4 bb
       -0.31015545 0.44388914 0.028620156 -0.0064919316
000030 ad d9 2c be ba d8 22 3e 10 f2 b1 3c 77 e4 80 3d
       -0.16879912 0.15902987 0.02172187 0.06293576
000040 80 dd 6a be 36 0f 9f be 59 b6 73 3e 23 b9 71 3d
       -0.22936058 -0.31066293 0.23800029 0.05901445
000050 ea d2 b8 3d cf 16 76 3e 84 cc 04 be 53 02 2a 3e
       0.09024604 0.24032138 -0.12968642 0.16602449
000060 b0 ff 32 3d bf 50 57 be 9a 6c 8f be 4d e3 04 3c
       0.043700874 -0.21026896 -0.28012544 0.008110833
000070 6c 00 4d 3d f8 1b 08 bd e7 9f 54 3d 2c d8 49 3e
       0.05004923 -0.033229798 0.051910307 0.1971137
000080 63 f1 8a bd 2d 72 f8 3e 20 94 c3 be 94 03 e8 3d
       -0.06784322 0.4852461 -0.38198948 0.113288075
000090 e5 8d 44 be 2b ab 81 be aa eb 5d 3d 05 32 24 3e
       -0.19194753 -0.25325903 0.054179825 0.16034706

model/hidden_layers/1/W f4 [40, 40]
000000 2f d1 0e 3c 57 cd c0 3e 2e 00 b7 be 13 8e 3b 3e
       0.008716865 0.37656662 -0.35742325 0.18315916
000010 ca 3f 56 3e 85 30 19 3e a0 88 3d 3e c0 66 dd 3c
       0.20922771 0.14959915 0.1850915 0.027026534
000020 c6 9e 64 be e2 09 c9 3d b1 cd c3 bb b5 d8 a4 bd
       -0.22326192 0.09816338 -0.005975448 -0.08049146
000030 25 3a a5 3e 55 67 03 3d f1 0c 7e bd cf ae 09 be
       0.32270923 0.032080967 -0.06202406 -0.1344559
000040 9c bc 80 3d 32 6d 8f 3e 4e cd 81 3d 59 31 d1 bc
       0.062859744 0.28012997 0.06337987 -0.025536226
000050 fb 9d ac be 26 61 6f bd 7e 8b 8b be d8 bb 03 3f
       -0.3371428 -0.058442257 -0.27254862 0.514585
000060 68 59 09 3f 4f 7d 49 3c bf a5 0d bd 10 7c 03 bf
       0.5365205 0.012297942 -0.034581896 -0.5136118
000070 8d 2f 43 3d 46 4d 2d 3d f7 a8 c9 3d 9d 23 55 3e
       0.04765277 0.04231002 0.098466806 0.20814367
000080 42 8c ca 3e 04 f8 94 3c 9a 0d 0e 3e c4 e0 9c be
       0.39560133 0.01818467 0.13872376 -0.30640233
000090 b9 b2 0f 3e 97 d7 7f bd 73 7c 95 3e 13 bb 4e be
       0.14033021 -0.062461462 0.2919651 -0.2018855
0000a0 fb 55 88 3d b2 d3 16 3e ad 82 99 bd 24 14 a8 bd
       0.066570245 0.14729193 -0.074956276 -0.082069665
0000b0 5f fe 30 bd 5f c5 10 bf ce 32 94 3e 55 ee d6 3c
       -0.043211337 -0.56551164 0.2894501 0.026236692
0000c0 cf 96 a3 3e 33 83 cb be 47 66 e7 bd 71 90 64 be
       0.31950995 -0.39748535 -0.11298805 -0.22320725
0000d0 6d 70 7c 3e 0a 26 46 3d b8 41 31 be 44 33 3e be
       0.24652262 0.04837612 -0.17310226 -0.18574244
0000e0 44 9c 17 3e d1 8f 2e 3e 72 be 83 be c4 2d 97 3c
       0.14805704 0.17047049 -0.25731236 0.01845444
0000f0 99 af 58 be 69 81 26 3d fe 51 fe 3d 1a 43 b7 bd
       -0.21160735 0.04065076 0.124179825 -0.089483455
000100 23 5c 32 3e de 6e 30 3e e3 d2 5f 3e 2c 41 04 be
       0.1741796 0.17229792 0.2185779 -0.12915486
000110 48 1d 09 be 85 f2 d6 3e ae 83 a2 be d9 14 db bc
       -0.13390076 0.41981903 -0.3174109 -0.02674334
000120 43 3e b9 3e 53 20 ef be 1e e6 04 bc 86 d7 49 3e
       0.36180314 -0.4670435 -0.008111505 0.19711122
000130 82 ce ba 3e 09 bf 4b bd d4 7e ec 3d d3 a1 8d be
       0.36485678 -0.049742732 0.11547628 -0.27662525
000140 50 73 20 3e 3b b4 9b be ec d2 94 bd 7f 3d a3 3d
       0.15668988 -0.30410942 -0.07266793 0.07970714
000150 f8 83 8f be 4a 38 9e ba f5 a1 41 be 03 4c ed 3e
       -0.28030372 -0.0012071219 -0.18909438 0.46347055
000160 f7 d7 8b 3e 75 08 26 bd 71 e8 59 3e 98 93 b4 3d
       0.27313206 -0.04053541 0.21280076 0.08817214
000170 73 28 8e be b9 bc 20 3d 79 6e 68 3d fc 76 c0 bd
       -0.27765235 0.03924248 0.05674598 -0.093976945
000180 28 a9 4a be 41 3b 2b bf 43 a9 b6 3d b5 c6 13 be
       -0.1979109 -0.6688729 0.08919003 -0.1443127
000190 83 25 e9 3d 96 3c 25 3f 04 06 76 be 85 10 26 3d
       0.11384108 0.6454557 -0.24025732 0.040543098
0001a0 76 41 2b be 9f c1 ad bd 73 7a 9b 3d 21 21 f8 3e
       -0.1672419 -0.08484196 0.07591715 0.48462775
0001b0 56 8d 17 be c3 40 13 3d 1e 94 a6 be a4 8a 31 be
       -0.14800009 0.035950433 -0.3253488 -0.17338043
0001c0 f8 c8 79 bf d9 7f fb bb c0 4f a6 3e 85 de 9c be
       -0.9757228 -0.0076751527 0.3248272 -0.3063852
0001d0 8e 1b 2b bf 0a 18 0f bf 0c 37 05 3d 0f 40 22 3f
       -0.6683892 -0.55896056 0.0325232 0.63378996
0001e0 22 d1 cf 3d 8a a6 16 3e 78 83 84 bc fa a5 0a 3e
       0.10147311 0.14711967 -0.01617597 0.13539878
0001f0 7c 9d b2 be ce a9 6f be d8 b2 e8 3e 91 16 a4 3d
       -0.34885776 -0.23404619 0.45448947 0.08012117
000200 0b a0 22 3e 6c 88 dd be c6 fa 4b be a9 09 b4 bd
       0.15881364 -0.43268144 -0.19919881 -0.08790905
000210 61 6c 26 3e ca e6 e8 bc a1 3a 71 bd c2 a5 a2 3a
       0.16252281 -0.028430361 -0.058893804 0.0012409019
000220 17 93 b8 3d 02 21 be 3d a4 55 38 be 9f 71 13 3d
       0.0901243 0.092836395 -0.1800142 0.03599703
000230 6a 49 0c be e9 e6 e0 bd f1 6d 84 bd a5 1a d4 be
       -0.1369988 -0.109815426 -0.06466282 -0.41426578
000240 2c 96 83 be 17 a5 4e 3e c2 af 82 3e 58 df f2 3d
       -0.2570051 0.20180164 0.25524718 0.11859006
000250 ef c2 ed 3d 89 df 81 3e 76 6c 84 3d 1c 3a b3 be
       0.11609446 0.25365856 0.06466 -0.3500527
000260 a9 5a 59 bd c0 41 10 be 77 55 27 3e 55 90 f6 3d
       -0.053064976 -0.14087582 0.16341196 0.12039248
000270 ff 9b 4e 3e e6 35 23 3d f3 06 c7 3d 33 09 2c bc
       0.20176695 0.039846323 0.09718122 -0.01050024
000280 30 93 80 bd cc 2a 2d 3f 48 bc 55 3e 61 fd dd 3c
       -0.06278074 0.6764343 0.20872605 0.02709836
000290 da 76 11 be 08 26 de 3e bb 54 f5 bc 4b 44 68 bc
       -0.14205495 0.4338839 -0.02994763 -0.014176439
0002a0 07 db 0f 3e 8b 7e ea 3b 24 c3 27 be ae e0 02 3e
       0.14048396 0.0071561984 -0.16383034 0.12781021
0002b0 76 b3 91 3e ee 43 ce 3b 3d 66 4f 3d ef 86 e6 bd
       0.2845723 0.006294719 0.05063461 -0.11256205
0002c0 7f cc 02 bf 3b f7 45 3d c9 9c a8 3e f6 cc 93 be
       -0.51093286 0.04833148 0.32932118 -0.2886731
0002d0 1d 98 b4 be f1 b2 37 be 4e 3c bd be 06 7a 70 be
       -0.35272303 -0.17939354 -0.3696007 -0.23484048
0002e0 65 4d d4 3e 39 de ef 3d 4e 5d 1f bf a0 4a 16 bf
       0.41465297 0.117123075 -0.62251747 -0.5870762
0002f0 da fd 0a be fb db 12 be da 52 3c 3e 3e cd d4 3a
       -0.13573399 -0.14341728 0.1839098 0.0016235483
000300 34 47 54 3e d1 fb 24 be 5d 17 50 be bd 9d 15 be
       0.20730287 -0.16111685 -0.20321412 -0.14610954
000310 8f e5 28 3f 0b bd 92 bd a8 72 78 3e fb c7 88 be
       0.6597528 -0.07164963 0.24262488 -0.26715073
000320 ee 98 89 be 84 e6 99 be 7e 94 0a 3e d6 ed e6 bb
       -0.2687449 -0.30058682 0.13533208 -0.007047395
000330 80 cc 20 3e 22 2e aa be fb 96 80 3e 0c ca a4 be
       0.1570301 -0.33238322 0.2511519 -0.321854
000340 69 2a ab 3e 70 66 88 be 25 98 11 be 08 f2 f5 bd
       0.33430794 -0.26640654 -0.14218195 -0.120090544
000350 00 7b 41 3d 3e f8 8d bd e7 28 10 be 2d 41 ee 3c
       0.047236443 -0.06932114 -0.14078103 0.029083813
000360 cf ca c6 3e 2e 8e 94 3e 63 a0 38 be a8 f7 f2 3c
       0.38826606 0.29014724 -0.18029933 0.029659107
000370 33 db 68 bd 33 1b a2 3d 16 4c 20 be 22 77 9b 3d
       -0.05684967 0.07915344 -0.15654024 0.07591082
000380 27 96 15 3d 15 9b 85 3e 3e 60 53 3e 2a 7e 7b 3d
       0.03652015 0.2609488 0.20642182 0.061399616
000390 bb 5a 30 be 80 9d 23 be 8b e5 8a 3b 5e 07 2e be
       -0.17222111 -0.1597805 0.0042387894 -0.16994998
0003a0 31 16 0c 3c 30 99 aa be 35 58 aa 3e 91 6b 27 be
       0.008550213 -0.33319998 0.33270422 -0.16349627
0003b0 d9 9a 00 3e ab 78 8d 3e d2 76 f8 3c 24 5e 32 be
       0.1255907 0.27631125 0.030330095 -0.17418724
0003c0 36 ba 20 3e 3c 87 4a be 01 47 37 3e 21 65 54 be
       0.15696034 -0.1977815 0.1789818 -0.20741703
0003d0 9e 41 f5 3e a7 35 eb 3d 0f d8 9b bd 5a 4d 33 3e
       0.47901624 0.11484843 -0.07609569 0.17509976
0003e0 06 a6 2c 3e 64 22 47 3e 9e 9b 3b bc f0 eb 5b be
       0.16860208 0.19446713 -0.011450676 -0.21476722
0003f0 ec a1 94 bc 4c ca c2 3e 72 95 99 bd 1e 6b ea 3d
       -0.018143617 0.38044965 -0.074992076 0.11446212

model/hidden_layers/1/b f4 [40]
000000 58 aa 1c 3d 9b 4f 3b be b1 d3 09 3e 79 3e 25 be
       0.03824839 -0.18292086 0.1345966 -0.16137113
000010 c8 b5 66 3d 7f 84 6f be ac 2d 52 3d 60 80 86 bc
       0.056325704 -0.23390387 0.051313087 -0.016418636
000020 6c f0 d4 bd 61 2e bd bc 08 a7 4a bd 5c 75 f4 bd
       -0.10397419 -0.023093404 -0.0494757 -0.11936447
000030 ed e6 67 3e 55 26 04 be 7d 8f b9 3c 72 6c 01 be
       0.22646685 -0.12905248 0.022651428 -0.12639025
000040 e7 0d fc 3d 98 e7 a4 bc 89 7d e2 bd 1e 22 16 3c
       0.12307339 -0.020129964 -0.110591 0.009163408
000050 35 9a 21 bc 33 3f 78 3d e0 8b 75 3d 1e 09 75 bc
       -0.009863426 0.060607146 0.05994785 -0.014955787
000060 a0 37 8e bc 94 6b 14 3c 5a 4c 25 3c 61 ac d3 3d
       -0.017360508 0.009058852 0.010089004 0.10335613
000070 b3 85 92 3d a2 29 d4 3d f0 b2 f6 3c 02 0e 03 bd
       0.07154407 0.10359503 0.03011462 -0.03199578
000080 bf 3b a6 bc 29 1c 64 3d 30 95 a4 3c ac 73 9c bd
       -0.020292161 0.055690918 0.02009067 -0.0763925
000090 c9 f8 bd bd a3 c8 33 3c 73 d3 2a be d6 17 80 bc
       -0.09275968 0.0109731285 -0.16682224 -0.015636366

model/output/W f4 [9, 40]
000000 cb 34 d6 3e da 48 ff 3e 49 f8 27 bf e2 00 31 3e
       0.41837153 0.4986027 -0.6561323 0.17285493
000010 58 4e a2 3e 26 c4 e9 3e 02 40 5e be 49 e2 de bc
       0.31700397 0.45657462 -0.21704105 -0.02720751
000020 a1 3f 80 3e 27 c2 91 3d d5 86 bb 3e 03 b0 2c 3e
       0.25048545 0.0711711 0.36626306 0.16864018
000030 b0 76 8c be 5b da 73 3e 10 48 56 3e 28 e1 4f 3e
       -0.274343 0.23813765 0.20925927 0.20300734
000040 d2 2a 18 be 26 f7 7b 3e 64 b2 9e 3d a0 34 36 be
       -0.14860085 0.24605998 0.07748869 -0.17793512
000050 4f eb 0c 3e 33 3a d5 be 08 b5 75 3e f8 f8 d7 bd
       0.13761638 -0.41645965 0.23994839 -0.10545534
000060 39 e4 dd bb f5 a2 6c be 37 0a bb be fb 54 80 be
       -0.006771591 -0.23109038 -0.3653123 -0.25064835
000070 0d 1f 46 be e2 48 f0 bd 89 64 fb be cb d8 8d 3e
       -0.19347782 -0.11732651 -0.4910014 0.27704462
000080 7e dd 8f 3e 71 92 fb bb a6 06 60 3e d4 e0 13 3f
       0.28098673 -0.0076773693 0.21877536 0.57764935
000090 6a d3 d1 bc f8 67 5a be 5d 87 96 3e 94 cc 6d 3e
       -0.025613505 -0.21328723 0.2940015 0.23222572
0000a0 3f ff 09 3d 64 45 ad 3e 57 05 2e bf fe fe 91 3e
       0.033690687 0.33842003 -0.679769 0.28514856
0000b0 c3 5a ba 3e ad 3a bd 3e f3 59 af bd cf b8 be 3b
       0.3639737 0.3695883 -0.08562078 0.0058203707
0000c0 5a 2f 64 3e a7 5e bc 3c cb ae ed 3e 7a 0c 9e 3e
       0.22283688 0.022994353 0.4642242 0.30868894
0000d0 0d 0b ff be 38 7d 1b 3e 7f 97 2c 3e 7e 5c 58 3e
       -0.4981312 0.15184486 0.16854666 0.21129033
0000e0 b7 ea 19 be 82 56 d1 3e 0d b8 5e be 06 b0 fb be
       -0.15030943 0.40886313 -0.21749897 -0.49157733
0000f0 43 7c 8b bd 29 10 29 be aa be 2c 3e b0 c8 d5 3d
       -0.068108104 -0.16510071 0.16869608 0.10438669
000100 1d 0d c9 3d 99 6b 0a be 74 37 76 be 1d ee b8 be
       0.09816954 -0.13517608 -0.24044591 -0.36119166
000110 1a 47 1b be 4e b6 cd be 6d ec a6 be 79 db da 3e
       -0.15163842 -0.4017815 -0.32602254 0.4274557
000120 32 ff 43 3e b8 f7 d6 bb c2 2e 8c bc 36 7f 06 3f
       0.19140318 -0.006560292 -0.01711214 0.5253786
000130 8d 22 05 3d 26 e4 7e be a8 66 b5 3e ba 16 08 3e
       0.032503653 -0.24891719 0.35429883 0.1328992
000140 bb 1a e5 3e 5d 3a 9d 3e 28 b2 ea be 69 d2 bc 3e
       0.44746956 0.3070859 -0.45839047 0.3687928
000150 0f 2c 01 3f ba 1e 07 3f 47 16 99 be c3 91 81 be
       0.50457853 0.5278126 -0.2989981 -0.2530652
000160 43 df e3 3d 7b 44 96 3d 2c 90 c6 3e 2b fd 8d 3e
       0.11126568 0.0733728 0.3878187 0.27732214
000170 c2 8b 6d be b5 3e 1b 3e 67 6b 32 3e 62 1e 7d 3e
       -0.23197845 0.1516064 0.17423783 0.24718621
000180 28 a1 39 be 42 6e 99 3e 29 4f 0a 3e 84 34 e0 3b
       -0.18127882 0.29966933 0.1350676 0.006842198
000190 13 e5 5f 3d 93 9e 60 be da 2a 5d 3e 95 93 bb 3c
       0.05466182 -0.21935491 0.21598378 0.022897521
0001a0 1b 5a d3 3d 3e c6 12 be de 0f d9 be dc b3 b6 be
       0.10319921 -0.14333436 -0.42394918 -0.35684097
0001b0 04 a0 f5 bd 24 52 fc bc c9 db e0 be dc 49 b3 3e
       -0.11993411 -0.030800886 -0.43917683 0.35017288
0001c0 a9 bb a8 3e 36 7c af bd 71 d8 09 3e 2b 80 e4 3e
       0.32955673 -0.08568613 0.13461472 0.44629034
0001d0 a5 25 00 3e 13 0b ee be ce 0d 85 3e 59 25 86 3e
       0.1251436 -0.46492824 0.25987095 0.2620037
0001e0 ad 1b b3 3e 4d c4 93 3e 0e 0c a2 be eb c1 bf 3e
       0.34982052 0.28860703 -0.31649822 0.37452635
0001f0 55 06 c5 3e 0b 8a 83 3e 65 6e 76 be 4a ec bd 3d
       0.38481393 0.25691256 -0.2406555 0.09273584
000200 6a e1 33 3e 9c 20 0a 3e 58 7c b3 3e 93 25 ba 3e
       0.17566457 0.13489002 0.35055804 0.36356792
000210 a6 d8 ab bd 45 06 a0 3e 72 a0 aa be 8e 47 21 3e
       -0.08390932 0.31254783 -0.33325535 0.15749952
000220 ec 28 2a be 8f 38 d2 3e cc 31 48 be 20 b1 15 bf
       -0.16617173 0.41058776 -0.19550246 -0.58473396
000230 5b 3d 46 3e 02 17 b0 be 2d 9b 96 3d a5 68 55 be
       0.19359343 -0.34392554 0.07353816 -0.208407
000240 f8 b4 c4 3d fc 19 19 be 92 c7 e8 be 00 4a 8b bd
       0.096048295 -0.14951319 -0.4546476 -0.06801224
000250 84 44 b4 bd 49 5d 79 be bf f9 99 be 72 ed ba 3e
       -0.08802131 -0.24351992 -0.30073354 0.3650928
000260 4f b2 72 3e 2c 70 85 3d f2 42 be 3e 43 aa 2c 3f
       0.23700832 0.06515536 0.3716045 0.674473
000270 98 73 08 be 0f 6a 24 3c 51 a9 c5 3e 0f 65 bb 3e
       -0.13325346 0.010035052 0.3860574 0.3660054
000280 51 35 06 3e 8c c7 f4 3e bb 80 f3 be e2 e4 89 3e
       0.13106276 0.47808492 -0.4755915 0.26932436
000290 87 73 ac 3e 3e f5 17 3f 7a d1 63 be 82 0b 94 be
       0.3368189 0.59358585 -0.22247878 -0.2891503
0002a0 da 14 1c 3e fd 3b 04 3e a9 8d c8 3e 17 8c bf 3e
       0.15242329 0.12913509 0.39170578 0.37411568
0002b0 19 5a 9b be 1f 3c 6b 3e 95 65 b5 bd d5 ff 45 3e
       -0.30342177 0.22972153 -0.08857266 0.19335873
0002c0 f4 02 8a be 85 14 e0 3e db 49 44 3c 6c a7 9d be
       -0.26955378 0.43765655 0.011980499 -0.30791795
0002d0 95 09 17 3e 32 ac 55 be 69 38 17 3e ee ef 9b bc
       0.14749749 -0.20866469 0.14767613 -0.019035306
0002e0 3a 9e f5 3c 8c 41 f5 be e0 05 7f be 6c 4d f4 bd
       0.029982675 -0.4790157 -0.24904585 -0.119288296
0002f0 9b ba 24 be a0 71 9a bd 2c 87 d7 be 3a 1f 94 3e
       -0.1608681 -0.075412035 -0.42095315 0.28930074
000300 7c c6 05 3b 65 da fa bc 1b fa d5 3d d0 8c 28 3f
       0.0020412495 -0.030621717 0.104480945 0.6583986
000310 7f 16 0c be 8d 4a d0 be 79 8f 8b 3e ca 11 16 3e
       -0.13680457 -0.40681878 0.27257898 0.14655223
000320 f6 99 33 3e 45 2d ee 3e f2 56 50 bf 10 48 29 3c
       0.175392 0.46518913 -0.8138267 0.010332122
000330 d2 93 8b 3d 3b 38 87 3e 0f 99 99 be d7 87 88 bd
       0.06815304 0.26410088 -0.29999587 -0.066665344
000340 60 47 ab 3e 7a 19 be 3d f8 ee dd 3e 18 0f 0f 3e
       0.33452892 0.09282203 0.4334638 0.13970602
000350 f0 7d e9 be 21 35 2d 3e 53 dc 41 bd 5a fb 44 3e
       -0.45603895 0.16914798 -0.04732926 0.19236508
000360 8a 15 45 be 5e 86 24 3e f1 64 01 bf 95 5c 3c bf
       -0.19246498 0.16066882 -0.5054465 -0.7357877
000370 64 1d 6d 3d 0d eb a4 be 94 98 dc 3e 88 27 03 be
       0.057889357 -0.3221058 0.43085158 -0.12808049
000380 1d 26 46 3e 17 99 1a bf 02 ec eb bd 8b ee a7 be
       0.19350477 -0.60389847 -0.11519624 -0.3279918
000390 cc fd 13 3d e7 48 d4 be 1c f5 c3 be 37 68 69 bd
       0.03613071 -0.4146187 -0.3827294 -0.056984153
0003a0 38 8a 26 3e 00 7c b1 bd d2 98 be 3b 22 56 ae 3e
       0.16263664 -0.08666229 0.0058165574 0.3405009
0003b0 0a 7a 4a 3e a7 ec 96 be ad e0 cc 3e b8 4a e1 3d
       0.19773117 -0.29477426 0.40015164 0.110005796
0003c0 56 c3 3b 3e ed 86 11 3f ad d7 1e bf d8 23 9e 3e
       0.18336233 0.56846505 -0.62047845 0.30886722
0003d0 c4 c5 cf 3e e8 33 cf 3d cb 2b f7 bd 81 49 86 3e
       0.4058057 0.10117322 -0.120689 0.26227954
0003e0 37 35 c3 3d 7b 5f 8f 3d bc 14 c2 3e 34 68 f3 3e
       0.09531634 0.07000633 0.37906444 0.47540438
0003f0 6f 67 de be 57 b1 48 3e 8b fc ed 3b c1 53 04 3e
       -0.4343829 0.195989 0.0072627715 0.12922575

model/output/b f4 [9]
000000 b8 00 1d be ab c9 8f 3d a3 10 06 3c 0c 9e df bc
       -0.15332305 0.07020887 0.008182677 -0.027297042
000010 20 11 9e bc fd ea ae bc 17 b9 1a bd 77 87 9c 3d
       -0.019295275 -0.021352286 -0.03777417 0.07643025
000020 0f af 1d 3d
       0.038497027
