python/results/2017_12_22_10_38_44/best_agent/model.npz (npz, 14939 bytes, 6 tensors)

model/hidden_layers/0/W f4 [40, 40]
-0.03249041 -0.32169387 0.41082475 -0.57319206 -0.07090272 0.0278656 0.04183112 0.066757925
0.065433405 0.10845944 -0.27108982 0.04675557 0.15745777 -0.2823645 0.32098547 0.03149613
0.039134856 0.08846637 0.1929193 0.074367285 -0.3624309 -0.58691263 -0.63815355 -0.6377083
-0.10886631 0.037937462 0.40853548 0.7826841 0.47543067 0.28906626 0.103327654 0.12285678
0.16211143 -0.018062446 0.24649931 0.12490339 0.09295928 0.036909882 0.26243004 -0.0540567
-0.059175514 0.8867364 0.49050108 -0.72783005 0.4857852 0.23334998 0.2470852 0.14905643
0.16798793 0.056722622 0.0784598 -0.058987617 0.041671634 -0.070191756 -0.012846036 -0.300628
-0.0936571 -0.18083428 0.056599464 -0.23503162 0.14010422 0.45397413 0.7248871 0.8734301
0.985538 0.90270835 0.91699564 0.6950794 0.6895652 0.28768384 0.28730202 0.021475838
0.09304985 0.09910159 0.4671404 0.10564482 0.31637788 0.2653629 0.35718393 0.40420562
-0.066196896 0.0647197 -0.26246822 0.4250661 0.07042771 -0.00049899926 -0.13218428 0.005793316
0.07449641 -0.0027900897 0.038340196 -0.030355152 0.31175137 -0.1186307 -0.0071100816 -0.20968981
-0.4034297 -0.34770948 -0.17142451 -0.27266875 0.034541175 -0.14989392 0.20967457 0.13906132
-0.02855377 -0.2733976 -0.009027562 0.40066123 0.11239281 -0.108135305 0.06764621 -0.16555534
0.17047554 -0.18907355 -0.03351435 -0.07519179 0.053663578 -0.23807217 -0.036393106 0.076789446
0.06559882 0.2319515 -0.38862714 -0.5732801 -0.064586945 0.07261471 -0.13607137 0.11182661
-0.02401512 -0.08467858 0.2381164 0.13045608 -0.15338027 -0.5011724 -0.20107074 -0.46747807
-0.562343 -0.69198066 -0.43597913 -0.4622106 -0.44793516 -0.5930157 -0.23674007 -0.20929326
0.008679323 -0.2565413 0.08213041 0.046614118 0.02535801 0.18489474 -0.08647007 0.13812628
0.041338556 0.05369514 0.104095064 -0.34797078 -0.21769527 -0.1361577 0.040273804 -0.23351094
-0.109559245 -0.34295285 0.28283343 -0.18296622 -0.013016649 0.38367403 0.22495772 -0.024029221
0.203737 -0.015474597 0.074978344 0.12466709 0.014735931 0.21411373 0.027118172 0.004144802
0.04514483 0.34100965 -0.048074096 0.237991 0.16330469 0.24053025 0.3161352 0.6299822
0.22951142 -0.16770947 0.09679864 -0.049348958 -0.27871 -0.11125117 -0.1200717 0.21282764
0.100229844 0.42401463 -0.2795768 -0.045556758 0.04138821 0.015463841 0.13497497 0.27335128
-0.06477755 0.11743534 -0.25458425 -0.6360334 0.14321746 -0.1578434 -0.1214333 -0.2625137
0.07762226 0.14329588 0.11460158 -0.1188814 0.014065772 -0.13914447 -0.17163403 -0.17604455
0.10592171 0.019072535 0.15477718 0.06542875 0.40123057 0.34468555 0.0011575087 0.11273459
-0.1585551 -0.0036019897 0.25940624 0.121998586 0.2420346 0.43383557 0.49099654 0.20905337
0.23312172 0.10408553 -0.16684031 -0.3174304 -0.004227097 0.102657154 0.26852578 0.21286803
-0.01611214 0.12210837 -0.3558804 1.3446654 0.23122235 0.116209626 0.19494593 0.24093334
0.22943139 0.37053764 0.2317624 0.14431457 -0.09838635 0.08174222 -0.1419705 -0.08138185
00000000: aa14 05bd 0fb5 a4be 9f57 d23e b7bc 12bf
00000010: 7235 91bd 6646 e43c 1c57 2b3d 61b8 883d
00000020: f301 863d fc1f de3d 49cc 8abe c582 3f3d
00000030: 9c3c 213e 1492 90be 3558 a43e 1602 013d
00000040: df4b 203d db2d b53d a38c 453e e04d 983d
00000050: 8b90 b9be e83f 16bf 085e 23bf da40 23bf
00000060: 4df5 debd 5064 1b3d 902b d13e fc5d 483f
00000070: a66b f33e 7e00 943e 739d d33d 569c fb3d
00000080: 8a00 263e b2f7 93bc 516a 7c3e 59cd ff3d
00000090: 6f61 be3d d12e 173d 3b5d 863e 8f6a 5dbd
000000a0: 0662 72bd 2801 633f f522 fb3e 1253 3abf
000000b0: d6b8 f83e 4cf3 6e3e e703 7d3e 40a2 183e
000000c0: 0705 2c3e fb55 683d 88af a03d 009d 71bd
000000d0: e0af 2a3d b2c0 8fbd 2e78 52bc eaeb 99be
000000e0: 4bcf bfbd 9f2c 39be d7d4 673d 21ac 70be
000000f0: 7b77 0f3e 4c6f e83e 3392 393f 1d99 5f3f
00000100: 384c 7c3f e517 673f 3ac0 6a3f b9f0 313f
00000110: 5887 303f 4c4b 933e 4019 933e 19ee af3c
00000120: eb90 be3d c6f5 ca3d 072d ef3e 505c d83d
00000130: 48fc a13e a5dd 873e d0e0 b63e 0af4 ce3e
00000140: 3d92 87bd c38b 843d 3c62 86be 44a2 d93e
00000150: 673c 903d 46cf 02ba 515b 07be dbd5 bd3b
00000160: 9391 983d f0d9 36bb 9c0a 1d3d 5eab f8bc
00000170: e09d 9f3e a7f4 f2bd b0fb e8bb edb8 56be
00000180: 568e cebe fa06 b2be e889 2fbe 3d9b 8bbe
00000190: 0c7b 0d3d cb7d 19be eeb4 563e 1766 0e3e
000001a0: 99e9 e9bc c5fa 8bbe 57e8 13bc 7823 cd3e
000001b0: 342e e63d 0b76 ddbd 198a 8a3d 5787 29be
000001c0: 2491 2e3e 7f9c 41be 5846 09bd 27fe 99bd
000001d0: 57ce 5b3d 31c9 73be f010 15bd c943 9d3d
000001e0: ad58 863d b284 6d3e 23fa c6be 7cc2 12bf
000001f0: 2946 84bd 05b7 943d 4b56 0bbe 5a05 e53d
00000200: 5bbb c4bc f76b adbd c9d4 733e 4796 053e
00000210: b80f 1dbe d64c 00bf 7de5 4dbe 4959 efbe
00000220: b6f5 0fbf a525 31bf a838 dfbe dea6 ecbe
00000230: c257 e5be e0cf 17bf fd6b 72be f950 56be
00000240: b833 0e3c 6259 83be fd33 a83d 72ee 3e3d
00000250: 9abb cf3c 0c55 3d3e 3817 b1bd fa70 0d3e
00000260: 9e52 293d 6fef 5b3d cb2f d53d 3a29 b2be
00000270: 82eb 5ebe ed6c 0bbe 25f6 243d 7e1d 6fbe
00000280: 9960 e0bd 8497 afbe 8bcf 903e 7f5b 3bbe
00000290: c843 55bc ec70 c43e 515b 663e eed8 c4bc
000002a0: 6fa0 503e 2a89 7dbc 3f8e 993d 7651 ff3d
000002b0: f96e 713c a140 5b3e ee26 de3c 1fd1 873b
000002c0: c9e9 383d d198 ae3e 58e9 44bd eab3 733e
000002d0: 5839 273e 904d 763e 79dc a13e 8346 213f
000002e0: 0b05 6b3e 08bc 2bbe 5e3e c63d 2222 4abd
000002f0: 14b3 8ebe a7d7 e3bd 27e8 f5bd 7def 593e
00000300: 4e45 cd3d 7218 d93e b124 8fbe b999 3abd
00000310: af86 293d 0d5c 7d3c e136 0a3e b3f4 8b3e
00000320: 18aa 84bd f181 f03d de58 82be 16d3 22bf
00000330: 99a7 123e b3a1 21be 06b2 f8bd 3268 86be
00000340: 6bf8 9e3d 28bc 123e 3cb4 ea3d 1778 f3bd
00000350: 2074 663c e37b 0ebe d5c0 2fbe 0645 34be
00000360: 7bed d83d 013e 9c3c e97d 1e3e 82ff 853d
00000370: 186e cd3e a07a b03e 8cb7 973a 65e1 e63d
00000380: 455c 22be 5c0f 6cbb e5d0 843e 65da f93d
00000390: ebd7 773e b21f de3e e663 fb3e 1612 563e
000003a0: 76b7 6e3e cb2a d53d 30d8 2abe 3d86 a2be
000003b0: 7683 8abb ea3d d23d 367c 893e 14fa 593e
000003c0: 9bfd 83bc f413 fa3d f535 b6be ff1d ac3f
000003d0: 8dc5 6c3e 50ff ed3d e89f 473e 3bb7 763e
000003e0: 10f0 6a3e 1cb7 bd3e 1f53 6d3e 33c7 133e
000003f0: c87e c9bd 7768 a73d b760 11be 87ab a6bd

model/hidden_layers/0/b f4 [40]
0.6553281 0.28130087 0.015471054 -0.7347405 0.65076125 0.9359832 -0.49396232 0.53003407
-0.7405974 1.0447611 -0.049812585 0.07135492 -0.31434727 0.32483137 0.049837198 0.03855785
-0.15450595 -0.7006136 0.40168232 0.15245515 0.065705426 0.3978896 -0.20863096 0.21434614
0.16324124 -0.4454368 -0.7241462 -0.032003976 0.08805341 0.07823994 0.031587236 0.15793395
0.11712439 0.65972525 -0.58391845 0.24926783 -0.08633945 -0.31702465 0.060781926 0.19639577
00000000: 95c3 273f ab06 903e 4e7a 7d3c f417 3cbf
00000010: 4a98 263f 989c 6f3f a1e8 fcbe 50b0 073f
00000020: cb97 3dbf bbba 853f 4808 4cbd 8722 923d
00000030: 20f2 a0be 4c50 a63e 1722 4c3d d6ee 1d3d
00000040: cf36 1ebe 6a5b 33bf 4ea9 cd3e 341d 1c3e
00000050: 9190 863d 30b8 cb3e 5ba3 55be 8e7d 5b3e
00000060: b628 273e 4b10 e4be a561 39bf 9a16 03bd
00000070: 5955 b43d 433c a03d 9e61 013d 70b9 213e
00000080: eade ef3d c1e3 283f ae7b 15bf 1140 7f3e
00000090: bdd2 b0bd 0e51 a2be 78f6 783d f91b 493e

model/hidden_layers/1/W f4 [40, 40]
-0.025469836 0.5527204 -0.36839104 0.32141775 0.2356433 0.10760281 0.2257382 0.01668447
-0.0680737 0.12280402 -0.045731664 -0.056105834 0.4865208 0.027962675 -0.11213186 -0.109363444
0.076082915 0.45974603 0.07794944 -0.07429085 -0.38538268 -0.16636302 -0.2449193 0.46206096
0.6707447 0.18186039 -0.008333881 -0.63675624 0.017992185 0.054935183 0.12924702 0.28387117
0.4852207 0.071762376 0.17743877 -0.27098006 0.31535655 -0.0029295846 0.29533616 -0.25740325
-0.06444013 0.33846593 -0.09586574 -0.11123884 0.15349802 -0.5288607 0.60663587 0.30711675
0.4325787 -0.5618327 -0.25948897 -0.24068807 0.36606914 0.1363689 -0.25636834 -0.19817694
0.1806235 0.3378591 -0.35455817 0.010323332 -0.3053023 0.29044807 0.100701325 -0.21819575
0.1292166 0.5178783 0.25703946 -0.031257488 -0.08447881 0.47636428 -0.32512236 -0.026318463
0.36762157 -0.61882055 -0.02644965 0.36395958 0.6092246 -0.08790459 0.112236455 -0.19368698
0.41699505 -0.716584 -0.0798246 0.02858718 -0.311567 0.08980874 -0.29855698 0.45485243
0.1857075 0.104851924 0.22125253 0.029082637 -0.62266123 0.038488016 0.06552331 -0.09255716
-0.20886709 -0.58885694 0.13945495 -0.09032791 0.3062794 0.6839302 -0.1553671 0.13875471
-0.42750126 -0.108700186 0.013238333 0.64178944 -0.12674667 -0.018170398 -0.43894616 -0.34834462
-1.2320948 -0.08619815 0.41696367 -0.2870171 -0.8910971 -0.5685418 0.045341436 0.729872
-0.073967464 0.15219526 -0.022469483 0.13580316 -0.438369 -0.31116688 0.5432824 0.055379137
0.23634091 -0.5960948 -0.24069667 -0.073653325 0.15442605 -0.07723012 -0.093582086 0.04046894
0.14326026 0.082654074 -0.23692925 -0.027069053 -0.055698402 -0.074708536 0.02042083 -0.51771396
-0.34951156 0.30339152 0.3112064 0.16246055 0.07572406 0.23166665 0.15658987 -0.35541746
-0.1010711 -0.17679834 0.19147459 0.16320562 0.16481918 0.09086107 0.07966223 0.10283859
-0.08418458 0.8422009 0.1864529 0.12905957 -0.12627181 0.44549537 0.007107005 -0.017775157
0.24319945 0.06859644 -0.21502604 0.13279207 0.41293925 -0.0052274326 0.017127011 -0.07929662
-0.5454099 0.14090687 0.3254581 -0.3338829 -0.3245736 -0.23300874 -0.37269703 -0.28486145
0.54449856 0.15916774 -0.6408249 -0.6949822 -0.15182695 -0.12585957 0.17335132 0.09148893
0.25654534 -0.11385339 -0.19949143 -0.17231475 0.75009924 -0.032882735 0.28321925 -0.37167996
-0.39014712 -0.33070812 0.16291234 0.051923376 0.17196411 -0.33174932 0.30675617 -0.4160965
0.37578794 -0.5154456 -0.21591918 -0.071423024 0.09898681 -0.01365082 -0.0956512 0.16096377
0.52471817 0.2944668 -0.24429107 0.056938305 -0.03971571 0.013134555 -0.054273106 0.12286044
-0.010406075 0.33963218 0.37290877 0.037802685 -0.13469419 -0.115507185 0.027868187 -0.18755104
-0.19250533 -0.45758653 0.22041813 -0.16269621 -0.052052323 0.33234796 -0.07903912 -0.14557186
0.16904835 -0.28524762 0.24373764 -0.38250622 0.5352891 0.09695455 0.020142458 0.18280019
-0.04032682 0.3624299 0.13164109 -0.1894032 0.0819723 0.43854395 -0.11557138 0.09096904
00000000: 1ea6 d0bc 167f 0d3f c09d bcbe de90 a43e
00000010: 7a4c 713e dd5e dc3d ea27 673e dfad 883c
00000020: 396a 8bbd ad80 fb3d 2051 3bbd 3bcf 65bd
00000030: 4119 f93e fb11 e53c 63a5 e5bd f1f9 dfbd
00000040: 5cd1 9b3d d563 eb3e f5a3 9f3d cd25 98bd
00000050: e150 c5be 115b 2abe 20cc 7abe 4193 ec3e
00000060: edb5 2b3f 9c39 3a3e d58a 08bc 7502 23bf
00000070: 5964 933c b703 613d 5559 043e 9057 913e
00000080: d96e f83e 27f8 923d 82b2 353e e6bd 8abe
00000090: 6a76 a13e 46fe 3fbb 4d36 973e 5cca 83be
000000a0: 30f9 83bd 684b ad3e 4255 c4bd 30d1 e3bd
000000b0: 962e 1d3e 6a63 07bf 7d4c 1b3f 683e 9d3e
000000c0: f57a dd3e 45d4 0fbf bddb 84be ef76 76be
000000d0: 6a6d bb3e 4aa4 0b3e b642 83be e5ee 4abe
000000e0: 5ef5 383e defb ac3e a688 b5be 3123 293c
000000f0: 9550 9cbe 9cb5 943e 7f3c ce3d b56e 5fbe
00000100: 5b51 043e ac93 043f ad9a 833e da07 00bd
00000110: 3a03 adbd 05e6 f33e 7076 a6be d199 d7bc
00000120: e538 bc3e 066b 1ebf f0ac d8bc e958 ba3e
00000130: 25f6 1b3f 5207 b4bd 3adc e53d e155 46be
00000140: 6080 d53e 0d72 37bf 147b a3bd a92f ea3c
00000150: b685 9fbe a5ed b73d 76dc 98be 6be2 e83e
00000160: 1b2a 3e3e 9bbc d63d 0690 623e b63e ee3c
00000170: ba66 1fbf 9ca5 1d3d 1631 863d 9c8e bdbd
00000180: 41e1 55be 54bf 16bf 47cd 0e3e d7fd b8bd
00000190: a7d0 9c3e 0d16 2f3f 8e18 1fbe b715 0e3e
000001a0: 72e1 dabe 349e debd 98e5 583c 504c 243f
000001b0: e1c9 01be 16da 94bc 8dbd e0be 3a5a b2be
000001c0: 48b5 9dbf a888 b0bd 437c d53e e8f3 92be
000001d0: f11e 64bf f58b 11bf f1b7 393d e4d8 3a3f
000001e0: 417c 97bd 13d9 1b3e ec11 b8bc fc0f 0b3e
000001f0: e771 e0be 4451 9fbe 8e14 0b3f 3cd5 623d
00000200: 5a03 723e ab99 18bf 3079 76be 8ed7 96bd
00000210: dd21 1e3e d32a 9ebd f7a7 bfbd c2c2 253d
00000220: d1b2 123e 8a46 a93d 959d 72be ebbf ddbc
00000230: 0224 64bd ca00 99bd 9649 a73c e788 04bf
00000240: 2ef3 b2be 2256 9b3e 7256 9f3e 0f5c 263e
00000250: 3715 9b3d 063a 6d3e 1859 203e 47f9 b5be
00000260: 5dfe cebd a00a 35be ea11 443e 601f 273e
00000270: 5cc6 283e 5e15 ba3d f425 a33d 0a9d d23d
00000280: f768 acbd 7a9a 573f 82ed 3e3e 3128 043e
00000290: 664d 01be f817 e43e e1e1 e83b 359d 91bc
000002a0: 4709 793e 4a7c 8c3d c92f 5cbe a5fa 073e
000002b0: c66c d33e e24a abbb f24d 8c3c 4466 a2bd
000002c0: fc9f 0bbf e449 103e 72a2 a63e b3f2 aabe
000002d0: 832e a6be d899 6ebe 25d2 bebe 5cd9 91be
000002e0: 4264 0b3f defc 223e 1a0d 24bf 5aea 31bf
000002f0: 8678 1bbe 55e1 00be 0283 313e 8c5e bb3d
00000300: e959 833e f72b e9bd 7b47 4cbe 4773 30be
00000310: 8106 403f 0cb0 06bd 1d02 913e d64c bebe
00000320: 5dc1 c7be 9352 a9be 7ed2 263e 9bad 543d
00000330: 5c17 303e 0cdb a9be 250f 9d3e 9a0a d5be
00000340: 4767 c03e 3ef4 03bf eb19 5dbe 3c46 92bd
00000350: 99b9 ca3d b0a7 5fbc c7e4 c3bd b0d3 243e
00000360: ee53 063f 5ac4 963e 7027 7abe 2438 693d
00000370: f1ac 22bd 5132 573c 7a4d 5ebd 419e fb3d
00000380: 3e7e 2abc 45e4 ad3e e6ed be3e fdd6 1a3d
00000390: 46ed 09be 088f ecbd d34b e43c 610d 40be
000003a0: 1e20 45be c848 eabe 4ab5 613e d699 26be
000003b0: d134 55bd 8329 aa3e 43df a1bd ca10 15be
000003c0: 031b 2d3e fa0b 92be 5c96 793e dbd7 c3be
000003d0: b508 093f 1b90 c63d cc01 a53c f92f 3b3e
000003e0: bc2d 25bd 6990 b93e eccc 063e eaf2 41be
000003f0: 18e1 a73d d588 e03e b0b0 ecbd fa4d ba3d

model/hidden_layers/1/b f4 [40]
0.032990325 -0.118341014 0.12649325 -0.1815746 0.09638134 -0.36753786 0.058441482 -0.030765355
-0.18032014 -0.02329677 0.030581992 -0.1627729 0.28384915 -0.10012046 0.00723365 -0.1359156
0.15731893 -0.054309577 -0.10601307 -0.040009506 -0.033246726 0.059863362 0.11848665 -0.07195391
0.018261526 -0.052404307 0.0060941335 0.14258932 0.093587056 0.1165313 0.013486354 -0.022336468
0.0008321588 0.094894655 0.09997796 -0.07558091 -0.11679256 0.039795853 -0.21017422 -0.0042846156
00000000: dd20 073d c65c f2bd 7287 013e b1ee 39be
00000010: 9463 c53d ec2d bcbe 5660 6f3d a007 fcbc
00000020: d8a5 38be ded8 bebc 1687 fa3c f0ad 26be
00000030: ad54 913e f50b cdbd 4108 ed3b 762d 0bbe
00000040: 3718 213e b873 5ebd 611d d9bd 02e1 23bd
00000050: b82d 08bd 4933 753d 21a9 f23d 925c 93bd
00000060: 3299 953c e6a5 56bd 4cb1 c73b ef02 123e
00000070: 92aa bf3d f6a7 ee3d def5 5c3c f8fa b6bc
00000080: 3b25 5a3a 2158 c23d 3fc1 cc3d 2aca 9abd
00000090: f030 efbd fa00 233d e937 57be f665 8cbb

model/output/W f4 [9, 40]
0.5927109 0.6766341 -0.8819268 0.3140733 0.46673483 0.6008491 -0.39466125 -0.081620306
0.3839516 0.17078954 0.4592003 0.45292935 -0.46522674 0.40432948 0.33290076 0.2910058
-0.15379032 0.42635643 0.100386806 -0.36197314 0.22764389 -0.52230245 0.35696286 -0.13599712
0.073247634 -0.4483683 -0.5905218 -0.31204888 -0.2160331 -0.24903288 -0.6749059 0.43180922
0.4431361 -0.06306833 0.3177063 0.85127646 0.08688539 -0.41866928 0.46386784 0.3139912
0.115718715 0.5281277 -1.0053002 0.43235266 0.48507068 0.5394241 -0.30654135 -0.04507443
0.35550687 0.031270936 0.55370593 0.46903193 -0.60514534 0.20473537 0.22135995 0.35734499
-0.28421754 0.61297995 -0.39940488 -0.6968213 0.024016565 -0.3328566 0.39251837 0.10350068
0.2006574 -0.38390642 -0.32236847 -0.5399769 -0.20223098 -0.53718925 -0.56689596 0.57071185
0.33603397 -0.045989677 0.09489063 0.7097358 0.14133446 -0.5637209 0.600715 0.24101017
0.6112855 0.5162193 -0.7426009 0.5106071 0.6967246 0.67738664 -0.45107487 -0.29250395
0.31565148 0.120448135 0.46816635 0.40894258 -0.48541987 0.32888833 0.21952754 0.39386863
-0.2915276 0.47030282 0.07416391 -0.2037199 0.09899933 -0.35594225 0.2614025 -0.03824567
0.15718576 -0.34958246 -0.6077601 -0.42813313 -0.16614108 -0.17293218 -0.696497 0.5156297
0.42618132 -0.102123976 0.19742802 0.6892058 0.115005516 -0.5802756 0.45459214 0.3861265
0.5865053 0.55370015 -0.56960243 0.5176937 0.62064445 0.39214203 -0.3162309 0.07172947
0.2560691 0.24099295 0.4700167 0.6535109 -0.37292117 0.34791845 -0.3017916 0.29664633
-0.29929072 0.5933492 -0.0032844294 -0.71455777 0.28704697 -0.3538433 0.1435465 -0.31657168
0.15076225 -0.2199323 -0.83056617 -0.21362926 -0.19330539 -0.34837687 -0.557128 0.56649953
0.42823994 0.3117991 0.40480262 1.0607204 -0.18586929 0.20309916 0.54942423 0.4933389
0.2953555 0.6371259 -0.7760297 0.3930679 0.46240005 0.6602135 -0.4114934 -0.31583086
0.38299465 0.1870928 0.46947393 0.4640937 -0.43835503 0.35757196 -0.029463435 0.31945008
-0.32095307 0.63890874 -0.060302358 -0.41583014 0.22836433 -0.39989522 0.24641457 -0.076189734
0.10566358 -0.6421852 -0.49820548 -0.30996063 -0.21741454 -0.21685287 -0.6926491 0.42401594
0.13219765 -0.033629403 0.24859533 0.91346586 -0.10274952 -0.5591774 0.45640785 0.3141413
0.30121338 0.57280546 -1.1889821 0.13651925 0.27362433 0.5382201 -0.47876057 -0.1301576
0.45848128 0.105211124 0.5201468 0.37296867 -0.5368547 0.23691466 -0.042263173 0.32226163
-0.26703095 0.37975198 -0.6462154 -1.1002854 0.1114831 -0.4745357 0.5994908 -0.013228876
0.26903206 -0.9447966 -0.084767565 -0.4808879 -0.008539874 -0.4762217 -0.6672421 -0.049807083
0.34793663 -0.21331552 0.104282044 0.41148165 0.36468387 -0.6891728 0.6709956 0.17900069
0.39880523 0.71664405 -0.80205745 0.41631988 0.64938956 0.31482014 -0.22297946 0.20877276
0.29980966 0.15222515 0.53497213 0.61211634 -0.5120779 0.3443836 0.014168315 0.23662886
00000000: e7bb 173f e437 2d3f f4c5 61bf 37ce a03e
00000010: def7 ee3e 3fd1 193f 0a11 cabe 8c28 a7bd
00000020: 4e95 c43e 74e3 2e3e 4d1c eb3e 5be6 e73e
00000030: 3332 eebe 4604 cf3e f871 aa3e b6fe 943e
00000040: 367b 1dbe 644b da3e 9997 cd3d 8b54 b9be
00000050: 7b1b 693e 9db5 05bf d6c3 b63e d442 0bbe
00000060: db02 963d 8890 e5be 702c 17bf dfc4 9fbe
00000070: c837 5dbe 7a02 7fbe a2c6 2cbf 1916 dd3e
00000080: bce2 e23e f829 81bd 66aa a23e 41ed 593f
00000090: f8f0 b13d d25b d6be 1680 ed3e 74c3 a03e
000000a0: effd ec3d 6033 073f adad 80bf 545d dd3e
000000b0: 2f5b f83e b317 0a3f fdf2 9cbe f79f 38bd
000000c0: ff04 b63e f415 003d acbf 0d3f f424 f03e
000000d0: ceea 1abf 26a6 513e 2fac 623e ecf5 b63e
000000e0: f684 91be 41ec 1c3f cc7e ccbe e162 32bf
000000f0: 63be c43c 2e6c aabe 2bf8 c83e 2af8 d33d
00000100: 2279 4d3e 628f c4be 7b0d a5be ed3b 0abf
00000110: a315 4fbe 3c85 09bf 1820 11bf 2c1a 123f
00000120: a50c ac3e ac5f 3cbd 0556 c23d 3fb1 353f
00000130: fbb9 103e 0350 10bf 75c8 193f 5fcb 763e
00000140: 357d 1c3f f326 043f 181b 3ebf 26b7 023f
00000150: 8b5c 323f 3669 2d3f 49f3 e6be 14c3 95be
00000160: 129d a13e 83ad f63d 80b3 ef3e ec60 d13e
00000170: f488 f8be 0d64 a83e d4cb 603e 26a9 c93e
00000180: 1b43 95be 88cb f03e 3fe3 973d f39b 50be
00000190: 29c0 ca3d 103e b6be 8cd6 853e 7ea7 1cbd
000001a0: 4ef5 203e 79fc b2be 2a96 1bbf 4434 dbbe
000001b0: e320 2abe 2215 31be a14d 32bf 4f00 043f
000001c0: 7034 da3e 6026 d1bd 922a 4a3e cb6f 303f
000001d0: 0388 eb3d f18c 14bf 4dc0 e83e 5fb2 c53e
000001e0: 3625 163f 4bbf 0d3f 77d1 11bf 9387 043f
000001f0: 8ee2 1e3f d7c6 c83e 04e9 a1be e6e6 923d
00000200: 7d1b 833e dbc6 763e 07a6 f03e 7e4c 273f
00000210: 86ef bebe 5e22 b23e 6e84 9abe 07e2 973e
00000220: a23c 99be bce5 173f 953f 57bb 42ed 36bf
00000230: d2f7 923e f32a b5be dbfd 123e af15 a2be
00000240: 6b61 1a3e ef35 61be fc9f 54bf a1c1 5abe
00000250: d9f1 45be 745e b2be f19f 0ebf 1d06 113f
00000260: 4442 db3e 22a4 9f3e 4a42 cf3e b0c5 873f
00000270: 8554 3ebe 3af9 4f3e 11a7 0c3f eb96 fc3e
00000280: d638 973e af1a 233f e2a9 46bf 3240 c93e
00000290: b3bf ec3e c003 293f 43af d2be 95b4 a1be
000002a0: e017 c43e 4195 3f3e e35e f03e b09d ed3e
000002b0: 1270 e0be ac13 b73e 4d5d f1bc f68e a33e
000002c0: f653 a4be 868f 233f 9bff 76bd b0e7 d4be
000002d0: 57d8 693e 11bf ccbe 1a54 7c3e 5d09 9cbd
000002e0: 2666 d83d 4066 24bf ca14 ffbe 29b3 9ebe
000002f0: eba1 5ebe ae0e 5ebe 7451 31bf 9e18 d93e
00000300: d25e 073e fcbe 09bd c68f 7e3e e6d8 693f
00000310: 576e d2bd 4026 0fbf 4aae e93e 21d7 a03e
00000320: a438 9a3e 61a3 123f 9130 98bf b4cb 0b3e
00000330: 7d18 8c3e cbc8 093f 1b20 f5be 0948 05be
00000340: 0fbe ea3e ee78 d73d 5728 053f c0f5 be3e
00000350: 4f6f 09bf c299 723e 261c 2dbd 7aff a43e
00000360: 48b8 88be da6e c23e 5f6e 25bf 27d6 8cbf
00000370: 4051 e43d 58f6 f2be 3b78 193f edbd 58bc
00000380: 92be 893e 31de 71bf 9e9a adbd f036 f6be
00000390: d4ea 0bbc 55d3 f3be 61d0 2abf 8302 4cbd
000003a0: c024 b23e 626f 5abe d391 d53d b9ad d23e
000003b0: d8b7 ba3e a16d 30bf 5ec6 2b3f f54b 373e
000003c0: 3330 cc3e fc75 373f a353 4dbf e127 d53e
000003d0: 653e 263f 1b30 a13e ba54 64be 87c8 553e
000003e0: a780 993e e9e0 1b3e eff3 083f a8b3 1c3f
000003f0: 8a17 03bf 0c53 b03e 3822 683c d64e 723e

model/output/b f4 [9]
-0.009078069 0.10576306 0.040719442 0.021910712 0.030067902 0.0063152863 0.009568523 0.13741642
0.0633014
00000000: 2ebc 14bc 4e9a d83d 6ec9 263d 187e b33c
00000010: f650 f63c 76f0 ce3b 4bc5 1c3c e4b6 0c3e
00000020: 2aa4 813d
