python/results/2017_12_22_10_38_44/best_agent/target_model.npz (npz, 14940 bytes, 6 tensors)

model/hidden_layers/0/W f4 [40, 40]
000000 a6 0b 05 bd c0 d7 a4 be 95 8e d2 3e b2 b5 12 bf
       -0.032481812 -0.32195854 0.41124406 -0.57308495
000010 7b 48 92 bd f7 9d e3 3c be 07 2c 3d ce d9 87 3d
       -0.07142731 0.027785284 0.04199957 0.0663334
000020 a0 33 85 3d 6e fb dd 3d eb d1 8a be 46 8f 3f 3d
       0.06503987 0.10838972 -0.2711328 0.046767496
000030 dc 3a 21 3e ac 92 90 be 09 79 a4 3e b6 3f 02 3d
       0.1574511 -0.28236902 0.32123592 0.03179904
000040 88 43 21 3d 51 c0 b4 3d b1 95 44 3e 84 a8 97 3d
       0.039371043 0.08825744 0.19197728 0.07405189
000050 c1 8b b9 be df 2f 16 bf 7c 59 23 bf f8 36 23 bf
       -0.36239436 -0.58666795 -0.6380842 -0.6375575
000060 37 ba de bd eb cb 1c 3d 45 5a d1 3e 10 63 48 3f
       -0.108753614 0.03828041 0.40889183 0.7827616
000070 53 6b f3 3e 22 03 94 3e a9 aa d3 3d a5 ae fb 3d
       0.4754282 0.2890864 0.10335285 0.1228917
000080 c1 0f 26 3e fc 1b 93 bc 77 8f 7c 3e 66 30 00 3e
       0.16216947 -0.01795768 0.24664102 0.12518463
000090 bd 27 bf 3d 8d 39 1a 3d 68 bb 86 3e 77 26 5f bd
       0.09333751 0.03765254 0.26314855 -0.054480042
0000a0 d2 21 72 bd 30 1c 63 3f c9 c7 fa 3e d7 0f 3a bf
       -0.059114285 0.88714886 0.4898055 -0.7268042
0000b0 f3 c6 f8 3e 81 05 6f 3e 07 13 7d 3e 53 f9 18 3e
       0.48589286 0.23341943 0.2471429 0.1493886
0000c0 c3 fc 2b 3e 19 1c 68 3d 15 95 a0 3d 15 d3 71 bd
       0.1679564 0.05666742 0.07840935 -0.059039194
0000d0 0d 85 2a 3d 53 90 8f bd f0 fa 54 bc 32 dc 99 be
       0.041630793 -0.070099495 -0.012999281 -0.30050808
0000e0 9b e3 bf bd 37 2e 39 be ae 30 69 3d a8 82 70 be
       -0.09369584 -0.18084036 0.05693119 -0.23487341
0000f0 8c 56 0f 3e e8 56 e8 3e 46 94 39 3f 8b 9d 5f 3f
       0.13997859 0.45378804 0.7249187 0.87349766
000100 da 51 7c 3f ec 1a 67 3f 5b c2 6a 3f ec f4 31 3f
       0.98562396 0.90275455 0.9170281 0.69514346
000110 40 8d 30 3f 8a 56 93 3e 86 22 93 3e 1b 7a b0 3c
       0.6896553 0.28776962 0.28737277 0.0215426
000120 2a b0 be 3d 57 13 cb 3d 7b 30 ef 3e dc 5a d8 3d
       0.093109444 0.09915798 0.46716675 0.10564205
000130 fc 03 a2 3e 1c eb 87 3e af e5 b6 3e 9e 08 cf 3e
       0.31643665 0.26546562 0.3572211 0.40436262
000140 77 1d 87 bd 32 8a 84 3d 8f 49 86 be 84 97 d9 3e
       -0.06597417 0.06471671 -0.26227996 0.4249841
000150 c5 6f 90 3d c3 b7 c3 b9 06 4e 07 be 60 be bb 3b
       0.07052568 -0.00037330211 -0.13213357 0.0057294816
000160 e6 87 98 3d a1 ee 36 bb 1f 07 1d 3d 49 a2 f8 bc
       0.074477956 -0.002791323 0.03833687 -0.030350821
000170 fd 9e 9f 3e 4b ef f2 bd 5d 58 e8 bb f3 b3 56 be
       0.31175986 -0.11862048 -0.007090612 -0.20967083
000180 51 8e ce be f0 07 b2 be 76 9a 2f be b8 a1 8b be
       -0.40342954 -0.3477168 -0.17148766 -0.2727182
000190 bc 55 0d 3d 94 77 19 be 20 c2 56 3e 0a 7a 0e 3e
       0.03450559 -0.14987022 0.2097249 0.13913742
0001a0 e4 55 e9 bc 12 f0 8b be de e4 12 bc 42 27 cd 3e
       -0.028483339 -0.27331597 -0.008965699 0.40069014
0001b0 2b 32 e6 3d b4 70 dd bd 71 8d 8a 3d ec 85 29 be
       0.112400375 -0.10812512 0.06765259 -0.16554993
0001c0 cf 92 2e 3e 08 9b 41 be ec 42 09 bd 05 fe 99 bd
       0.1704819 -0.18906796 -0.033511087 -0.075191535
0001d0 77 e7 5b 3d 4c c1 73 be af d2 14 bd e6 5e 9d 3d
       0.05368754 -0.23804206 -0.036333736 0.07684116
0001e0 19 4d 86 3d ed 48 6d 3e 1d 10 c7 be ec d1 12 bf
       0.06557674 0.2317235 -0.3887948 -0.57351565
0001f0 2a 98 82 bd b0 32 95 3d 72 93 0b be 71 d5 e4 3d
       -0.06376679 0.072850585 -0.13630465 0.11173523
000200 53 a0 c2 bc dc 52 ad bd 65 e5 73 3e a7 9c 05 3e
       -0.02375809 -0.0846307 0.23817976 0.1304804
000210 7e 02 1d be e7 49 00 bf 1b db 4d be 45 4d ef be
       -0.15332982 -0.50112766 -0.20103113 -0.4673864
000220 48 f1 0f bf d8 1a 31 bf 0f 0a df be b9 b7 ec be
       -0.5622754 -0.69181585 -0.43562362 -0.4623392
000230 12 61 e5 be d7 d5 17 bf d5 45 72 be ba 55 56 be
       -0.4480062 -0.5931067 -0.23659451 -0.2093114
000240 b7 c9 0d 3c 74 7f 83 be ad 79 a7 3d 01 b3 3e 3d
       0.00865405 -0.25683177 0.08177505 0.04655743
000250 73 9a d0 3c 86 4f 3d 3e 8e 23 b1 bd 3b 69 0d 3e
       0.025464272 0.18487367 -0.0864936 0.13809673
000260 40 25 29 3d 4d af 5b 3d 62 12 d5 3d 12 47 b2 be
       0.04129529 0.053633977 0.10403897 -0.34819847
000270 c5 1d 5f be 1f df 0b be fa d0 22 3d 11 b9 6e be
       -0.217887 -0.13659333 0.039750077 -0.23312785
000280 95 98 df bd 34 e2 af be 72 ed 90 3e 44 7f 3b be
       -0.109177746 -0.34352267 0.28306156 -0.18310267
000290 67 81 52 bc 68 7a c4 3e d1 58 66 3e 3d ab c5 bc
       -0.012848235 0.3837464 0.22494818 -0.024129504
0002a0 b6 a5 50 3e 44 b4 7d bc ca 89 99 3d f3 59 ff 3d
       0.20375714 -0.015484873 0.07496984 0.12468328
0002b0 38 82 71 3c d3 46 5b 3e c6 fc dd 3c 42 5e 88 3b
       0.014740519 0.21413736 0.02709807 0.004161627
0002c0 66 f9 38 3d 28 89 ae 3e 7e d1 45 bd 98 95 73 3e
       0.04515972 0.34089017 -0.04829549 0.23787534
0002d0 96 02 27 3e 1c 49 76 3e 7d dd a1 3e 6f 4c 21 3f
       0.1630958 0.24051327 0.31614295 0.63007253
0002e0 b7 3c 6b 3e a0 62 2b be 7b 1a c7 3d d6 a2 49 bd
       0.2297238 -0.16736841 0.097218476 -0.049227558
0002f0 bb b5 8e be 78 be e3 bd 6d d2 f5 bd 61 f9 59 3e
       -0.27873024 -0.111203134 -0.12003026 0.21286537
000300 00 5a cd 3d 31 20 d9 3e bb 20 8f be d7 bd 39 bd
       0.10026932 0.42407373 -0.2795466 -0.04534706
000310 d5 be 2a 3d 69 e9 7f 3c df 51 0a 3e 6d 03 8c 3e
       0.041685898 0.015619614 0.13507794 0.27346364
000320 1f 23 86 bd 35 de ef 3d 25 4a 82 be 19 a2 22 bf
       -0.065496676 0.117123045 -0.25447193 -0.6352859
000330 1a f1 11 3e 18 e0 21 be c4 d2 f8 bd a8 ac 86 be
       0.14252129 -0.15808141 -0.12149575 -0.263036
000340 7d e3 9d 3d 05 93 12 3e 12 5f ea 3d 51 a4 f3 bd
       0.077094056 0.14313896 0.114439145 -0.11896575
000350 c7 83 64 3c d3 94 0e be fa c8 2f be 93 3e 34 be
       0.013947434 -0.1392396 -0.1716651 -0.17601995
000360 41 e2 d8 3d 2f cd 99 3c dd c4 1d 3e a1 53 85 3d
       0.105900295 0.018774597 0.15407129 0.065100916
000370 52 41 cd 3e e4 62 b0 3e 4b eb 50 3a 28 b9 e6 3d
       0.40088898 0.34450448 0.00079696317 0.112657845
000380 81 41 22 be 30 b1 54 bb fc 18 85 3e 92 ff f9 3d
       -0.158453 -0.0032454245 0.25995624 0.12206949
000390 b2 ac 77 3e c8 18 de 3e 6f 63 fb 3e f8 14 56 3e
       0.24186972 0.43378282 0.490993 0.20906436
0003a0 3a c0 6e 3e 1a 48 d5 3d cd c3 2a be ea 59 a2 be
       0.23315516 0.10414143 -0.16676255 -0.31709224
0003b0 83 5a 81 bb 95 04 d3 3d a3 c4 89 3e 09 92 59 3e
       -0.0039475574 0.10303608 0.26907834 0.21247114
0003c0 63 4a 8b bc e2 77 fb 3d cc a7 b6 be 5c 0f ac 3f
       -0.017003244 0.12278725 -0.35674894 1.3442187
0003d0 e2 54 6d 3e 4b a0 ed 3d d8 35 47 3e 9c 2c 77 3e
       0.23176911 0.11602839 0.19454134 0.24138111
0003e0 ba 4e 6b 3e ce c6 bd 3e 50 4c 6d 3e 72 b8 13 3e
       0.2297925 0.37065738 0.23173642 0.14425829
0003f0 61 8c c9 bd 78 54 a7 3d e4 90 11 be 63 56 a7 bd
       -0.09841228 0.08170408 -0.14215428 -0.08170774

model/hidden_layers/0/b f4 [40]
000000 7e c8 27 3f ab 09 90 3e 3d e4 7e 3c f4 13 3c bf
       0.655403 0.28132376 0.015557346 -0.73467946
000010 e2 a4 26 3f 61 8c 6f 3f ad 2e fd be 72 b7 07 3f
       0.6509534 0.93573576 -0.49449673 0.5301429
000020 82 9f 3d bf be 9e 85 3f 16 ff 4d bd c4 72 92 3d
       -0.74071515 1.0439069 -0.050292097 0.07150796
000030 1a ce a0 be 52 90 a6 3e 66 84 4b 3d 67 9e 1d 3d
       -0.31407243 0.32531983 0.049686812 0.038481142
000040 24 3d 1e be 7e 8c 33 bf 3c 01 ce 3e cd 4b 1c 3e
       -0.15453011 -0.7013625 0.40235317 0.1526329
000050 31 ec 85 3d 56 da cb 3e 97 d2 55 be ff ab 5b 3e
       0.065391906 0.39815015 -0.20881115 0.2145233
000060 d9 bd 26 3e 24 90 e4 be ec 54 39 bf f2 ce 00 bd
       0.16283359 -0.4464122 -0.72395205 -0.03144736
000070 4b 08 b4 3d 5a f1 a0 3d 8d e2 01 3d 32 97 21 3e
       0.08790644 0.07858534 0.031710196 0.15780333
000080 4e ef f0 3d 49 d9 28 3f ab 8f 15 bf ad a9 7f 3e
       0.11764394 0.6595655 -0.58422345 0.2496707
000090 a3 ef af bd 77 8f a2 be 2c 20 79 3d 69 32 49 3e
       -0.08590629 -0.3175008 0.060821697 0.19648136

model/hidden_layers/1/W f4 [40, 40]
000000 5b 9d d1 bc 4a 84 0d 3f 53 ac bc be 64 85 a4 3e
       -0.025587728 0.5527998 -0.36850223 0.3213302
000010 b1 1f 71 3e 01 43 dc 3d 96 5f 67 3e 41 d2 87 3c
       0.23547246 0.107549675 0.22595057 0.016579749
000020 70 cb 8b bd 9d 81 fb 3d d3 82 3b bd 99 47 66 bd
       -0.06825912 0.12280581 -0.04577906 -0.056220625
000030 34 10 f9 3e 09 d9 e3 3c 0a cd e5 bd 9f c2 df bd
       0.48645175 0.027813451 -0.11220749 -0.10925793
000040 45 9a 9b 3d 24 4f eb 3e 7a 6a 9f 3d ef 5c 98 bd
       0.07597784 0.45958817 0.07783981 -0.07439601
000050 fb 46 c5 be 23 59 2a be 30 b1 7a be ef 84 ec 3e
       -0.38530716 -0.16635565 -0.24481654 0.4619517
000060 d1 b9 2b 3f c5 1f 3a 3e bc 21 08 bc 3c 07 23 bf
       0.6708041 0.18176182 -0.008308824 -0.63682914
000070 de 11 94 3c dd 6b 60 3d cb 3d 04 3e ae 67 91 3e
       0.018074926 0.054790366 0.12914197 0.28399414
000080 23 72 f8 3e 95 d9 92 3d 8c c3 35 3e 90 ca 8a be
       0.4852458 0.07170407 0.17750376 -0.27107668
000090 65 5b a1 3e 20 94 3a bb f8 43 97 3e 83 d4 83 be
       0.3151504 -0.0028469637 0.29544044 -0.2574807
0000a0 43 76 84 bd 42 61 ad 3e c1 b8 c4 bd 31 39 e4 bd
       -0.06467869 0.33863264 -0.096055515 -0.11143721
0000b0 ef f7 1c 3e c9 58 07 bf ab 43 1b 3f 1c 0b 9d 3e
       0.15328954 -0.5286985 0.6065013 0.30672538
0000c0 05 3b dd 3e d2 c2 0f bf a7 db 84 be 91 9a 76 be
       0.4320909 -0.5615665 -0.2594883 -0.240824
0000d0 fc 83 bb 3e 33 71 0b 3e aa 44 83 be 69 a6 4a be
       0.36624134 0.13617401 -0.25638324 -0.19790043
0000e0 68 b5 38 3e 2a 2c ad 3e 10 96 b5 be d0 b1 24 3c
       0.18037951 0.33822757 -0.3546605 0.010052159
0000f0 35 22 9c be 8d c8 94 3e 33 a9 ce 3d 07 b4 5f be
       -0.30494848 0.29059258 0.10090866 -0.21846019
000100 37 79 04 3e 2b 76 04 3f 4c bd 83 3e c1 a1 00 bd
       0.12936865 0.5174281 0.2573036 -0.03140426
000110 83 8f ac bd 90 e4 f3 3e f7 98 a6 be 03 28 d6 bc
       -0.0842581 0.47635317 -0.32538578 -0.026142126
000120 1f 58 bc 3e 74 5a 1e bf aa 73 da bc 59 39 ba 3e
       0.3678598 -0.6185677 -0.026666481 0.36371878
000130 a8 c6 1b 3f ae 2f b3 bd 00 5e e6 3d 81 97 46 be
       0.6085 -0.087493286 0.11248398 -0.19393732
000140 eb 89 d5 3e f1 67 37 bf 42 dc a3 bd e8 f7 e9 3c
       0.41706786 -0.71642977 -0.08000995 0.028560594
000150 69 8f 9f be 8d 8d b7 3d 6e ec 98 be 74 d4 e8 3e
       -0.311641 0.089625455 -0.29867882 0.4547459
000160 9c 2a 3e 3e f5 f5 d6 3d 56 4c 62 3e 0a d4 ec 3c
       0.18570942 0.10496131 0.22099432 0.028909702
000170 10 6e 1f bf 08 15 1d 3d 1b ee 85 3d 4d 38 bd bd
       -0.6227732 0.038350135 0.06539556 -0.09239254
000180 6a 12 56 be d9 ab 16 bf 69 9d 0e 3e f0 62 b9 bd
       -0.20905462 -0.5885597 0.13927235 -0.09052074
000190 86 ec 9c 3e 95 18 2f 3f 2d 04 1f be 3d e3 0d 3e
       0.30649203 0.68396884 -0.15528937 0.13856216
0001a0 ee db da be ad 09 df bd 93 38 59 3c 4a 4d 24 3f
       -0.42745918 -0.108905174 0.013258117 0.64180434
0001b0 29 c1 01 be 71 fb 95 bc f5 d5 e0 be f6 56 b2 be
       -0.12671341 -0.018308373 -0.43913236 -0.3483197
0001c0 7e ac 9d bf b1 ea b0 bd 79 8a d5 3e e3 0d 93 be
       -1.2318265 -0.08638514 0.4170721 -0.28721532
0001d0 d0 27 64 bf a6 82 11 bf 1e 7e 3a 3d 03 d2 3a 3f
       -0.8912325 -0.5683998 0.04553043 0.729767
0001e0 aa 13 98 bd 28 90 1b 3e 8c 23 b6 bc a5 2a 0b 3e
       -0.074256256 0.1519171 -0.022233747 0.13590486
0001f0 40 6a e0 be bd 2d 9f be 1e 09 0b 3f 1b 7c 62 3d
       -0.43831062 -0.31089583 0.54310787 0.055294137
000200 4d e6 71 3e 6c a4 18 bf e4 2e 76 be 9d 58 96 bd
       0.23623009 -0.5962589 -0.24041325 -0.073411204
000210 2b 3d 1e 3e 53 c9 9d bd dc 20 bf bd 8b 11 25 3d
       0.15453021 -0.07704415 -0.09332439 0.040299933
000220 e8 f3 12 3e 0a a0 a9 3d 20 67 72 be 1b bc db bc
       0.14350855 0.08282478 -0.23672152 -0.026823094
000230 fe 26 65 bd 55 f7 98 bd 09 85 a6 3c 29 79 04 bf
       -0.05594539 -0.0746905 0.020327108 -0.51747376
000240 4d 0d b3 be dd 5b 9b 3e dd 8f 9f 3e 85 8f 26 3e
       -0.34971085 0.30343524 0.31164446 0.16265686
000250 51 f5 9a 3d 87 76 6d 3e 2d 98 20 3e 9d 08 b6 be
       0.07566322 0.23189746 0.1568305 -0.35553446
000260 f3 78 cf bd db b5 34 be 24 d8 43 3e 3b 58 27 3e
       -0.10130491 -0.17647497 0.1912542 0.16342251
000270 8f af 28 3e 6d 01 ba 3d 61 a2 a2 3d ec ec d2 3d
       0.1647322 0.09082303 0.079411276 0.102990955
000280 40 aa ac bd 0e 95 57 3f f3 f4 3e 3e eb 28 04 3e
       -0.0843091 0.84211814 0.18648128 0.12906234
000290 3a 59 01 be 9b 16 e4 3e d2 b1 ec 3b ab c3 91 bc
       -0.12631693 0.44548497 0.0072233463 -0.017793497
0002a0 c5 03 79 3e b9 46 8c 3d 5c 16 5c be 57 04 08 3e
       0.24317844 0.06849427 -0.21492904 0.13282906
0002b0 b6 6e d3 3e c6 2e ab bb 0b 51 8c 3c 2d 6b a2 bd
       0.41295403 -0.0052240817 0.017128488 -0.079305984
0002c0 db 9d 0b bf ba 22 10 3e d7 a9 a6 3e b6 ed aa be
       -0.54537743 0.14075747 0.32551453 -0.33384484
0002d0 28 32 a6 be ba ac 6e be 8a cf be be c5 d5 91 be
       -0.3246014 -0.23308077 -0.37267715 -0.28483406
0002e0 33 61 0b 3f 0c 02 23 3e 6b 10 24 bf 20 ee 31 bf
       0.5444519 0.1591875 -0.6408755 -0.69503975
0002f0 da 74 1b be ef e3 00 be 96 8b 31 3e 8d 7c bb 3d
       -0.15181294 -0.1258695 0.17338404 0.091546156
000300 b4 54 83 3e 72 f7 e8 bd f8 3f 4c be b3 71 30 be
       0.2565056 -0.113753214 -0.19946277 -0.17230873
000310 91 08 40 3f 84 a3 06 bd 88 fd 90 3e 62 50 be be
       0.7501307 -0.032870784 0.2831843 -0.37170702
000320 07 f4 c7 be f3 18 a9 be c4 56 26 3e d3 9a 53 3d
       -0.39053366 -0.33026847 0.16244036 0.051661324
000330 14 90 2f 3e 4e f4 a9 be a7 45 9d 3e 0c 4b d5 be
       0.17144805 -0.33194202 0.30717203 -0.4165882
000340 a3 79 c0 3e ff c7 03 bf b5 73 5d be 20 35 93 bd
       0.375928 -0.51477045 -0.2162617 -0.07187867
000350 40 95 c9 3d 9d 34 68 bc 26 96 c4 bd 4a 51 25 3e
       0.0984292 -0.0141727 -0.09598951 0.1614429
000360 40 35 06 3f cd e2 96 3e 76 8b 7a be 72 39 67 3d
       0.52425003 0.2946991 -0.24467263 0.05645127
000370 7b 7c 20 bd 71 b1 54 3c cb a8 5c bd 43 95 fa 3d
       -0.039181214 0.012981758 -0.05387191 0.12235501
000380 a6 fd 23 bc 3e 9d ad 3e a1 1b bf 3e 52 0e 19 3d
       -0.010009205 0.3390903 0.37325767 0.037367173
000390 7e 79 09 be c3 90 ed bd 69 6a e0 3c ff 98 3f be
       -0.13425252 -0.11599877 0.02739449 -0.18710707
0003a0 59 a6 44 be a2 73 ea be 9f 0e 62 3e 08 14 27 be
       -0.19204082 -0.45791346 0.2207589 -0.16316235
0003b0 45 44 55 bd 7d 6a aa 3e 88 e8 a0 bd ee 88 15 be
       -0.05206706 0.3328437 -0.07856852 -0.14603016
0003c0 fb 8e 2d 3e 75 11 92 be eb c6 79 3e 19 d9 c3 be
       0.16949074 -0.28528944 0.24392287 -0.3825157
0003d0 f4 2a 09 3f 7c 1f c7 3d e4 ba a3 3c 8e af 3b 3e
       0.53581166 0.09722802 0.019986577 0.18328688
0003e0 7d 6a 24 bd 15 99 b9 3e c7 dc 06 3e 6b c0 41 be
       -0.040140618 0.36249605 0.13170157 -0.18921058
0003f0 7e ef a7 3d 49 aa e0 3e d8 a3 ec bd e6 d6 b9 3d
       0.081999764 0.43879917 -0.11554688 0.09074192

model/hidden_layers/1/b f4 [40]
000000 40 8f 07 3d 99 de f1 bd 77 b8 01 3e 75 30 3a be
       0.0330956 -0.11810035 0.12668024 -0.18182547
000010 fc 52 c5 3d b1 f0 bb be 35 d9 6e 3d ba 04 fd bc
       0.09634969 -0.3670707 0.058312614 -0.030886043
000020 e3 b8 38 be a0 5e bf bc 8c a7 fa 3c 37 a7 26 be
       -0.18039279 -0.02336055 0.03059747 -0.16274725
000030 55 92 91 3e d5 b9 cd bd 36 06 ef 3b d7 33 0b be
       0.28431955 -0.1004521 0.0072944416 -0.13593994
000040 c7 6e 21 3e cc aa 5e bd 72 24 d9 bd c9 74 23 bd
       0.15764914 -0.054362103 -0.106026545 -0.039906297
000050 6a 1e 09 bd 50 79 76 3d 7c 96 f3 3d 61 24 93 bd
       -0.03347627 0.060174286 0.11893937 -0.07184673
000060 21 b4 95 3c 73 77 56 bd 5e 7a c4 3b b9 46 12 3e
       0.018274369 -0.05236001 0.0059960326 0.14284791
000070 4e 2a c1 3d 93 84 ef 3d 25 f8 5b 3c 0c 25 b7 bc
       0.09431897 0.116952084 0.0134258615 -0.022356533
000080 ca f3 6f 3a db e2 c1 3d 4b 85 cc 3d 3c c8 9a bd
       0.0009153454 0.09467097 0.09986361 -0.07557723
000090 97 db ee bd 38 66 23 3d 02 23 57 be 5b 5f 9a bb
       -0.11662977 0.039892405 -0.21009448 -0.0047110743

model/output/W f4 [9, 40]
000000 d4 ea 17 3f 14 2e 2d 3f 8a f6 61 bf ae d8 a0 3e
       0.59342694 0.67648435 -0.88266814 0.31415313
000010 4e 59 ef 3e cf d3 19 3f 2f 8c ca be 5e 93 a8 bd
       0.46747822 0.6008882 -0.39560077 -0.08231233
000020 1d 1a c5 3e 95 93 2f 3e 54 5a eb 3e e7 2b e8 3e
       0.38496485 0.17146142 0.45967352 0.45345995
000030 d7 ba ee be 6a af cf 3e 54 d2 aa 3e 5a 34 95 3e
       -0.46626922 0.40563518 0.33363593 0.29141504
000040 15 51 1e be eb ac da 3e 85 5f cc 3d 20 b6 b9 be
       -0.15460618 0.4271005 0.099791564 -0.36271763
000050 14 c0 69 3e 04 df 05 bf 73 00 b7 3e bb 98 0b be
       0.22827178 -0.5229342 0.3574253 -0.13632481
000060 cf 66 97 3d 29 f2 e5 be d7 5c 17 bf 44 20 a0 be
       0.07392656 -0.44911316 -0.5912604 -0.31274617
000070 59 88 5d be 61 db 7f be 3e f7 2c bf cb 74 dd 3e
       -0.21634044 -0.2498603 -0.6756476 0.43253168
000080 3d 43 e3 3e b4 c6 7f bd 84 0e a3 3e fa 1d 5a 3f
       0.44387236 -0.062445357 0.31847012 0.8520199
000090 1f 2f b1 3d 5f bd d6 be 8a b1 ed 3e 41 ed a0 3e
       0.08651566 -0.41941354 0.46424514 0.3143101
0000a0 dc 30 ec 3d 36 25 07 3f c2 9c 80 bf 1a 57 dd 3e
       0.11532757 0.52791154 -1.0047839 0.43230516
0000b0 58 21 f8 3e 17 30 0a 3f ae e4 9c be 6c ff 36 bd
       0.4846294 0.5397963 -0.3064322 -0.044677183
0000c0 b1 e4 b5 3e 10 86 fd 3c 0b a4 0d 3f 83 19 f0 3e
       0.3552604 0.030947715 0.55328435 0.46894464
0000d0 2e da 1a bf 95 08 51 3e db 3e 62 3e 9a a1 b6 3e
       -0.60489166 0.2041343 0.2209429 0.35670167
0000e0 6b 4e 91 be 66 cc 1c 3f 5c 61 cc be 97 3f 32 bf
       -0.2838014 0.6124939 -0.3991803 -0.6962828
0000f0 54 04 c2 3c de 3f aa be e9 df c8 3e 36 66 d4 3d
       0.023683704 -0.33251852 0.3923333 0.10371058
000100 97 02 4d 3e 94 4a c4 be 2c fd a4 be 41 1f 0a bf
       0.20020519 -0.3833815 -0.32224405 -0.5395394
000110 a9 fb 4e be 8e 78 09 bf 22 02 11 bf 34 fc 11 3f
       -0.20213188 -0.53699577 -0.5664388 0.57025456
000120 9d d3 ab 3e 00 d2 3c bd fa 67 c1 3d 83 9c 35 3f
       0.33559886 -0.04609871 0.0944366 0.7094194
000130 83 e1 10 3e 3a 30 10 bf 11 de 19 3f 29 b5 76 3e
       0.14148526 -0.5632359 0.6010447 0.24092545
000140 69 91 1c 3f c3 34 04 3f 3a 2f 3e bf 81 ad 02 3f
       0.6115938 0.5164301 -0.7429081 0.51045996
000150 42 71 32 3f 0d 5e 2d 3f 16 f0 e6 be 77 e7 95 be
       0.6970407 0.67721635 -0.45105046 -0.29278156
000160 6a 97 a1 3e ee 9c f6 3d e2 d7 ef 3e 66 43 d1 3e
       0.31560832 0.12041651 0.46844393 0.40871733
000170 99 7a f8 be cd 76 a8 3e bf 17 61 3e 68 c6 c9 3e
       -0.48531035 0.32903138 0.21981715 0.39409184
000180 3d 5a 95 be e8 f3 f0 3e e0 5a 97 3d d2 ee 50 be
       -0.2917041 0.47061086 0.0739038 -0.20403603
000190 c3 d7 ca 3d 71 4b b6 be 25 f6 85 3e e1 9b 1d bd
       0.099044345 -0.35604432 0.26164356 -0.038478736
0001a0 b1 42 21 3e d3 25 b3 be 6f aa 1b bf 95 52 db be
       0.15748097 -0.34989795 -0.60806936 -0.42836443
0001b0 8d 11 2a be 26 20 31 be 41 61 32 bf 29 15 04 3f
       -0.16608258 -0.1729742 -0.6967965 0.5159479
0001c0 d3 5c da 3e 10 86 d0 bd 0b 79 4a 3e 47 84 30 3f
       0.42648944 -0.101818204 0.19772737 0.6895184
0001d0 52 f7 ea 3d ed a0 14 bf f6 a5 e8 3e e7 bb c5 3e
       0.11472954 -0.58058053 0.45439118 0.3861992
0001e0 b7 0a 16 3f 20 b3 0d 3f ed b5 11 bf 88 9c 04 3f
       0.586101 0.5535145 -0.5691822 0.5180135
0001f0 e4 c7 1e 3f 8d fd c8 3e ee 04 a2 be 75 92 93 3d
       0.6202376 0.39255944 -0.31644386 0.07205669
000200 80 39 83 3e c9 ce 76 3e 52 74 f0 3e a0 6e 27 3f
       0.25629807 0.2410232 0.46963745 0.65403175
000210 c1 f1 be be 44 e6 b1 3e 09 b5 9a be e4 b7 97 3e
       -0.3729382 0.3474599 -0.30216244 0.29632485
000220 43 18 99 be 15 cd 17 3f 80 78 42 bb fa d2 36 bf
       -0.29901323 0.59297305 -0.0029673874 -0.71415675
000230 64 e9 92 3e ef 1f b5 be 4b 8f 12 3e 0c ef a1 be
       0.28693688 -0.35375926 0.14312474 -0.3162769
000240 ea f9 19 3e 9e ca 60 be 5c 87 54 bf 09 97 5a be
       0.15036741 -0.21952292 -0.8301904 -0.21346678
000250 7b f4 45 be 08 58 b2 be e0 87 0e bf 57 ea 10 3f
       -0.19331543 -0.34832788 -0.5567608 0.56607574
000260 e1 08 db 3e 6d 72 9f 3e 77 0d cf 3e 78 b7 87 3f
       0.42780212 0.31141987 0.4043996 1.0602865
000270 79 ef 3d be 1e 6c 50 3e 4d cd 0c 3f ce 90 fc 3e
       -0.18548383 0.20353743 0.55000764 0.49329227
000280 01 21 97 3e f5 00 23 3f 75 9e 46 bf 2d 67 c9 3e
       0.29517367 0.63673335 -0.77585536 0.3933653
000290 39 ab ec 3e f3 16 29 3f 55 e3 d2 be dd 9f a1 be
       0.46224383 0.6605064 -0.41189066 -0.31567279
0002a0 50 5b c4 3e a4 f1 3f 3e fc 45 f0 3e 04 ca ed 3e
       0.38350916 0.18744522 0.46928394 0.46443188
0002b0 d4 8e e0 be 40 55 b7 3e f3 9f f2 bc 25 a4 a3 3e
       -0.4385897 0.35807228 -0.029617285 0.3196117
0002c0 88 73 a4 be 0e 84 23 3f 68 17 76 bd 88 d2 d4 be
       -0.32119393 0.63873374 -0.060080916 -0.41566873
0002d0 6d 2e 6a 3e 38 c4 cc be 7b 1b 7c 3e b4 a1 9b bd
       0.22869273 -0.39993453 0.24619858 -0.07599202
0002e0 bb 04 d8 3d 0d 5b 24 bf 9a fc fe be 6f ee 9e be
       0.10547777 -0.6420143 -0.49802095 -0.31041285
0002f0 9b df 5e be 21 84 5e be 53 46 31 bf d5 01 d9 3e
       -0.21764986 -0.2173009 -0.6924793 0.4238421
000300 dc 35 07 3e 73 4c 0a bd 45 75 7e 3e 81 cd 69 3f
       0.1320414 -0.033764314 0.24849422 0.913292
000310 29 fb d1 bd f7 1a 0f bf 12 da e9 3e fd 05 a1 3e
       -0.10252983 -0.5590052 0.45674187 0.3144988
000320 a2 31 9a 3e 08 7a 12 3f 28 2f 98 bf 9b e3 0b 3e
       0.30115992 0.57217455 -1.1889391 0.13661043
000330 51 0f 8c 3e 7c c5 09 3f 01 33 f5 be b3 49 05 be
       0.27355435 0.5381696 -0.47890475 -0.13016395
000340 c4 e2 ea 3e e4 9a d7 3d 4c 32 05 3f ae 35 bf 3e
       0.45876133 0.1052759 0.5202987 0.37345642
000350 53 69 09 bf 3e a4 72 3e 2f dd 2c bd 46 f1 a4 3e
       -0.53676337 0.23695466 -0.042203125 0.32215327
000360 4f d1 88 be 96 67 c2 3e 30 70 25 bf 9a d4 8c bf
       -0.2672219 0.37969655 -0.6462431 -1.1002381
000370 99 c8 e4 3d cd f9 f2 be 21 65 19 3f 40 83 59 bc
       0.111710735 -0.47456208 0.59919935 -0.013275921
000380 74 bd 89 3e c0 db 71 bf 74 19 ad bd 03 80 f6 be
       0.26902354 -0.94475937 -0.084521204 -0.4814454
000390 95 85 10 bc 75 da f3 be 5c c8 2a bf 8f 2f 4c bd
       -0.008820911 -0.47627607 -0.66711974 -0.049850043
0003a0 ac 1e b2 3e 4f 85 5a be fc 98 d5 3d ae a7 d2 3e
       0.34789026 -0.21339916 0.1042957 0.41143554
0003b0 3c b9 ba 3e d7 6b 30 bf 9e be 2b 3f 86 48 37 3e
       0.36469448 -0.6891455 0.67087734 0.17898759
0003c0 68 4a cb 3e 35 04 37 3f 99 df 4c bf 61 55 d5 3e
       0.39705205 0.71490794 -0.8002868 0.416667
0003d0 c2 d1 25 3f 52 89 a1 3e ec 1c 63 be 4f 69 57 3e
       0.6477319 0.3155008 -0.22179002 0.21036266
0003e0 f9 24 99 3e b0 a1 1b 3e f8 86 08 3f 76 ba 1c 3f
       0.2991102 0.15198398 0.53330946 0.61222017
0003f0 2b dd 02 bf a9 84 af 3e 81 b6 4f 3c b0 ae 70 3e
       -0.51118726 0.342809 0.01267779 0.23504138

model/output/b f4 [9]
000000 f7 84 08 bc c2 a4 d7 3d f2 15 28 3d 16 2a b0 3c
       -0.008332483 0.10529472 0.041036554 0.021504443
000010 ef ff f4 3c 30 f1 ce 3b 01 89 02 3c ab cd 0c 3e
       0.029907195 0.006315373 0.007967235 0.13750331
000020 ea 54 82 3d
       0.06363852
