python/results/2017_12_22_10_38_44/agent700/model.npz (npz, 14906 bytes, 6 tensors)

model/hidden_layers/0/W f4 [40, 40]
00000000: d032 13bd a6cb 66be d3fd 4d3e fdae ffbe
00000010: c5fd a33d 12ca ea3d 6ec4 903d a99f 573d
00000020: 9030 933d baea d53d c9ad 74be b0d3 fa3d
00000030: 57fc 5f3e 5224 4abe 3cd2 b13e 5a0c 7d3c
00000040: 95e2 2d3d 7e1d 1f3e 0b7f 743e 44e5 923d
00000050: b6b3 9bbe d27e d9be 58d2 d5be d7ff abbe
00000060: ae23 b53d f792 65bd c2b7 d53d 8c77 e03e
00000070: 1712 513e 8ec0 8a3d e402 76bd 39dd 9e3c
00000080: 4765 fd3d 045a ccbb acb0 ab3e 91e7 343d
00000090: ea2f d8bd dd90 69bd fa3c d23e b9d1 df3d
000000a0: a4ce 49bd ce8a 543f 5e41 1e3f a393 acbe
000000b0: 5475 a93e 7b41 253e 9edf a03e 5fbd 1b3e
000000c0: e7f4 ab3d a624 8f3c 34b3 48bb 1b27 07be
000000d0: dc6f a7bd b290 83be afd6 37bd 4281 c3be
000000e0: 706d b5bd d8e7 47be 2983 233d 9aca 58be
000000f0: f3b9 143e d52f b43e c0e7 043f de53 123f
00000100: 9be4 283f 81f8 1d3f 7064 443f 1eab 103f
00000110: 2fd6 1f3f 272e 903e b8a1 9a3e 42db c03c
00000120: 2add 9a3d 8bfb 663d 4800 ba3e 24ef 6ab9
00000130: 52b1 613e 2098 4c3e 5b24 7c3e fdf2 943e
00000140: ebd5 efbc 7c3e 813d 052b a8be 313f e13e
00000150: a591 8e3d e02d 11bc a733 eabd 50f1 183d
00000160: b687 b93d bfaf 003d 2c9d 353d c3e4 b0bc
00000170: fc7c a73e 0b64 9ebd de85 6f3d e4b8 12be
00000180: 0b35 b8be cb2e acbe 3bf8 48be e5ea a5be
00000190: 2d02 1b3d 4406 16be 52c7 3b3e aeef b03d
000001a0: b34e c9bd eea8 98be d481 773b 8668 d03e
000001b0: f0a0 d53d 6577 dbbd 0761 a83d b08b 18be
000001c0: 1dc0 433e e2b4 1ebe 1709 6b3c 3dad 75bd
000001d0: 4ce8 6a3d e444 68be 258a 4bbd fccf a73c
000001e0: 2688 873d a3f3 1b3e 840f 85be db10 14bf
000001f0: b499 89bd f9e1 1f3e b50e 92bd ff99 253e
00000200: 297e 5a3d 04d6 61bd 3831 613e b500 db3d
00000210: 84bd fdbd a6b0 e1be ee06 efbd 47b2 b8be
00000220: d6a9 e3be 3611 f5be 394d 66be 5cd1 a5be
00000230: c469 94be 265d e1be 62f8 abbd 650b 29be
00000240: 03d4 b13b de02 abbe 49d5 883d 7869 0c3d
00000250: 06d3 a9bc 1ffa 2a3e 8f7f dbbd 8bd4 143e
00000260: bb10 683d dc97 7f3d 6705 803d 84bc 89be
00000270: 9aee ebbd 94d7 99bd b23f 503b 6ee4 9fbe
00000280: dfcf bcbd c82b 7abe 1af7 653e 30b2 08bd
00000290: 67a8 68be 8737 693e 88fd 813e 71db 46be
000002a0: 565d b23d 850b 9bbd 9898 013d f2f0 f13d
000002b0: b61f 87bc 814f 413e 82d8 d43b 3383 26bd
000002c0: 7dd2 ee3c 8f80 bc3e 9b42 c9bc 9ca0 503e
000002d0: 74f6 023e a58d e83d fa08 193e 276c b93e
000002e0: 9cf3 3abd f13b 99be fd54 033e 9b2c 2ebb
000002f0: bf06 85be 5576 cabd c612 dabd 048e 613e
00000300: c5e4 fc3d fb8c ed3e e3c5 68be 23c2 9cbd
00000310: 7c42 a43d b596 023e 3d06 423e ee42 433e
00000320: b21b 26bd 8780 a83d 20ed 8cbe c4b9 d0be
00000330: e85e ca3d ce20 57be 7167 11be 1d51 5ebe
00000340: 9113 b93d b874 593e e4aa 523e c649 89bd
00000350: c721 573c 812e e1bd 9164 c5bd 300e 1cbe
00000360: 4419 363e 7f6f 453d 4417 523d 148c 0cbe
00000370: 8610 a73e 965d c93e 67f8 b63d 7287 153e
00000380: 3b54 41be 6899 2dbe 8a83 033e 7f6f f33a
00000390: f6c0 083e 9807 9b3e 515e d83e 5651 573e
000003a0: 80f8 993e b391 663e aec3 063d 237d 73be
000003b0: 52c3 633c c2ae 503d ba94 343e a4b8 0d3e
000003c0: ea23 39bc f4b9 36be 950c 67be 9e40 823f
000003d0: ce46 2c3d 701a ae3d 5369 403e 83e2 283e
000003e0: 50f6 6e3e 5b2d be3e a98d 4f3d d35b 13bd
000003f0: 2f58 58be 3620 62bc 0cd6 3bbe 16af d7bd
-0.03593713 -0.22538623 0.20116358 -0.49938193 0.08007387 0.11464323 0.07068716 0.0526425
0.07186997 0.10445161 -0.23894419 0.122474074 0.21873604 -0.19740418 0.3473071 0.015444839
0.042452414 0.15538594 0.23876588 0.07172635 -0.30410546 -0.4247957 -0.41762042 -0.33593628
0.08844696 -0.05604836 0.1043544 0.43841207 0.20417057 0.06775008 -0.06006135 0.019392597
0.12372833 -0.0062363166 0.33533227 0.04416615 -0.10556014 -0.057022918 0.41062146 0.10928673
-0.049269333 0.830243 0.6181849 -0.33706388 0.33097327 0.1613826 0.31420606 0.15208958
0.08396321 0.01747353 -0.0030624392 -0.13198511 -0.08175632 -0.2569633 -0.044882473 -0.38184553
-0.08858764 -0.19522035 0.039920006 -0.21171036 0.14524059 0.35192743 0.5191612 0.5715922
0.65973824 0.6170731 0.76715755 0.56511104 0.62436193 0.2816021 0.30201507 0.02354205
0.07561715 0.056392234 0.3632834 -0.00022405066 0.22040299 0.19979906 0.24623244 0.29091635
-0.029276809 0.06310746 -0.3284532 0.43993524 0.06961373 -0.008861035 -0.11435633 0.03733951
0.09059088 0.031417605 0.044339344 -0.021593457 0.32712543 -0.077339254 0.058477275 -0.14328343
-0.3597797 -0.3362945 -0.19625942 -0.32405773 0.03784387 -0.14650828 0.18337753 0.08639465
-0.09829464 -0.29816383 0.0037766593 0.40704745 0.10431087 -0.10716132 0.082216315 -0.14897037
0.19116254 -0.15498689 0.014345429 -0.059979666 0.05735044 -0.2268253 -0.04969229 0.020484917
0.06617765 0.15229659 -0.259884 -0.5783822 -0.0671877 0.15613545 -0.071317114 0.16172026
0.053342972 -0.05513574 0.21991432 0.10693494 -0.12389663 -0.44080085 -0.116712436 -0.36073515
-0.44465512 -0.47864693 -0.22490396 -0.3238629 -0.28986943 -0.4401638 -0.08396985 -0.16508253
0.005426885 -0.33400625 0.06681306 0.03428027 -0.020730507 0.16696976 -0.10717689 0.14534204
0.05665658 0.062400684 0.062510304 -0.26901639 -0.11520119 -0.075118214 0.0031776247 -0.31228966
-0.09219336 -0.24430764 0.22457543 -0.033373058 -0.2272049 0.22775088 0.25388741 -0.19419648
0.08709209 -0.075705566 0.031639665 0.11813535 -0.016494613 0.18877985 0.0064955363 -0.040652465
0.029153103 0.36816832 -0.024567893 0.20373768 0.12789327 0.113551416 0.1494483 0.36215326
-0.04564248 -0.29928544 0.12825389 -0.002657688 -0.2598171 -0.09885851 -0.10648112 0.22026831
0.12348322 0.46396622 -0.22731738 -0.07654216 0.080204934 0.12752803 0.18947692 0.190685
-0.040553756 0.0822764 -0.27524662 -0.40766728 0.09881383 -0.21008608 -0.14199616 -0.2171063
0.09036935 0.21235931 0.20573002 -0.06703524 0.013130612 -0.10995198 -0.09638322 -0.15239787
0.17783076 0.048202034 0.05129172 -0.1372531 0.32629794 0.39329213 0.08934098 0.1460245
-0.18879788 -0.16953051 0.12843147 0.0018572657 0.13354859 0.3027923 0.42259458 0.21027121
0.30072403 0.22516517 0.03290146 -0.23778205 0.013901548 0.050947912 0.1763486 0.13839966
-0.0113000665 -0.17844373 -0.22563393 1.017597 0.042059712 0.08501136 0.18790178 0.16492657
0.23336148 0.37143978 0.050672207 -0.035976242 -0.2112739 -0.013801625 -0.18343371 -0.10531442

model/hidden_layers/0/b f4 [40]
00000000: 1a5d c93e fa52 bf3d 2038 a03c 65d5 c3be
00000010: 6bb3 d93e 9d0d 333f a4f7 66be 7ed8 d03e
00000020: 07c0 fabe 5261 263f 0a76 c33b 1b51 963c
00000030: 42df 4fbe d974 5d3e 5830 e83c 866e 8b3d
00000040: ba06 4cbe cc05 cabe 09cd 913e f52d c43d
00000050: 566b c63d bbb9 923e 44df 09be 2f44 493e
00000060: ce7c 883d 9e91 88be 114d bfbe 1320 8e3c
00000070: 50c0 8b3d 9f99 00bb 7907 3d3d 2310 363e
00000080: 9f21 35bc 1eb9 013f 9547 e5be d49f 223e
00000090: cf7b 05be d52f 9cbe cb23 383d 0c32 443e
0.39328843 0.093419984 0.019558012 -0.38248745 0.42519698 0.6994265 -0.22555405 0.4079017
-0.4897463 0.6499225 0.005964999 0.018349221 -0.2030001 0.21626605 0.028343365 0.0680819
-0.19924441 -0.39457548 0.28476742 0.09579078 0.096884415 0.28657326 -0.13464075 0.19654916
0.066644296 -0.26673597 -0.37363485 0.017349279 0.0682379 -0.0019622815 0.046149705 0.17779593
-0.011055379 0.5067309 -0.44781175 0.15881282 -0.1303551 -0.30505243 0.04495601 0.19159716

model/hidden_layers/1/W f4 [40, 40]
00000000: d500 02bc 2a49 e23e 1c1e bfbe e3b2 5f3e
00000010: 13bd 4a3e ea06 133e e5c1 623e e864 a73c
00000020: f359 38be 7070 c03d 425f e6bc 15a4 a8bd
00000030: 7875 b83e f016 a03c e3e5 a2bd 2f10 f5bd
00000040: 5868 953d d991 9c3e 1d03 563d ede8 35bd
00000050: de1e b7be a890 d1bd e049 8abe 838f fd3e
00000060: dfdf 153f b1ed 563d f9da c1bc 4df7 0fbf
00000070: 2e2c 273d fe01 df3c 43a7 ed3d aa48 6d3e
00000080: 7325 d53e 8e64 523c f30f 283e 4dde a0be
00000090: c73e 5d3e 890e 32bd 15f1 943e c1df 64be
000000a0: dc6a f43d ed9c 513e d2ae d6bd 9590 fdbd
000000b0: cdaf bf3c 0bbc 12bf 35ff cc3e 9a0e 093e
000000c0: d5a3 b33e 52bc fcbe 7206 32be 85e1 66be
000000d0: da44 803e 9f1f bd3d c056 6dbe e9b7 5abe
000000e0: 3b6a 303e 358b f63d 376f 9cbe 2628 8a3c
000000f0: cb50 80be 78fb 153e b868 f63d a730 f5bd
00000100: 7f32 1a3e 8c52 913e 91ab 693e 9b48 90bd
00000110: e9db d5bd d434 dd3e ec01 a1be 479e 1dbd
00000120: 4129 c73e d1bc 08bf 5a17 d13b 4300 743e
00000130: 88b5 fb3e 1a60 fcbd c74e d43d faa0 5cbe
00000140: 8940 793e 594d e5be d3ca 67bd 3618 483d
00000150: e0fe 82be 4929 4d3b 7d4f 3cbe 9651 013f
00000160: 3ecf 7d3e feb9 513d 6c6e 5c3e 5c2d 993d
00000170: 85e9 c6be 0a53 4d3d 4981 673d b96f fdbd
00000180: c899 51be fd8d 39bf 0301 143e a141 0ebe
00000190: 41b0 2d3e 5dc2 343f 8d72 62be 1616 8c3d
000001a0: 296a 7cbe 073a a4bd 9569 133d 99ec 0a3f
000001b0: 31dd 0bbe 3fb8 8e3c b633 c5be 48fc 6ebe
000001c0: fe32 8dbf da2a 1fbd ec13 ba3e 9ddd 8bbe
000001d0: 853b 39bf bf8d 16bf 402b 1c3d c399 323f
000001e0: a3f6 913d 2129 2a3e 1fb6 c8bc 20a0 173e
000001f0: 63e3 b8be 0540 74be bfe1 f83e 41a6 9b3d
00000200: fa45 303e 8e00 09bf 5286 6abe 6685 86bd
00000210: a06d 483e 55ef 54bd 3653 89bd 0dc4 b53c
00000220: 5ab6 e43d 10ed d13d 5b6f 3cbe 9498 fabc
00000230: 92de febd ff79 bebd cdeb 60bd 36d4 ecbe
00000240: f891 87be b4f1 8b3e dbe1 813e a3a5 193e
00000250: c223 d93d 752c 5e3e 28e3 b73d abc9 9fbe
00000260: ac2f a5bd e0a9 11be 201c 3d3e 22d3 fb3d
00000270: 984d 763e 0586 0e3d 84a6 cd3d 8ddf 2c3d
00000280: 978f 95bd d2ed 3b3f f087 503e 40ae 383d
00000290: a7c2 0abe cc64 e03e 620c 85bc eaac 01bc
000002a0: 619f 263e ef5c c13b 7b23 3bbe b281 0c3e
000002b0: 2095 aa3e baa5 853b 8c14 603d f1f2 e4bd
000002c0: 5a60 00bf 6c00 943d 1104 a53e d299 94be
000002d0: 1244 b7be 9fe7 43be 6f0d c3be fbac 72be
000002e0: 5968 e53e a1ee 073e 347a 1ebf 0c6e 1dbf
000002f0: 5c0b 19be 35f6 09be 8b19 523e 1d95 b83c
00000300: b8d7 513e a45b 1fbe e1bd 54be 8733 29be
00000310: 5ba2 323f e38b 92bd 6f83 733e 7119 96be
00000320: 399a adbe 1460 b4be d5ad 013e 11d5 81bc
00000330: 8eea 403e 1fec b0be bed2 903e b433 bfbe
00000340: 5a1f af3e 0d40 c0be d348 30be 8ce4 cbbd
00000350: 2790 993d 10b2 2dbd fb5d 0fbe 45e4 d13d
00000360: 80c5 df3e ab49 a73e 461a 33be cb9e 803c
00000370: a14e 1dbd cd51 733d a816 01be d1e5 a13d
00000380: 1e1c 9ebb 66e7 883e b17a 773e 71b7 743d
00000390: 7b01 27be b92c 14be de63 ebbb f3f0 33be
000003a0: 6b0a 61bd 237a b5be 5ad7 963e bfe8 0ebe
000003b0: 08ab 2a3e a31d 993e b577 95ba b2c5 1cbe
000003c0: 0f96 1c3e a3fe 54be 2cfd 5b3e 24e5 94be
000003d0: 474f 003f bbcc 0a3e 6b16 8abd 8e95 293e
000003e0: 7f89 ab3d 5286 873e fd51 1c3d 913a 54be
000003f0: 4c76 cd3c de87 ce3e f285 bdbd 3192 ef3d
-0.007934769 0.44196445 -0.3732766 0.21845584 0.19798689 0.14358106 0.22144277 0.020433858
-0.18003063 0.09396446 -0.028121594 -0.08234421 0.36027122 0.019542187 -0.07954004 -0.119659774
0.072952926 0.30580023 0.052249063 -0.04441159 -0.35765737 -0.10232669 -0.27009487 0.49523553
0.58544725 0.052472774 -0.023663985 -0.56236726 0.040813617 0.02722263 0.11604168 0.2317225
0.41630134 0.012841357 0.16412334 -0.31419602 0.21605979 -0.043470893 0.2909018 -0.2235098
0.11934444 0.20470019 -0.10482563 -0.123810925 0.023399258 -0.5731818 0.40038458 0.13384476
0.3508593 -0.49362427 -0.17385271 -0.22546966 0.2505253 0.09234547 -0.23177624 -0.21359219
0.17228024 0.120382704 -0.305536 0.016864847 -0.2506164 0.14646709 0.12031692 -0.1197217
0.15058325 0.2838329 0.22819354 -0.070450984 -0.10442335 0.43204367 -0.3144678 -0.038481023
0.38898662 -0.5341311 0.0063809576 0.23828225 0.49161935 -0.123230174 0.10366588 -0.21545783
0.24341024 -0.44785574 -0.056589913 0.048851214 -0.2558508 0.0031305125 -0.18389697 0.50515115
0.24786088 0.051202767 0.21526498 0.07479355 -0.38850036 0.05012802 0.05651978 -0.12374825
-0.20468819 -0.7248228 0.14453511 -0.13892223 0.16961767 0.70609075 -0.2211401 0.0684015
-0.24649872 -0.0801888 0.035989363 0.5426727 -0.13658597 0.01742184 -0.38516015 -0.23338425
-1.1031187 -0.038859226 0.36343324 -0.27317515 -0.72356445 -0.5881004 0.038127184 0.6976587
0.0712712 0.16617252 -0.024500905 0.14807177 -0.36110982 -0.23852547 0.4860973 0.0760007
0.17214194 -0.5351647 -0.22902802 -0.065684125 0.19573069 -0.051986057 -0.06705324 0.02218821
0.11167593 0.10250294 -0.18401854 -0.030590333 -0.12444796 -0.09300613 -0.054912377 -0.46255654
-0.26478553 0.27332842 0.25367627 0.15004592 0.106025234 0.21696647 0.089788735 -0.31208548
-0.08065733 -0.14224958 0.1846776 0.1229613 0.24053037 0.03479578 0.10041526 0.042205382
-0.07302778 0.7340976 0.20364356 0.045088053 -0.13550816 0.43826902 -0.016241256 -0.007914761
0.16271736 0.005900971 -0.18275253 0.1372135 0.33316898 0.004078594 0.054707095 -0.1117915
-0.5014702 0.07226643 0.32229665 -0.29023606 -0.3579412 -0.19131325 -0.38096187 -0.236988
0.44806173 0.13274623 -0.6190522 -0.61496043 -0.1494574 -0.13472827 0.20517556 0.02253204
0.20492446 -0.15562302 -0.20775558 -0.16523562 0.69778985 -0.071555875 0.23780607 -0.29316285
-0.33906725 -0.35229552 0.12663968 -0.015848668 0.18839476 -0.34555146 0.28285784 -0.37344134
0.34203607 -0.37548867 -0.1721528 -0.09955701 0.07498198 -0.04240614 -0.14000694 0.10248617
0.43705368 0.32673392 -0.17490491 0.015700718 -0.038405064 0.059404183 -0.12606299 0.07905162
-0.004825129 0.26739043 0.24167897 0.059745256 -0.16309159 -0.14470185 -0.007183536 -0.17572384
-0.054941576 -0.35444745 0.29461175 -0.13955973 0.16666806 0.29905424 -0.0011403473 -0.1530979
0.15291618 -0.20800261 0.21483296 -0.2908107 0.5012097 0.13554661 -0.06742557 0.16560957
0.08375835 0.26469666 0.038164128 -0.20725466 0.025080822 0.40338033 -0.09254064 0.11697806

model/hidden_layers/1/b f4 [40]
00000000: 1499 f83c ca17 38be 34f1 053e 943e 32be
00000010: a64e 473d 64cf 8fbe b1f7 403d 5e86 f9bc
00000020: 5401 09be 7e33 67bb 0810 11bd a7c5 04be
00000030: 20e4 8c3e f728 e3bd 2896 603c ed56 08be
00000040: 2b0b ff3d b0d1 0bbd 6b0c f3bd 1eef cfbc
00000050: b00f 44bc 6a20 2c3d 9c1a 8d3d 9089 08bd
00000060: 116c 09bc 824c 97bc aa0f 1f3c 7964 de3d
00000070: 586d c93d 5031 d73d bf2d ee3c 5ccf dbbc
00000080: a876 babb 67e6 323d e448 4b3d e242 c8bd
00000090: 9e4e abbd 01a3 163d 37a5 38be e42a 74bc
0.03034643 -0.17977825 0.13080293 -0.17406684 0.04865899 -0.28087914 0.047111217 -0.03045958
-0.13379413 -0.0035278494 -0.03541568 -0.12966023 0.27517796 -0.11091798 0.013707675 -0.1331441
0.12453302 -0.03413552 -0.11867603 -0.025382575 -0.011966631 0.0420231 0.06889841 -0.033334315
-0.008387581 -0.018469099 0.009708324 0.108590074 0.09835309 0.105074525 0.029074548 -0.026832275
-0.0056904145 0.04367676 0.04963006 -0.09778382 -0.083646044 0.036776546 -0.18031774 -0.014902804

model/output/W f4 [9, 40]
00000000: 9ed1 fa3e 97e3 1e3f 3de1 3ebf 7469 803e
00000010: e1cd c43e 552d 0c3f fa2d aebe a2d3 43bd
00000020: a527 a33e ce17 913d 0a10 da3e 7893 953e
00000030: 3fe9 b1be 182d ba3e 1d4b 893e 10db 743e
00000040: acce 22be 1b43 a13e f074 af3d 81ad 87be
00000050: 6ebf 3d3e dbb9 f6be d269 913e 9265 1ebe
00000060: 492f de3c fe8a a8be 9606 edbe 5a40 90be
00000070: a2a8 30be 7432 46be 32bc 0fbf 152b b43e
00000080: f29e b43e 61a6 ebbc 65b2 8b3e 3c3e 333f
00000090: 0a18 efbc 9bcf 9ebe 0e05 be3e c5ea 8c3e
000000a0: 3c0e a83d 21dd ef3e 9512 53bf a197 b73e
000000b0: fbe1 d13e 01ad ed3e dcd8 3cbe c8fa 5ebc
000000c0: 3300 8d3e 1a87 c13c fb51 0b3f 19ee c43e
000000d0: 1b08 0abf fb50 393e 49be 463e 3eff 943e
000000e0: 53f4 5bbe df85 003f f38a a1be cbb7 0ebf
000000f0: effb acbc 7667 76be 02ac 843e 2513 b53d
00000100: 9591 233e c60d 64be 5587 9cbe e26e dbbe
00000110: 7827 37be 8471 f8be 966f dfbe 27da 003f
00000120: 6470 7b3e 4630 7dbc 10e7 273d 9907 1d3f
00000130: 65ea 983d 62a7 bfbe 3b88 f23e 7c5c 3e3e
00000140: 060a 063f b09e c53e 0f17 1bbf 5baa d53e
00000150: 4bc4 113f 66bc 1c3f 7fad bcbe 856f 90be
00000160: ceeb 593e a943 bb3d 8a78 f03e db02 ac3e
00000170: da9e b3be 95dc 833e bef7 553e bf14 ad3e
00000180: 5bd4 81be 6676 bd3e 43da cd3d 1d73 b4bd
00000190: f9e2 a63d b922 93be d0e1 743e 75c5 50bc
000001a0: 4e7b 153e a57f 61be 59e3 ffbe 9fe8 d3be
000001b0: b62b 20be 1c89 b0bd 5c7d 10bf 2792 db3e
000001c0: 4990 bb3e 9594 9bbd 9571 273e 760b 0c3f
000001d0: f5aa f93d db58 00bf f281 bb3e aab5 ac3e
000001e0: 6bb6 d93e 68f6 bc3e f97f debe a00f ef3e
000001f0: e579 fc3e 9cbd 983e 76d4 8cbe dff6 4d3d
00000200: 3e4a 5c3e eec4 403e 48fd e83e 1028 e73e
00000210: 0b7b 5fbe 0529 a13e c93f 8ebe a909 5d3e
00000220: a559 80be 1f51 fb3e fb62 37be c900 28bf
00000230: 56f1 6d3e f16a c4be 5686 493e 8630 81be
00000240: 02aa 0b3e 801e 23be 219d 08bf 8263 06be
00000250: bd04 06be 47fd 98be 996d cebe 20f8 d03e
00000260: dd77 9f3e 6f59 423e 3ceb c93e 2d7e 493f
00000270: 0948 19be 6bfa 6c3d 8f4d f53e ccf3 e73e
00000280: af3e 4d3e 5cd0 0b3f 80cc 20bf 2ed0 aa3e
00000290: ed04 c33e 4d7e 1f3f 53ed a2be aa4d 9dbe
000002a0: 87fd 6f3e 71a2 0c3e f728 ed3e b59b dc3e
000002b0: 7180 b3be 7f4d 993e 8a99 4bbd f4f5 913e
000002c0: 1eb7 b1be a63e 053f 436d d4bb 0909 b5be
000002d0: 8b2e 343e e911 a1be 52af 5c3e 540b 4cbd
000002e0: 2e13 9a3d 01ac 0bbf 8b2b b1be efeb 5bbe
000002f0: 25ed 40be b5fe 0dbe 4c00 0cbf e23a b43e
00000300: 0b33 663d ba32 a4bc 4f4e 383e 09e1 413f
00000310: 14b1 14be 18a9 f2be 47be c23e ec7e 863e
00000320: e69d 6e3e 0f15 033f 4c4e 71bf 0fb5 e63d
00000330: b5e3 3a3e e227 d23e d597 b7be 819a 9fbd
00000340: 6603 cc3e cb37 b53d 63ef ff3e 0cc8 8b3e
00000350: db44 ecbe a452 513e 437d 10bd e8da 823e
00000360: 09a6 68be 92d6 7f3e a37f 11bf 15d0 5fbf
00000370: 013e da3d 4d3d babe c951 fd3e 5a2a f4bd
00000380: 0ce0 5e3e da53 37bf 8c5d 27be edeb cfbe
00000390: 156f 5a3c 5438 fcbe c58e f7be 789b 11bd
000003a0: a875 643e bce5 d0bd a7e6 303d 3d53 d73e
000003b0: 4d66 613e d7f9 e7be 18b8 063f 8dc4 0c3e
000003c0: 789a 8d3e e167 273f 2824 35bf 1cc3 be3e
000003d0: 610e 003f b812 303e af77 3fbe ff21 6d3e
000003e0: 8161 3d3e fdd1 c13d 4164 eb3e 02c0 0b3f
000003f0: 7a2c fbbe 4e6b 883e 149e de3c 426e 293e
0.4898805 0.62066025 -0.74562436 0.25080454 0.38438323 0.5475667 -0.34019452 -0.04780925
0.31866184 0.070846185 0.42590362 0.29214072 -0.34748265 0.3636253 0.2681512 0.2391169
-0.15899152 0.3149651 0.08567226 -0.2649956 0.18530056 -0.4818867 0.28401047 -0.15468433
0.027122157 -0.32918543 -0.46294087 -0.28174096 -0.17251828 -0.19355184 -0.5614654 0.3518912
0.35277516 -0.02876586 0.27284542 0.7001684 -0.029186267 -0.31017765 0.3711323 0.27522865
0.0820584 0.46848395 -0.8245023 0.3585787 0.40992722 0.46421054 -0.184421 -0.013609596
0.27539214 0.023623992 0.5442197 0.38462904 -0.5391862 0.18097298 0.19408526 0.29100984
-0.21479921 0.5020427 -0.31551322 -0.55749196 -0.021116225 -0.24062905 0.25912482 0.08841542
0.15973504 -0.22270879 -0.30572 -0.42858034 -0.1788615 -0.48524106 -0.4363982 0.50332874
0.24554592 -0.015453404 0.040991843 0.6133972 0.07466582 -0.3743239 0.4736956 0.18589967
0.52359045 0.3859763 -0.6058206 0.41731533 0.56940144 0.61224973 -0.36851117 -0.28210083
0.21281359 0.091437645 0.46966964 0.3359593 -0.35082132 0.25754228 0.20895287 0.3380489
-0.25357327 0.37004393 0.10051396 -0.088110186 0.0814876 -0.2873743 0.23914266 -0.01274239
0.14597818 -0.22021349 -0.4997814 -0.41388413 -0.15641674 -0.086199015 -0.56441283 0.42884943
0.36633518 -0.07596699 0.16351922 0.5470499 0.121908106 -0.5013558 0.36622578 0.3373235
0.42521986 0.36906743 -0.4345701 0.46691608 0.49311748 0.2983216 -0.27505845 0.050284263
0.21512696 0.18825123 0.45505738 0.45147753 -0.21824281 0.31476608 -0.2778304 0.21585716
-0.25068393 0.49085328 -0.17908852 -0.656262 0.23236594 -0.3836284 0.19680151 -0.25232333
0.13639072 -0.15929604 -0.5336476 -0.13123897 -0.13087745 -0.29880735 -0.4031799 0.40814304
0.31146136 0.18979429 0.39437282 0.78708154 -0.14968885 0.057856005 0.47910735 0.4530319
0.20043443 0.54614806 -0.6281204 0.33361953 0.38089696 0.62302095 -0.3182169 -0.30723315
0.23436557 0.13733841 0.46320316 0.43087545 -0.3505893 0.29941937 -0.049706973 0.2850796
-0.3471002 0.5204872 -0.0064827516 -0.35358456 0.1759588 -0.31458977 0.21551254 -0.04981549
0.075231895 -0.5455933 -0.34603533 -0.2147672 -0.18840463 -0.13866694 -0.54687953 0.35201174
0.056201022 -0.02004372 0.17998622 0.75734 -0.14520675 -0.47394633 0.38035795 0.2626871
0.23302421 0.5120401 -0.94260097 0.11265003 0.18250926 0.41046053 -0.35858026 -0.07793141
0.39846343 0.08848532 0.49987325 0.2730106 -0.46146283 0.20441681 -0.03527571 0.25557637
-0.22719587 0.24984196 -0.56835383 -0.87426883 0.106563576 -0.36374894 0.4947646 -0.119221404
0.21765155 -0.7161232 -0.16344279 -0.40609685 0.013332148 -0.49261725 -0.48351112 -0.035548657
0.22310507 -0.10200068 0.043188717 0.42055693 0.22011681 -0.453078 0.52624655 0.13746853
0.27656913 0.6539288 -0.70758295 0.37258232 0.5002194 0.1719464 -0.18698 0.231575
0.18494226 0.0946388 0.45974925 0.54589856 -0.4905737 0.26644367 0.027174987 0.16545966

model/output/b f4 [9]
00000000: 0898 b5bd 1992 c13d d6ce 103d b725 113d
00000010: 6b65 9c3c eb4c 673b 70c4 5dbc f49f e53d
00000020: 246b 5b3d
-0.08866888 0.09451694 0.035353504 0.03543636 0.019091329 0.003529365 -0.013535604 0.11212149
0.053568974
