python/results/2017_12_22_10_38_44/agent700/target_model.npz (npz, 14905 bytes, 6 tensors)

model/hidden_layers/0/W f4 [40, 40]
00000000: 456e 0cbd 5ac9 65be c8a0 4e3e 9bcb ffbe
00000010: 5dd9 a43d e995 eb3d 8f3f 923d c420 5a3d
00000020: 2465 943d bbcd d63d 1961 74be 045f fb3d
00000030: 8839 603e fbb6 49be 1b09 b23e 1785 803c
00000040: d2bb 2f3d 71ae 1f3e 77e2 743e 93be 933d
00000050: 2266 9bbe 9e7b d9be 80ce d5be c21c acbe
00000060: bd7e b53d 3a94 64bd 15cc d53d 3268 e03e
00000070: d3e6 503e ed64 8a3d 36bc 76bd 5400 9e3c
00000080: fe42 fd3d 0c41 cfbb 9ca2 ab3e 4feb 333d
00000090: 0287 d8bd 5b60 6abd 4354 d23e 6d93 e03d
000000a0: ebc0 4ebd bf6c 543f f302 1e3f 5b69 acbe
000000b0: 7940 a93e eca3 243e 7b3d a03e 5c07 1b3e
000000c0: 7965 ab3d e5e9 8c3c 7d5d 59bb 116e 07be
000000d0: c3a7 a7bd 2edc 83be 8ed2 39bd 2ca1 c3be
000000e0: 996e b6bd 9b9e 48be 9a72 203d 2159 59be
000000f0: e31c 143e ae3e b43e 07e6 043f cf52 123f
00000100: e2da 283f 27ea 1d3f 6361 443f 36aa 103f
00000110: c4d7 1f3f 7134 903e 35a7 9a3e 7e52 c13c
00000120: 92d7 9a3d d4f8 663d 6d07 ba3e 0947 11b9
00000130: e9aa 613e 4282 4c3e 37e1 7b3e cfd5 943e
00000140: c7fc e6bc e871 813d 5c26 a8be 1781 e13e
00000150: f9ae 8e3d 001e 10bc a0e7 e9bd 8383 193d
00000160: 52bb b93d f80f 013d f7e2 353d c78b b0bc
00000170: cd7f a73e 312c 9ebd ab3c 703d 3e9f 12be
00000180: 6a1c b8be f91c acbe 63f1 48be e5ed a5be
00000190: c8aa 1b3d b9e0 15be 4ed0 3b3e b1ce b03d
000001a0: ff18 c9bd d5a3 98be f8d1 783b 0060 d03e
000001b0: 797d d53d b389 dbbd 2a63 a83d 9c8e 18be
000001c0: 54c7 433e f2b1 1ebe 7536 6b3c 42b3 75bd
000001d0: cde5 6a3d c74f 68be 093e 4bbd d812 a93c
000001e0: 3e00 883d f54b 1b3e fbf2 84be 9513 14bf
000001f0: 567d 89bd 8913 203e e150 91bd 1494 253e
00000200: 0dd3 583d e039 62bd 6320 613e 0de5 da3d
00000210: 94e6 fdbd fcb0 e1be b7fd eebd 32ad b8be
00000220: 3e9c e3be 0e07 f5be 9d20 66be c0c0 a5be
00000230: d06a 94be 1446 e1be 1da2 abbd 7ca3 28be
00000240: e6b0 ad3b da1d abbe 170c 893d b4e0 0d3d
00000250: 38c6 a6bc ce42 2b3e b329 dbbd 930b 153e
00000260: 9797 683d 6227 803d c268 803d 5b86 89be
00000270: 891e ebbd e7e8 98bd 0d3c 553b 63ed 9fbe
00000280: 106c bebd 90b5 79be 4a91 653e 10e1 07bd
00000290: 85c3 68be db00 693e 78e7 813e ad03 47be
000002a0: 908c b23d d7f1 9abd c7af 013d 1c06 f23d
000002b0: d8a4 86bc 3263 413e a7e3 d73b 9f53 26bd
000002c0: 99d8 ef3c 998b bc3e 299f c9bc e77c 503e
000002d0: 5dfd 023e 125c e83d bfdc 183e 7f3d b93e
000002e0: acc4 3abd 1334 99be 422e 033e 0f5c 42bb
000002f0: 1e33 85be f503 cbbd 456f dabd 965f 613e
00000300: 7bb6 fc3d 417c ed3e 1dee 68be 3f6e 9dbd
00000310: b7ac a33d be48 023e 7e10 423e e753 433e
00000320: 3b3b 22bd 4bc4 aa3d fbcc 8cbe 4c9b d0be
00000330: 470b cb3d 66d5 56be a210 11be 0cbc 5dbe
00000340: 8700 bb3d e9da 593e cbde 523e fafa 88bd
00000350: 6601 5a3c 13a5 e0bd c39b c4bd 84cb 1bbe
00000360: a297 363e ab23 473d 3e2b 523d 178a 0cbe
00000370: 254c a73e 9b54 c93e 83e6 b63d 6929 153e
00000380: 5409 41be bf39 2dbe 618b 033e cb10 d53a
00000390: d08a 083e 94f2 9a3e 834b d83e 173b 573e
000003a0: 75f3 993e 1082 663e b762 063d c4d3 73be
000003b0: 5802 5f3c 781b 4f3d 44b8 343e 2915 0e3e
000003c0: 5938 49bc f351 37be 51b1 67be f936 823f
000003d0: 085f 2b3d eaf0 ad3d 701f 403e 0580 283e
000003e0: 2059 6e3e 5e19 be3e 16ed 4e3d 6c5b 14bd
000003f0: 5a96 58be bc06 67bc 071d 3cbe eae6 d7bd
-0.03428485 -0.22440091 0.2017852 -0.49960026 0.08049271 0.115032025 0.07141029 0.053253904
0.072458535 0.10488459 -0.23865165 0.12273982 0.21896946 -0.19698708 0.34772572 0.015688462
0.04290373 0.15593888 0.23914514 0.072140835 -0.3035136 -0.42477125 -0.4175911 -0.3361569
0.08862064 -0.055805422 0.10439316 0.43829495 0.20400552 0.06757531 -0.060238086 0.019287266
0.12366293 -0.006324893 0.335225 0.04392558 -0.10572626 -0.057220798 0.41079912 0.10965619
-0.05047695 0.82978433 0.6172325 -0.3367413 0.33057 0.16078156 0.31296906 0.15139526
0.08368964 0.017201373 -0.0033167296 -0.13225581 -0.08186295 -0.2575392 -0.045366816 -0.38208902
-0.089078136 -0.19591753 0.039171793 -0.21225406 0.14464144 0.3520407 0.51913494 0.57157606
0.6595899 0.61685413 0.767111 0.5650972 0.6243861 0.2816501 0.30205694 0.023598906
0.07560648 0.056389645 0.3633379 -0.0001385474 0.22037853 0.19971564 0.24597631 0.29069373
-0.028196706 0.06320554 -0.32841766 0.440438 0.06966967 -0.008796215 -0.11421132 0.037478935
0.09068932 0.03150937 0.044405904 -0.021551026 0.32714692 -0.077232726 0.058651607 -0.14318559
-0.35959178 -0.33615854 -0.19623332 -0.32408062 0.038004667 -0.14636506 0.1834118 0.08633173
-0.09819221 -0.29812494 0.0037966948 0.40698242 0.10424323 -0.107196234 0.08222039 -0.14898151
0.19119006 -0.15497568 0.014356245 -0.059985407 0.05734806 -0.22686683 -0.04961971 0.020638868
0.06640671 0.15165694 -0.2596663 -0.5784238 -0.06713359 0.15632452 -0.070955046 0.16169769
0.05293565 -0.055230975 0.21985011 0.10688219 -0.12397495 -0.4408034 -0.11669486 -0.36069638
-0.4445514 -0.47856945 -0.22473378 -0.3237362 -0.2898774 -0.43998778 -0.0838053 -0.16468614
0.005300629 -0.33421212 0.06691759 0.03463812 -0.02035819 0.16724703 -0.10701313 0.14555196
0.056785192 0.06257512 0.06269981 -0.26860318 -0.114804335 -0.074662976 0.0032537014 -0.312358
-0.09297955 -0.24385667 0.22418705 -0.03317362 -0.22730835 0.22754233 0.2537191 -0.19434996
0.087182164 -0.075656585 0.031661775 0.118175715 -0.016436026 0.18885496 0.0065884176 -0.04060709
0.029278086 0.36825255 -0.024612026 0.20360146 0.12791963 0.11345686 0.14927958 0.3617973
-0.045597717 -0.29922542 0.12810615 -0.0029656922 -0.26015562 -0.09912864 -0.10665754 0.2200912
0.12339493 0.4638386 -0.22747083 -0.076870434 0.07991927 0.12723061 0.18951604 0.19074975
-0.039607268 0.08338221 -0.27500138 -0.40743482 0.0991426 -0.20979843 -0.14166501 -0.21653765
0.0913096 0.21274914 0.20592801 -0.06688495 0.0133059975 -0.109689854 -0.09600022 -0.15214354
0.17831281 0.048618 0.05131077 -0.13724552 0.3267528 0.3932236 0.08930685 0.14566578
-0.18851215 -0.1691656 0.12846138 0.0016255615 0.13334203 0.30263197 0.4224511 0.21018635
0.30068555 0.22510552 0.032808986 -0.23811251 0.013611399 0.050563306 0.17648417 0.1387526
-0.012281501 -0.17902355 -0.22626235 1.0173026 0.041838676 0.08493216 0.18761992 0.16455086
0.23276186 0.3712873 0.05051907 -0.03622 -0.21151105 -0.014100727 -0.18370448 -0.1054209

model/hidden_layers/0/b f4 [40]
00000000: 04b2 c93e e230 bd3d 0800 a23c 6ca0 c3be
00000010: 1e86 d93e ac21 333f 8c3a 67be 700c d13e
00000020: 64b2 fabe 939a 263f 0fcc c73b af7a 953c
00000030: f9fa 4fbe c734 5d3e 569f ea3c 0bfd 8a3d
00000040: 4e0c 4cbe 0389 cabe 55bc 913e 3501 c43d
00000050: 8a4a c63d 9978 933e 5fe2 09be 3a6f 493e
00000060: 3469 873d 987f 88be 114c bfbe d33f 993c
00000070: e563 8b3d f9d0 17bb e3ce 3d3d ee74 353e
00000080: 4656 38bc 8dce 013f 1532 e5be 5da5 223e
00000090: b7f7 05be b57f 9cbe 71e9 373d bd6f 453e
0.39393628 0.09237839 0.019775406 -0.3820833 0.42485136 0.69973254 -0.22580928 0.40829802
-0.48964226 0.6507961 0.0060973237 0.018246977 -0.20310582 0.21602164 0.02864043 0.06786545
-0.19926569 -0.39557657 0.28463998 0.09570543 0.09682186 0.28802946 -0.1346526 0.19671336
0.06611863 -0.26659846 -0.37362722 0.018707192 0.06806163 -0.002316533 0.04633988 0.17720386
-0.011251038 0.50705796 -0.44764772 0.15883394 -0.13082777 -0.30566183 0.04490036 0.19280906

model/hidden_layers/1/W f4 [40, 40]
00000000: a8a8 03bc 8c55 e23e 5a2f bfbe 63bb 5f3e
00000010: f088 4a3e ec0b 133e f1d8 623e 4637 a63c
00000020: 3d64 38be d074 c03d 3914 e7bc 24f9 a8bd
00000030: b963 b83e 8da1 9e3c c211 a3bd 57c5 f4bd
00000040: 5c0d 953d 407d 9c3e 544b 553d 9eab 36bd
00000050: f50e b7be 7aae d1bd 0247 8abe 4575 fd3e
00000060: 26e6 153f 0597 563d 5429 c2bc 2cfc 0fbf
00000070: f694 273d 1e87 dd3c 7148 ed3d 0970 6d3e
00000080: 572e d53e 9ef8 503c d735 283e c7ed a0be
00000090: 952e 5d3e 3586 31bd 2008 953e 5ffc 64be
000000a0: 74d8 f33d 5d13 513e 9309 d6bd 1f2a fdbd
000000b0: 0f5c c13c 4eba 12bf 70e0 cc3e d9f6 083e
000000c0: 52a4 b33e 80fc fcbe 9396 31be 208e 66be
000000d0: ba4d 803e 1ba5 bd3d eb0c 6dbe d714 5bbe
000000e0: b8e7 303e ffa8 f53d fa59 9cbe 16a7 8c3c
000000f0: 3692 80be 8bd7 153e 27e9 f63d 5367 f4bd
00000100: baed 193e 6d8e 913e 9cdc 693e a701 90bd
00000110: efbb d6bd f450 dd3e 14d7 a0be 63b4 1ebd
00000120: 26e8 c63e fea8 08bf 8513 c83b 503e 743e
00000130: cb9c fb3e 5dde fcbd d161 d33d 2d79 5cbe
00000140: 0683 793e bbf8 e4be 7196 69bd 20e6 473d
00000150: 3d14 83be fb1f 493b 413b 3cbe b24d 013f
00000160: ddf1 7d3e 0396 533d 7fdd 5b3e 7a41 983d
00000170: 991b c7be da99 4b3d 456e 663d 11d9 fcbd
00000180: 9a31 52be 0a83 39bf 8ea7 133e 3ee1 0ebe
00000190: 8425 2e3e 4eb9 343f 3daa 62be b425 8b3d
000001a0: 2efb 7bbe 5013 a5bd d406 133d 35da 0a3f
000001b0: 976f 0bbe 3180 8b3c df82 c5be 8bb2 6ebe
000001c0: 8f22 8dbf a77e 20bd dc41 ba3e 81ef 8bbe
000001d0: 732f 39bf e77e 16bf e78a 1e3d 5387 323f
000001e0: ce45 923d f1fe 293e 3e4f c7bc 5495 173e
000001f0: 14a8 b8be 80f8 73be 74d8 f83e 3cea 9b3d
00000200: 313b 303e d700 09bf ab71 6abe 9022 86bd
00000210: c794 483e 92be 53bd ea01 89bd b87f b33c
00000220: 3711 e53d 4caa d13d d35c 3cbe 4390 f9bc
00000230: 97f0 ffbd b57f bebd ccfd 60bd eda8 ecbe
00000240: a793 87be 7516 8c3e bad3 813e c4b7 193e
00000250: cff1 d83d ed6f 5e3e abfd b73d f4df 9fbe
00000260: a681 a5bd 78c3 11be 05b3 3c3e 875e fc3d
00000270: 0647 763e 1765 0d3d 114e cd3d 84b6 2c3d
00000280: 55d9 95bd d4e5 3b3f 1aa2 503e aaf8 383d
00000290: ffd1 0abe 6063 e03e 2990 84bc a680 01bc
000002a0: 269e 263e 8242 bd3b c701 3bbe 928d 0c3e
000002b0: 9b8d aa3e cdb5 863b 8e3d 603d a614 e5bd
000002c0: 5f56 00bf 38a7 933d d20b a53e c887 94be
000002d0: dc54 b7be bce5 43be 110a c3be 6a96 72be
000002e0: 9268 e53e e915 083e 1478 1ebf 7b6f 1dbf
000002f0: b126 19be cdfe 09be a33f 523e 489d b83c
00000300: 42a8 513e 195f 1fbe 6ab6 54be c839 29be
00000310: 3ba5 323f 99b7 92bd db5d 733e 6113 96be
00000320: 7fb0 adbe b44b b4be 6e82 013e b4c4 81bc
00000330: bbaf 403e 1e0a b1be 650d 913e d056 bfbe
00000340: 981d af3e 7e22 c0be 8b57 30be a760 ccbd
00000350: 2cce 983d ff91 2ebd 76c6 0fbe 6115 d23d
00000360: 66a5 df3e ead9 a63e 3f36 33be 09f6 7b3c
00000370: 90e9 1cbd 573d 723d 271f 01be a55d a13d
00000380: 43a2 95bb 42d6 883e ee8d 773e 6f33 733d
00000390: 3bc1 26be 0f8f 14be 8ab1 f6bb 68c8 33be
000003a0: 7d42 60bd 2893 b5be f90b 973e 3915 0fbe
000003b0: 560e 2b3e fc2c 993e 240a 66ba ed15 1dbe
000003c0: dc86 1c3e eefe 54be 6612 5c3e 16e6 94be
000003d0: 314e 003f 3fc7 0a3e 8f8a 8abd 22ab 293e
000003e0: 388d ab3d d66d 873e a360 1c3d 9622 54be
000003f0: b6df ce3c a38b ce3e f42c bdbd 3aaa ef3d
-0.008035816 0.44205892 -0.37340814 0.21848826 0.197788 0.14360017 0.22153069 0.020290028
-0.18006988 0.0939728 -0.028207885 -0.08250645 0.36013582 0.019364143 -0.079623714 -0.11951702
0.07277939 0.30564308 0.05207379 -0.04459726 -0.357536 -0.10238357 -0.270073 0.49503532
0.58554304 0.052390117 -0.023701347 -0.5624416 0.040913545 0.027041968 0.11586083 0.2318727
0.41636917 0.012754587 0.16426788 -0.3143141 0.21599801 -0.04334088 0.2910776 -0.22361897
0.119065195 0.20417543 -0.10451045 -0.123615496 0.023603467 -0.5731553 0.40014982 0.13375415
0.35086304 -0.49411392 -0.17342596 -0.22515154 0.250593 0.09260007 -0.23149459 -0.21394669
0.17275894 0.11995124 -0.30537397 0.017169517 -0.2511155 0.14633004 0.12056189 -0.1193377
0.15032092 0.28428975 0.22838062 -0.07031565 -0.10485064 0.43225825 -0.31414092 -0.03874625
0.3884899 -0.5338286 0.0061058425 0.23851895 0.4914306 -0.123471 0.103213914 -0.215306
0.24366388 -0.44721016 -0.057028238 0.04880345 -0.25601378 0.0030689228 -0.18381979 0.5050918
0.24799295 0.051656734 0.21471213 0.07434364 -0.38888243 0.04970727 0.056257505 -0.1234609
-0.20526734 -0.72465575 0.14419386 -0.1395311 0.17006499 0.7059525 -0.22135253 0.06794301
-0.24607536 -0.08060324 0.035895184 0.5423921 -0.13616787 0.0170289 -0.3857641 -0.23310296
-1.1026171 -0.039183285 0.36378372 -0.27331164 -0.72338027 -0.5878739 0.038706686 0.6973774
0.071422204 0.16601159 -0.024329778 0.14803058 -0.36065733 -0.23825264 0.4860264 0.07613036
0.1721008 -0.53516906 -0.22894923 -0.06549561 0.19588004 -0.051695414 -0.06689818 0.021911487
0.11184924 0.1023756 -0.18394785 -0.030464297 -0.12497061 -0.09301702 -0.05492954 -0.4622263
-0.26479837 0.27360883 0.25356847 0.15011507 0.10592996 0.21722384 0.0898393 -0.3122555
-0.08081369 -0.14234722 0.18427666 0.12322717 0.24050531 0.034520235 0.100246556 0.042166248
-0.073168434 0.73397565 0.20374337 0.04515902 -0.1355667 0.43825817 -0.016182022 -0.007904207
0.16271266 0.0057757506 -0.18262397 0.1372588 0.3331116 0.004111028 0.054746203 -0.11185579
-0.5013179 0.07209629 0.3223558 -0.29009843 -0.3580693 -0.19130605 -0.38093618 -0.23690191
0.44806343 0.13289608 -0.61901975 -0.6149823 -0.14956166 -0.13476105 0.20532088 0.022535935
0.20474342 -0.1556362 -0.2077271 -0.16525948 0.6978337 -0.07163925 0.23766272 -0.2931166
-0.33923718 -0.35214007 0.12647411 -0.015840866 0.18817036 -0.3457803 0.28330532 -0.3737092
0.34202266 -0.37526315 -0.17220895 -0.099793725 0.07461199 -0.0426197 -0.1404055 0.10257984
0.43680876 0.3258813 -0.17501162 0.015378484 -0.03830868 0.05914053 -0.1260954 0.078791894
-0.0045664622 0.26725966 0.24175236 0.059375223 -0.16284649 -0.14507698 -0.0075284885 -0.17556918
-0.05475091 -0.35463834 0.29501322 -0.1397294 0.16704687 0.29917133 -0.0008775315 -0.15340395
0.1528582 -0.20800373 0.21491393 -0.29081792 0.5011931 0.13552569 -0.06764709 0.16569188
0.08376545 0.26450986 0.038178097 -0.20716318 0.025253158 0.4034091 -0.0923709 0.1170239

model/hidden_layers/1/b f4 [40]
00000000: 6ffd f93c 52a4 38be 6685 063e fb70 32be
00000010: 93aa 463d 86b0 8fbe b29a 403d a9a4 f9bc
00000020: ee44 09be ec0d 5abb 8428 12bd 5fb9 04be
00000030: b04b 8d3e 5f21 e3bd 508d 623c ab43 08be
00000040: 55cc fe3d 4838 0cbd e046 f2bd 8f45 cbbc
00000050: a66c 45bc e0c1 2a3d 884e 8d3d 7062 08bd
00000060: e8c0 0bbc 78cf 90bc 7002 203c 4bff dd3d
00000070: e6d9 c83d b33c d83d 7330 f13c 1070 d9bc
00000080: 791b bdbb 4b36 323d 4154 4b3d 381e c9bd
00000090: 8997 abbd b94e 183d defe 38be d489 72bc
0.030516354 -0.18031433 0.13136825 -0.17425911 0.048502516 -0.28064364 0.04702253 -0.030474024
-0.13405201 -0.0033272458 -0.03568317 -0.12961338 0.27596807 -0.110903494 0.013827637 -0.13307063
0.12441317 -0.03423336 -0.118299246 -0.024813442 -0.01204983 0.0416888 0.06899744 -0.033297002
-0.008529879 -0.017677054 0.009766206 0.10839709 0.09807186 0.105584525 0.029442048 -0.026542693
-0.0057710973 0.04350881 0.049640898 -0.09820217 -0.083785124 0.03718445 -0.18065974 -0.014803369

model/output/W f4 [9, 40]
00000000: 5fba fa3e 82de 1e3f 00d7 3ebf 3c70 813e
00000010: 73bb c43e 6a7f 0c3f b4f3 aebe 5567 43bd
00000020: 074e a43e 1ec5 943d 10fd d93e d93f 963e
00000030: bcd1 b2be 20fe ba3e ed3c 893e 8899 763e
00000040: aa31 24be 202d a13e 545f b03d 3aa1 87be
00000050: 49d2 3e3e 963e f7be af58 913e a8bc 1dbe
00000060: 628a dc3c df7a a8be c3e6 ecbe e618 91be
00000070: e853 31be e2dc 47be 2db1 0fbf f317 b43e
00000080: b28b b43e 8898 edbc 59f0 8b3e cc31 333f
00000090: ddce ebbc e9bc 9ebe c26a be3e 14b0 8d3e
000000a0: be77 a73d d7b7 ef3e 0102 53bf 5771 b73e
000000b0: b6bd d13e 0a90 ed3e f488 3cbe 1e13 5bbc
000000c0: 99cc 8c3e efe8 c03c 5248 0b3f 20d8 c43e
000000d0: f7f2 09bf 79ec 383e 8c74 463e 2adc 943e
000000e0: a59b 5bbe c472 003f 9a6e a1be 7da5 0ebf
000000f0: e2e6 afbc e117 76be ff7b 843e ef55 b53d
00000100: 8152 233e 50c1 63be 985f 9cbe f93f dbbe
00000110: b3ff 36be cd3f f8be 3850 dfbe 20c6 003f
00000120: 1e18 7b3e cb07 82bc bdb3 263d 75f2 1c3f
00000130: 764b 993d 1782 bfbe 246f f23e ae22 3e3e
00000140: c453 063f af0c c63e d667 1bbf dd74 d53e
00000150: a011 123f 5a97 1c3f d262 bcbe c7fc 90be
00000160: 94b5 593e a2fe ba3d 0137 f13e e803 ac3e
00000170: 378f b3be 740f 843e 9b29 573e d077 ad3e
00000180: d449 82be 0f0b be3e 6a5b cb3d 8ef8 b6bd
00000190: 76ce a73d c99d 93be a077 753e d108 5fbc
000001a0: c8b9 163e d6ae 62be 3834 00bf e93a d4be
000001b0: a33e 20be f945 b0bd d1cd 10bf 8923 dc3e
000001c0: bb13 bc3e 2b06 9abd 958d 283e d152 0c3f
000001d0: 5552 f83d 319e 00bf 1036 bb3e db8d ac3e
000001e0: 01ac d93e 1bd4 bc3e ad57 debe a8ee ee3e
000001f0: fd78 fc3e 91ba 983e 66de 8cbe c4d4 4d3d
00000200: 3a19 5c3e 898f 403e 2009 e93e 0b36 e73e
00000210: 8f4a 5fbe 551c a13e e03d 8ebe c4d8 5c3e
00000220: be41 80be a22e fb3e 6a15 37be b2fe 27bf
00000230: 60f9 6d3e 2072 c4be d15e 493e 7239 81be
00000240: 7c80 0b3e 8ddd 22be 6b8f 08bf b230 06be
00000250: a11b 06be 3bda 98be 7f53 cebe 40d5 d03e
00000260: d266 9f3e 7391 423e a2d3 c93e 0e68 493f
00000270: 514e 19be dc21 6e3d 8351 f53e a20d e83e
00000280: 234b 4d3e d6d3 0b3f a8d7 20bf 7fd6 aa3e
00000290: 5e15 c33e 5c72 1f3f b9cc a2be f069 9dbe
000002a0: 2826 703e 5ae0 0c3e fa26 ed3e 9966 dc3e
000002b0: f1a2 b3be 1971 993e a3b3 4abd 590c 923e
000002c0: 3fc4 b1be 1f4d 053f 1747 dfbb 0214 b5be
000002d0: b332 343e 5811 a1be 8b11 5d3e d084 4bbd
000002e0: 3b52 9a3d f8b0 0bbf ba31 b1be a0e1 5bbe
000002f0: 6e8c 40be 071f 0ebe f505 0cbf 5b45 b43e
00000300: 2fda 663d ddff a2bc dd9c 383e 6be6 413f
00000310: 14e8 14be a2cc f2be 7086 c23e 975f 863e
00000320: fbe9 6e3e a226 033f db41 71bf a529 e43d
00000330: 9223 3b3e d2d9 d13e a103 b7be 4e3e 9fbd
00000340: 172d cb3e 80de b23d 33e5 ff3e 2a34 8b3e
00000350: fb98 ebbe 44e5 4f3e 4d58 11bd c22b 823e
00000360: 258a 67be e0e9 7f3e f780 11bf ddcc 5fbf
00000370: 99f7 d83d 85cc b9be 7471 fd3e 5144 f5bd
00000380: e2bc 5e3e 9767 37bf 781d 28be 1e4e cfbe
00000390: f881 5a3c 46a8 fbbe 5a85 f7be c6f6 10bd
000003a0: f5ed 643e dc63 cfbd ba0b 2e3d a4b6 d73e
000003b0: 9ad7 603e 632a e8be 7ba4 063f 5700 0c3e
000003c0: fe9a 8d3e 5e7f 273f 402c 35bf 1d27 be3e
000003d0: 2407 003f 370e 2f3e d2cb 3dbe 2424 6d3e
000003e0: 2997 3b3e 5ae0 bf3d cd8e eb3e ba62 0b3f
000003f0: 619a fabe bda9 873e 152a df3c cd74 283e
0.48970315 0.6205827 -0.74546814 0.2528094 0.38424262 0.5488192 -0.34170306 -0.047705967
0.3209078 0.072641596 0.42575884 0.29345587 -0.3492564 0.36522007 0.26804295 0.24082005
-0.1603457 0.3147974 0.086119324 -0.26490194 0.18634905 -0.48289937 0.28387973 -0.15403998
0.026921455 -0.32906243 -0.46269807 -0.28339309 -0.17317164 -0.19517854 -0.56129724 0.35174522
0.3526283 -0.029003397 0.27331808 0.6999786 -0.028785164 -0.31003502 0.37190825 0.276734
0.08177136 0.46819946 -0.8242493 0.3582866 0.4096505 0.46398956 -0.18411618 -0.013371257
0.27499846 0.023548571 0.5440723 0.3844614 -0.5388636 0.18058957 0.19380397 0.29074222
-0.21446092 0.5017512 -0.31529695 -0.55721265 -0.021472398 -0.24032547 0.25875852 0.08854281
0.15949441 -0.22241712 -0.30541682 -0.42822245 -0.17870979 -0.48486176 -0.4361589 0.50302315
0.24520919 -0.015872857 0.040698756 0.6130746 0.07485096 -0.37403938 0.4735042 0.18567917
0.52471566 0.38681552 -0.60705316 0.41690722 0.57058144 0.61168444 -0.36794144 -0.28317854
0.21260673 0.091305986 0.47112277 0.3359673 -0.35070202 0.2579304 0.21011965 0.33880472
-0.2544695 0.37117812 0.09929545 -0.08934127 0.08193676 -0.28831318 0.23971415 -0.013612942
0.14719307 -0.22137007 -0.5007968 -0.41451195 -0.15648894 -0.08607096 -0.5656405 0.4299586
0.36733803 -0.07520708 0.1646026 0.5481387 0.121250786 -0.5024138 0.36564684 0.33701977
0.4251404 0.36880574 -0.43426266 0.46666455 0.49311057 0.2982984 -0.27513427 0.050251737
0.21493998 0.18804754 0.45514774 0.4515842 -0.21805786 0.31466928 -0.27781582 0.21567065
-0.25050157 0.49059016 -0.17879263 -0.6562301 0.2323966 -0.3836832 0.19665076 -0.2523914
0.13623232 -0.15904827 -0.5334384 -0.13104513 -0.13096477 -0.29853997 -0.40298077 0.40787697
0.31133133 0.19000797 0.39419276 0.786744 -0.14971282 0.05813776 0.4791375 0.453229
0.20048194 0.5462011 -0.62829065 0.33366773 0.3810224 0.62283874 -0.31796816 -0.30744886
0.23452055 0.13757458 0.463188 0.43047026 -0.35085252 0.299691 -0.04948772 0.28525046
-0.34720036 0.520708 -0.0068138945 -0.35366827 0.17597465 -0.31458545 0.21588723 -0.049687207
0.075352155 -0.5456691 -0.3460825 -0.21472788 -0.1880357 -0.13879023 -0.5469659 0.35209164
0.05636042 -0.019897396 0.18028589 0.75742215 -0.14541656 -0.47421747 0.37993193 0.26244804
0.23331444 0.51230824 -0.9424111 0.111407556 0.18275288 0.40986496 -0.35744956 -0.077755556
0.39682838 0.08733845 0.49979553 0.27188236 -0.46015152 0.20302302 -0.0354846 0.2542401
-0.22611292 0.2499156 -0.5683741 -0.8742197 0.105941005 -0.3628885 0.4950062 -0.11975921
0.2175174 -0.7164244 -0.16417491 -0.40489286 0.013336651 -0.4915182 -0.48343927 -0.03539159
0.22356398 -0.101264685 0.042491652 0.4213153 0.21957245 -0.45344839 0.5259473 0.13672005
0.27657312 0.6542872 -0.70770645 0.37139216 0.50010896 0.17095266 -0.18534783 0.23158318
0.18319382 0.093689635 0.46007386 0.5444752 -0.48945907 0.26496688 0.027241746 0.16450806

model/output/b f4 [9]
00000000: 76b4 b5bd 4b04 c13d fde8 153d 6d26 113d
00000010: 5452 9e3c 1a8c 583b c26f 5dbc 90e4 e23d
00000020: b3f2 5a3d
-0.08872311 0.09424647 0.036599148 0.035437036 0.019326366 0.0033042491 -0.013515415 0.11078751
0.053454112
