python/results/2017_12_22_10_38_44/agent200/model.npz (npz, 14895 bytes, 6 tensors)

model/hidden_layers/0/W f4 [40, 40]
-0.17326781 -0.25544116 0.095321596 -0.22847973 0.052612852 0.114290714 0.04771963 0.056107435
0.098437876 0.04203986 -0.2610318 0.08066269 0.18343635 -0.15143436 0.28514177 -0.047667395
-0.008680198 0.116260484 0.24791153 0.06414484 -0.36665872 -0.3667383 -0.32042006 -0.15944923
0.22593057 -0.007376551 0.022007132 0.31922472 0.05775425 -0.05557583 -0.17945245 -0.0667006
0.06917232 -0.04343185 0.32750762 0.022452489 -0.18835804 -0.21227229 0.31498513 0.067672804
-0.0595681 0.7554259 0.127367 -0.30535406 0.3162559 -0.013381152 0.30313614 0.05313649
-0.1110346 0.000887284 -0.006395824 -0.08056665 -0.009532392 -0.35485616 0.21595068 -0.2101425
0.048330717 -0.17424895 0.04941562 -0.14286108 0.22770819 0.33292902 0.36812174 0.33438596
0.32608283 0.25628 0.4912421 0.32090306 0.4130446 0.11633003 0.23862831 -0.040708356
0.0333134 0.071821816 0.38788807 0.045872062 0.2721445 0.12346855 0.054673567 0.14329459
-0.034369584 0.08967294 -0.113892674 0.3023467 0.08105799 0.019444983 -0.08341587 0.06578774
0.07330517 0.016934454 0.047044646 -0.03491843 0.3254765 -0.024421599 0.075435944 -0.08052478
-0.2996501 -0.29299948 -0.15463638 -0.26388782 0.11438212 -0.10029452 0.13835949 0.029966636
-0.18626201 -0.3667556 0.0024545644 0.4380991 0.15390229 -0.084577605 0.06307103 -0.15302885
0.18955348 -0.14937866 0.050363977 -0.0075562214 0.10276389 -0.15434104 -0.002118694 0.028131321
0.26257437 0.086595125 -0.14282954 -0.34654522 0.01086101 0.18553798 -0.07773414 0.15690167
0.028238432 -0.15638667 0.15457545 0.08984655 -0.13214761 -0.45685574 -0.09836883 -0.35414162
-0.37484723 -0.29364845 -0.007594093 -0.10496949 -0.12586841 -0.35805264 -0.11766969 -0.25204992
-0.024263607 -0.38243374 0.01891651 -0.021341851 -0.15892561 0.05549599 -0.12122873 0.1330043
0.06320341 0.05020469 0.019368019 -0.34094933 -0.09495686 0.07132769 0.25710186 -0.20640211
-0.05147402 -0.102338605 0.13363495 0.09413511 -0.30755028 0.20379888 0.27851647 -0.23211682
0.111845165 -0.0354534 0.070141315 0.11703112 -0.019292027 0.2225698 -0.0061496496 -0.06745231
-0.008311169 0.3200608 -0.08639571 0.1220873 0.04514128 -0.008698031 0.12434398 0.3724179
-0.055334024 -0.32688764 0.16067724 0.05048418 -0.17743203 -0.024646139 -0.11889148 0.21373972
0.11793067 0.47690904 -0.20296848 -0.055823326 0.041495427 0.06153791 0.07644761 0.1871536
-0.04258057 0.1492824 0.05974994 0.057883933 0.09075512 -0.07004242 -0.12408668 -0.18221131
0.09228766 0.10549501 0.17246135 -0.14348395 -0.049293514 -0.06911165 -0.13310608 -0.18470488
0.12767614 -0.106501035 -0.0868697 -0.28445792 0.22408698 0.42610666 0.19863036 0.3409775
-0.032820165 -0.10599649 0.0849961 -0.08827383 -0.0034491585 0.17418598 0.26133898 0.11779277
0.25323904 0.22853054 0.109592505 -0.10632884 0.01610971 -0.09224069 -0.06545443 0.034464374
0.047913708 -0.16520849 -0.11924672 0.29707298 -0.026251195 0.006436974 0.030710101 -0.011970177
0.092835076 0.28541312 -0.08526939 -0.049510635 -0.18864854 -0.11075434 -0.17532161 -0.06369942
00000000: 1e6d 31be 2fc9 82be f837 c33d 97f6 69be
00000010: 9380 573d 4011 ea3d a975 433d e9d0 653d
00000020: cc99 c93d fd31 2c3d f6a5 85be 7b32 a53d
00000030: bdd6 3b3e 9c11 1bbe 1afe 913e e33e 43bd
00000040: 6437 0ebc fa19 ee3d 85dc 7d3e 5f5e 833d
00000050: b1ba bbbe 1fc5 bbbe 190e a4be a946 23be
00000060: 585a 673e ffb6 f1bb 4d48 b43c 6c71 a33e
00000070: b88f 6c3d 7ba3 63bd 62c2 37be 539a 88bd
00000080: 38aa 8d3d 98e5 31bd 14af a73e 48ee b73c
00000090: eee0 40be e85d 59be bb45 a13e 0a98 8a3d
000000a0: aefd 73bd 9763 413f 7f6c 023e 5e57 9cbe
000000b0: 4bec a13e 9f3c 5bbc a934 9b3e a6a5 593d
000000c0: 1c66 e3bd 9f98 683a 0f94 d1bb 2100 a5bd
000000d0: c02d 1cbc b5af b5be 2d22 5d3e 982f 57be
000000e0: 6ef6 453d 516e 32be 0868 4a3d 2d4a 12be
000000f0: 562c 693e ac75 aa3e 747a bc3e a334 ab3e
00000100: 54f4 a63e 2237 833e 1684 fb3e 684d a43e
00000110: 957a d33e 703e ee3d fb5a 743e cebd 26bd
00000120: a273 083d 5117 933d 4499 c63e 58e4 3b3d
00000130: 8656 8b3e 14dd fc3d 64f1 5f3d d1bb 123e
00000140: 1fc7 0cbd 72a6 b73d 9040 e9bd 30cd 9a3e
00000150: bb01 a63d 164b 9f3c f1d5 aabd b9bb 863d
00000160: 0521 963d 20ba 8a3c e3b1 403d a106 0fbd
00000170: dba4 a63e ce0f c8bc 297e 9a3d 2dea a4bd
00000180: bd6b 99be 0704 96be 0059 1ebe 4e1c 87be
00000190: 2c41 ea3d 3767 cdbd 1cae 0d3e 977c f53c
000001a0: 78bb 3ebe 64c7 bbbe c2dc 203b 864e e03e
000001b0: 9098 1d3e 0637 adbd 622b 813d 98b3 1cbe
000001c0: 4f1a 423e b8f6 18be 754a 4e3d 2e9a f7bb
000001d0: e075 d23d 940b 1ebe c9d9 0abb a873 e63c
000001e0: 2670 863e c958 b13d e841 12be 606e b1be
000001f0: 61f2 313c abfd 3d3e 1433 9fbd d5aa 203e
00000200: 4954 e73c d423 20be 0749 1e3e 7801 b83d
00000210: b451 07be ffe8 e9be 9975 c9bd 0d52 b5be
00000220: faeb bfbe 1759 96be dfd7 f8bb 3efa d6bd
00000230: a6e3 00be ad52 b7be cefc f0bd b00c 81be
00000240: 79c4 c6bc 5bce c3be ccf6 9a3c 1bd5 aebc
00000250: 65bd 22be c34f 633d c546 f8bd 4732 083e
00000260: ca70 813d 6fa3 4d3d aea9 9e3c e990 aebe
00000270: be78 c2bd 4014 923d dba2 833e 135b 53be
00000280: 6cd6 52bd e796 d1bd 9ad7 083e e9c9 c03d
00000290: 3b77 9dbe a7b0 503e b699 8e3e 08b0 6dbe
000002a0: 140f e53d 9637 11bd 40a6 8f3d 03ae ef3d
000002b0: 500a 9ebc 56e9 633e 0083 c9bb 7024 8abd
000002c0: 922b 08bc 02df a33e 3cf0 b0bd e808 fa3d
000002d0: 10e6 383d 3082 0ebc 0ea8 fe3d 8fad be3e
000002e0: eea5 62bd d15d a7be 9388 243e 80c8 4e3d
000002f0: beb0 35be b3e6 c9bc 607d f3bd 96de 5a3e
00000300: a385 f13d 6c2d f43e f8d6 4fbe 00a7 64bd
00000310: 1cf7 293d 2d0f 7c3d 9190 9c3d 31a5 3f3e
00000320: f768 2ebd 7cdd 183e 5abc 743d b417 6d3d
00000330: d2dd b93d 6672 8fbd 2821 febd 9a95 3abe
00000340: 5001 bd3d c50d d83d b599 303e 75ed 12be
00000350: ffe7 49bd 698a 8dbd f64c 08be 4723 3dbe
00000360: 89bd 023e 371d dabd bee8 b1bd 78a4 91be
00000370: 0f77 653e a72a da3e c265 4b3e 9a94 ae3e
00000380: 706e 06bd b014 d9bd 6f12 ae3d e9c8 b4bd
00000390: 470b 62bb cf5d 323e 39ce 853e 563d f13d
000003a0: 8ca8 813e e903 6a3e 0972 e03d efc2 d9bd
000003b0: 83f8 833c b0e8 bcbd f90c 86bd 842a 0d3d
000003c0: 2a41 443d 6a2c 29be a037 f4bd f319 983e
000003d0: bf0c d7bc 40ed d23b c093 fb3c 901e 44bc
000003e0: 5120 be3d ab21 923e b8a1 aebd aacb 4abd
000003f0: 152d 41be 2cd3 e2bd 8287 33be d774 82bd

model/hidden_layers/0/b f4 [40]
0.1183109 0.05149121 0.012750995 -0.12928297 0.21070984 0.24722104 -0.14791082 0.13790677
-0.084592424 0.11250629 -0.036961365 -0.066874936 -0.10470863 0.06514497 -0.026730176 0.03638737
-0.21259779 -0.18549411 0.14248784 0.029072559 0.024248168 0.11890057 -0.1253901 0.07916943
0.014224979 -0.19545813 -0.041375596 -0.020322332 0.047872655 -0.066802524 0.02644826 0.1280792
-0.12861688 0.21081957 -0.15591851 0.009510414 -0.12933409 -0.13324709 0.04529199 0.09893979
00000000: fc4c f23d 72e8 523d 8de9 503c c162 04be
00000010: 52c4 573e 8327 7d3e ef75 17be 6f37 0d3e
00000020: cb3e adbd b369 e63d cd64 17bd baf5 88bd
00000030: 7a71 d6bd ba6a 853d 3ef9 dabc ec0a 153d
00000040: 3cb3 59be 2bf2 3dbe 55e8 113e 9329 ee3c
00000050: 18a4 c63c 2482 f33d 4366 00be 9523 a23d
00000060: e30f 693c 2d26 48be 7579 29bd 057b a6bc
00000070: 1e16 443d c3cf 88bd 05aa d83c 3227 033e
00000080: 25b4 03be 16e1 573e 1aa9 1fbe 91d1 1b3c
00000090: 2870 04be ed71 08be 1884 393d f2a0 ca3d

model/hidden_layers/1/W f4 [40, 40]
-0.017330369 0.304663 -0.3457853 0.22313927 0.19848894 0.15285824 0.12749916 0.006355896
-0.22118056 0.08091651 0.00979294 -0.0921538 0.28653786 0.030323917 -0.05065529 -0.121676415
0.04280928 0.27394706 0.06283886 -0.028831432 -0.31411612 -0.032688566 -0.2768083 0.5061042
0.4924127 -0.0061290837 -0.023551606 -0.4788344 0.045982264 0.06072301 0.06772244 0.17841142
0.3874341 0.027798401 0.12671222 -0.31069416 0.07712122 -0.059298947 0.30547974 -0.18715067
-0.010056618 0.10394024 -0.04062426 0.049272165 -0.13178703 -0.5303474 0.13850512 -0.0017636911
0.29594266 -0.34276775 0.0037546216 -0.19486304 0.16690376 0.050137073 -0.12817831 -0.113057315
0.08335909 0.114275984 -0.16712542 0.01550832 -0.15247744 -0.004378266 0.13162392 -0.12125288
0.20611022 0.08939064 0.26631653 -0.19839387 -0.20122902 0.37800986 -0.23354058 -0.047546457
0.28041655 -0.3360849 0.00019688811 0.13093294 0.28859556 -0.016429363 0.123758875 -0.31074384
0.13312949 -0.16998997 -0.14992017 0.09260397 -0.2728511 -0.017621426 -0.19745128 0.36781466
0.30191728 -0.08748647 0.16559166 0.064824276 -0.30329344 0.015862977 0.01770928 -0.06366424
-0.18737453 -0.56860167 0.029904604 -0.14475481 0.11903051 0.57502246 -0.26627588 0.022600597
-0.13721918 -0.07886909 0.1319685 0.4703686 -0.116451845 0.0579082 -0.29833725 -0.16247922
-0.7582271 -0.009166891 0.3193791 -0.30878818 -0.6955005 -0.45247987 0.031179115 0.6027332
0.20890838 0.114980824 -0.0011740285 0.1477556 -0.31065044 -0.14828779 0.3159434 0.08948959
0.16340172 -0.29829985 -0.15533471 -0.08792479 0.06354222 0.02051737 -0.033665184 0.016287822
0.025577227 0.014017884 -0.10962388 0.06934013 -0.16477884 -0.08103445 -0.03334641 -0.3992934
-0.25443864 0.13794394 0.24306734 0.10220143 0.09053787 0.295828 0.048404798 -0.4093018
-0.028461054 -0.08559553 0.072244406 0.18591997 0.1479763 0.008769248 0.11873086 -0.044467866
-0.016890712 0.5873765 0.22308609 0.025858585 -0.13196778 0.43686578 -0.09076701 -0.008352236
0.13739923 0.013534291 -0.15042333 0.11540717 0.28615686 0.015811132 0.06550014 -0.12800777
-0.5174352 0.039158143 0.32448372 -0.24903612 -0.36515284 -0.12626861 -0.35353017 -0.19367476
0.35023835 0.12034397 -0.6185396 -0.5236164 -0.13902903 -0.12414691 0.1776274 -0.040987603
0.19790623 -0.15650062 -0.22973773 -0.09429485 0.57002497 -0.07739241 0.23507522 -0.22161283
-0.14020947 -0.21089683 0.10057327 0.026898032 0.20397514 -0.28866068 2.1377855e-05 -0.26751506
0.3500404 -0.11114204 -0.10572629 -0.1013864 0.029899338 -0.04378991 -0.10080644 0.023651948
0.24019483 0.26906627 -0.2450085 0.055436827 -0.11449867 0.107369035 -0.15523522 0.0774212
0.07203177 0.13932341 0.18179525 0.05040895 -0.22483322 -0.123642646 0.039633222 -0.23394291
0.063479215 -0.27643573 0.14689913 -0.15266928 0.037603285 0.24864061 0.0882994 -0.21251087
0.08457321 -0.14227639 0.13289657 -0.15710323 0.41091958 0.073017485 0.06298448 0.13672361
0.24598841 0.12836146 -0.07504455 -0.268928 -0.06682866 0.29726475 -0.13393839 0.1469972
00000000: 6bf8 8dbc cafc 9b3e c50a b1be 9f7e 643e
00000010: af40 4b3e df86 1c3e 248f 023e 1f45 d03b
00000020: 287d 62be 8eb7 a53d 9172 203c 22bb bcbd
00000030: 17b5 923e dd69 f83c ec7b 4fbd 7c31 f9bd
00000040: c958 2f3d ca42 8c3e a9b1 803d e52f ecbc
00000050: d4d3 a0be 72e4 05bd d1b9 8dbe 0b90 013f
00000060: 841d fc3e 7bd6 c8bb 4cef c0bc c829 f5be
00000070: e657 3c3d b1b8 783d 10b2 8a3d 7cb1 363e
00000080: c35d c63e 79b9 e33c d9c0 013e 4e13 9fbe
00000090: bbf1 9d3d 74e3 72bd d767 9c3e 6da4 3fbe
000000a0: 83c4 24bc 9fde d43d a065 26bd 9cd1 493d
000000b0: 2ef3 06be d9c4 07bf 49d4 0d3e a72b e7ba
000000c0: cc85 973e 417f afbe 1910 763b 2d8a 47be
000000d0: d2e8 2a3e 885c 4d3d 2d41 03be 988a e7bd
000000e0: 2cb8 aa3d 8709 ea3d ed22 2bbe 9c16 7e3c
000000f0: 0c23 1cbe 8f77 8fbb 6cc8 063e 6e53 f8bd
00000100: 8f0e 533e 7112 b73d a45a 883e c327 4bbe
00000110: fb0e 4ebe 828a c13e 4325 6fbe 13c0 42bd
00000120: c292 8f3e 5213 acbe c073 4e39 4913 063e
00000130: ccc2 933e df96 86bc 4b75 fd3d d119 9fbe
00000140: 1953 083e da11 2ebe ac84 19be 26a7 bd3d
00000150: 24b3 8bbe cf5a 90bc ab30 4abe 3452 bc3e
00000160: e794 9a3e 1b2c b3bd dc90 293e 97c2 843d
00000170: 4749 9bbe 13f3 813c 0d13 913c 6662 82bd
00000180: 1cdf 3fbe e18f 11bf 80fa f43c 9b3a 14be
00000190: 45c6 f33d ac34 133f 5055 88be e324 b93c
000001a0: 2f83 0cbe 1e86 a1bd c022 073e 27d4 f03e
000001b0: 4e7e eebd 2631 6d3d a9bf 98be f460 26be
000001c0: 2c1b 42bf ba30 16bc a885 a33e 7c19 9ebe
000001d0: 520c 32bf 71ab e7be 586b ff3c b94c 1a3f
000001e0: 14ec 553e 117b eb3d dce1 99ba 3e4d 173e
000001f0: 930d 9fbe c1d8 17be 55c3 a13e 5146 b73d
00000200: c852 273e c2ba 98be 1010 1fbe ea11 b4bd
00000210: 6c22 823d 0b14 a83c 81e4 09bd 0a6e 853c
00000220: 5587 d13c 44ab 653c 7c82 e0bd 3302 8e3d
00000230: c9bb 28be 64f5 a5bd 3f96 08bd 2f70 ccbe
00000240: c845 82be 2d41 0d3e a5e6 783e fc4e d13d
00000250: eb6b b93d c576 973e 1c44 463d 0190 d1be
00000260: 2827 e9bc b64c afbd e0f4 933d ce61 3e3e
00000270: 1987 173e e4ac 0f3c 2a29 f33d f023 36bd
00000280: 645e 8abc 4e5e 163f ae70 643e 62d5 d33c
00000290: 9022 07be dfac df3e 0ee4 b9bd d1d7 08bc
000002a0: 62b2 0c3e eebe 5d3c 9308 1abe 985a ec3d
000002b0: 2783 923e 5986 813c f024 863d 7814 03be
000002c0: a276 04bf 4a64 203d bb22 a63e 5303 7fbe
000002d0: 50f5 babe 8f4c 01be e801 b5be ad52 46be
000002e0: 7152 b33e e676 f63d 9c58 1ebf b90b 06bf
000002f0: a05d 0ebe bc40 febd f5e3 353e 9ee2 27bd
00000300: eea7 4a3e b341 20be 5e40 6bbe a91d c1bd
00000310: 28ed 113f e97f 9ebd 8fb7 703e 79ee 62be
00000320: 1293 0fbe 57f5 57be 5cf9 cd3d 4359 dc3c
00000330: dcde 503e 55cb 93be 9854 b337 bcf7 88be
00000340: 7f38 b33e 709e e3bd 0687 d8bd aca3 cfbd
00000350: 75ef f43c 0c5d 33bd 9b73 cebd bbc1 c13c
00000360: a2f5 753e 0ec3 893e 82e3 7abe ba11 633d
00000370: 477e eabd 4ce4 db3d fbf5 1ebe 028f 9e3d
00000380: 6585 933d ccaa 0e3e 8928 3a3e 9d79 4e3d
00000390: ae3a 66be 5b38 fdbd 7256 223d bb8e 6fbe
000003a0: 6401 823d fc88 8dbe ba6c 163e 5655 1cbe
000003b0: e705 1a3d a59b 7e3e 51d6 b43d 739c 59be
000003c0: b834 ad3d e7b0 11be 0a16 083e abdf 20be
000003d0: 0d64 d23e 318a 953d 02fe 803d 4601 0c3e
000003e0: 63e4 7b3e 3071 033e f5b0 99bd eeb0 89be
000003f0: 77dd 88bd 1633 983e 2527 09be 6f86 163e

model/hidden_layers/1/b f4 [40]
0.05480189 -0.121205315 0.1212334 -0.09340657 0.06460002 -0.07549541 0.08634578 -0.011204739
-0.085069515 -0.009074154 -0.06632196 -0.07558104 0.10949397 -0.062223762 0.03098553 -0.11769633
0.07496924 -0.031622134 -0.043616798 0.0070272773 -0.019891411 0.018405922 0.08122808 0.0022149575
-0.023284443 -0.01007204 -0.0014005417 0.06176522 0.053348593 0.061872113 0.012645307 -0.023168096
0.002889137 0.044775747 0.009785874 -0.058831897 -0.093746245 -0.0019714169 -0.06288876 -0.008556508
00000000: f277 603d 7e3a f8bd 3849 f83d f24b bfbd
00000010: 044d 843d 569d 9abd 0ed6 b03d 1594 37bc
00000020: ed38 aebd c3ab 14bc cfd3 87bd 3bca 9abd
00000030: 603e e03d 58de 7ebd 5ed5 fd3c c60a f1bd
00000040: 7989 993d 3686 01bd 87a7 32bd 1345 e63b
00000050: 50f3 a2bc 04c8 963c e85a a63d d228 113b
00000060: 04bf bebc 3305 25bc 6292 b7ba 87fd 7c3d
00000070: 0e84 5a3d 9d6d 7d3d 432e 4f3c 05cb bdbc
00000080: ad57 3d3b c666 373d ee54 203c b7f9 70bd
00000090: 08fe bfbd e332 01bb d2cb 80bd 9930 0cbc

model/output/W f4 [9, 40]
0.33495164 0.2925636 -0.5740993 0.018697167 0.27769542 0.2437965 -0.15884861 0.0075572142
0.113184884 0.041496888 0.20260215 0.04284445 -0.07346896 0.095569156 0.15922113 0.16520008
-0.07749774 0.16658954 0.12956597 -0.111874685 0.10185303 -0.3031861 0.05806677 -0.021164058
-0.05094307 -0.14064118 -0.27287376 -0.18751495 -0.12772608 -0.007161259 -0.41237098 0.1764999
0.20330195 -0.0058854986 0.18791692 0.46259165 0.018853726 -0.074490555 0.15168977 0.05550705
-0.04521567 0.21056339 -0.46653047 0.14928646 0.27552122 0.23387179 0.049650542 0.06963261
0.09137463 0.0660671 0.3421341 0.15702711 -0.3320858 0.039120793 0.1205279 0.075259276
-0.019655706 0.2912144 -0.09313773 -0.3630125 -0.14841752 -0.039912935 0.05600542 0.13005027
0.035546366 -0.04900112 -0.17401993 -0.21815708 -0.104692355 -0.24891983 -0.17998159 0.36117485
0.11553363 -0.007039726 -0.11721855 0.41210395 -0.0015614069 -0.107477486 0.20000398 -0.009858173
0.35795802 0.11150148 -0.29101402 0.26709825 0.37359887 0.33304054 -0.20216537 -0.26034862
0.01801165 0.051915478 0.23277254 0.19714151 -0.01934763 0.02335989 0.16328529 0.15838507
-0.07606866 0.21594635 0.10684129 0.19504367 -0.037669357 -0.11363819 0.20552969 0.060120314
0.017659644 -0.01328631 -0.3286756 -0.26917166 -0.051402636 0.042139094 -0.33037138 0.24330026
0.2776366 -0.117528826 0.16961223 0.27350911 0.107375264 -0.42754108 0.08527711 0.17034197
0.29121494 0.20599931 -0.21728 0.2505703 0.29680794 0.103999816 -0.14573476 0.11887819
0.18652146 0.14619839 0.086610496 0.23613077 0.13203228 0.2743705 -0.35528988 0.03214388
-0.056982223 0.3377803 -0.19011267 -0.53473574 0.17932396 -0.2921352 -0.09345862 -0.17452332
0.026293434 -0.08234877 -0.3760607 0.018691005 -0.040054332 -0.11616682 -0.24186794 0.3179217
0.16088699 -0.035191264 0.36416158 0.5609131 -0.07561675 0.11977258 0.24894752 0.23290691
0.033368416 0.29357356 -0.31083643 0.16762578 0.32764283 0.45194837 -0.15566504 -0.26665762
0.10804212 0.12940295 0.25087 0.26509994 -0.080405794 0.12228804 -0.11092502 0.109026186
-0.16023137 0.33712313 0.03433046 -0.26721054 0.093234584 -0.01439962 0.018596822 0.060705114
-0.0755107 -0.38844737 -0.120757036 -0.006695095 -0.10668563 0.046857588 -0.29823843 0.16114397
-0.062781304 -0.05945214 0.021057045 0.5497061 -0.114966914 -0.30956152 0.13559961 -0.044230018
0.106957406 0.3385824 -0.6404645 -0.12274308 0.016670125 0.09159042 -0.28012615 -0.015875593
0.31379247 0.07618735 0.22837773 0.06799926 -0.26040348 0.026099112 -0.08614517 0.05199792
-0.10432381 0.04631909 -0.41099396 -0.6166101 -0.001579943 -0.22516364 0.34893444 -0.13260794
0.13588731 -0.5693151 -0.04140099 -0.18705715 -0.012822704 -0.3403981 -0.25385332 -0.10403367
0.11290274 -0.13325548 -0.05501154 0.25338027 0.23823746 -0.19983493 0.23945732 -0.018008936
0.0333241 0.50833386 -0.56843716 0.17699364 0.23077391 -0.07779974 0.07956 0.3188142
-0.012282501 0.08366587 0.2299113 0.2646092 -0.35979238 0.04561068 0.009675795 -0.023056896
00000000: c87e ab3e e5ca 953e 2cf8 12bf cd2a 993c
00000010: 182e 8e3e caa5 793e 36a9 22be 82a2 f73b
00000020: 7acd e73d a4f8 293d f076 4f3e a97d 2f3d
00000030: e576 96bd c3b9 c33d dd0a 233e 362a 293e
00000040: 23b7 9ebd 7396 2a3e f1ac 043e 8e1e e5bd
00000050: 5298 d03d 353b 9bbe 6cd7 6d3d 3f60 adbc
00000060: aea9 50bd 3e04 10be 1cb6 8bbe eb03 40be
00000070: a0ca 02be ffa8 eabb 4a22 d3be 64bc 343e
00000080: 632e 503e 24db c0bb 4b6d 403e d0d8 ec3e
00000090: 2173 9a3c 818e 98bd 9054 1b3e 5c5b 633d
000000a0: 1134 39bd ee9d 573e 15dd eebe 8dde 183e
000000b0: 1e11 8d3e 167c 6f3e 5e5e 4b3d 8b9b 8e3d
000000c0: 9f22 bb3d 304e 873d 332c af3e b7cb 203e
000000d0: 2607 aabe 203d 203d 55d7 f63d 8921 9a3d
000000e0: 0105 a1bc 0e1a 953e ffbe bebd c6dc b9be
000000f0: c3fa 17be bf7b 23bd f065 653d e62b 053e
00000100: 1199 113d 66b5 48bd 4832 32be 9264 5fbe
00000110: f268 d6bd d7e4 7ebe 184d 38be e9eb b83e
00000120: e59c ec3d 80ad e6bb 4710 f0bd 4aff d23e
00000130: 1fa8 ccba 281d dcbd d8cd 4c3e 2d84 21bc
00000140: 4646 b73e e35a e43d caff 94be 1ac1 883e
00000150: 5a48 bf3e 4a84 aa3e 7004 4fbe 6a4c 85be
00000160: 2b8d 933c 53a5 543d ed5b 6e3e 77df 493e
00000170: ec7e 9ebc 3d5d bf3c 4234 273e b22f 223e
00000180: e3c9 9bbd 0a21 5d3e 9bcf da3d 87b9 473e
00000190: 2f4b 1abd 24bb e8bd 6076 523e b840 763d
000001a0: f5aa 903c d3ae 59bc 2b48 a8be ded0 89be
000001b0: 928b 52bd 0b9a 2c3d 7026 a9be b423 793e
000001c0: 6226 8e3e f4b2 f0bd d4ae 2d3e 6309 8c3e
000001d0: 90e7 db3d aae6 dabe c4a5 ae3d 206e 2e3e
000001e0: 201a 953e 7cf1 523e a67e 5ebe c04a 803e
000001f0: 36f7 973e dbfd d43d 7e3b 15be 6976 f33d
00000200: 7bff 3e3e 08b5 153e d860 b13d 44cc 713e
00000210: 7833 073e 4a7a 8c3e 8ee8 b5be 4da9 033d
00000220: 3166 69bd 8af1 ac3e e5ac 42be 71e4 08bf
00000230: b3a0 373e bf92 95be 3c67 bfbd 3eb6 32be
00000240: 5465 d73c 79a6 a8bd 078b c0be e11d 993c
00000250: 0310 24bd dfe8 edbd 3bac 77be a2c6 a23e
00000260: 8fbf 243e b724 10bd 6373 ba3e 0098 0f3f
00000270: f4dc 9abd 544b f53d 19ec 7e3e 267f 6e3e
00000280: 52ad 083d 464f 963e f425 9fbe 18a6 2b3e
00000290: cdc0 a73e c765 e73e a866 1fbe 5987 88be
000002a0: 3045 dd3d 3582 043e 0872 803e 2ebb 873e
000002b0: cbab a4bd 2772 fa3d a82c e3bd 1f49 df3d
000002c0: b113 24be 679b ac3e 199e 0c3d d2cf 88be
000002d0: c6f1 be3d 62ec 6bbc 5d58 983c eda5 783d
000002e0: 5ba5 9abd 93e2 c6be 774f f7bd 8762 dbbb
000002f0: ff7d dabd beed 3f3d b5b2 98be ed02 253e
00000300: 7c93 80bd 1684 73bd d37f ac3c 8ab9 0c3f
00000310: c673 ebbd d97e 9ebe a0da 0a3e 892a 35bd
00000320: 7c0c db3d ac5a ad3e 7bf5 23bf b960 fbbd
00000330: c98f 883c c293 bb3d b26c 8fbe 880d 82bc
00000340: 68a9 a03e 1d08 9c3d dadb 693e 3243 8b3d
00000350: 9b53 85be cecd d53c e16c b0bd c5fb 543d
00000360: b9a7 d5bd 16b9 3d3d cd6d d2be 29da 1dbf
00000370: 1716 cfba 4c91 66be 89a7 b23e 60ca 07be
00000380: 0b26 0b3e a2be 11bf 1694 29bd e98b 3fbe
00000390: 5216 52bc a948 aebe 10f9 81be 9b0f d5bd
000003a0: 8d39 e73d 2074 08be c853 61bd 0fbb 813e
000003b0: 85f4 733e 87a1 4cbe 4d34 753e 7a87 93bc
000003c0: da7e 083d 2b22 023f 1985 11bf d23d 353e
000003d0: ff4f 6c3e 7855 9fbd 5af0 a23d 9d3b a33e
000003e0: 8b3c 49bc 0359 ab3d de6d 6b3e db7a 873e
000003f0: b536 b8be 44d2 3a3d 3a87 1e3c d1e1 bcbc

model/output/b f4 [9]
-0.1962117 0.006046259 0.020607973 -0.05011638 -0.019200094 -0.04527832 -0.054688986 0.004465351
0.0017466905
00000000: b8eb 48be b21f c63b 0dd2 a83c d546 4dbd
00000010: 8449 9dbc c275 39bd 8f01 60bd 1452 923b
00000020: 35f1 e43a
