python/results/2017_12_22_10_38_44/agent200/target_model.npz (npz, 14901 bytes, 6 tensors)

model/hidden_layers/0/W f4 [40, 40]
00000000: 1849 31be 39cd 82be 6242 c33d c1f7 69be
00000010: 9da5 573d ab15 ea3d ba76 433d 91e2 653d
00000020: 91af c93d ab57 2c3d efa3 85be 3c33 a53d
00000030: c8d6 3b3e 4b12 1bbe 54ff 913e 443f 43bd
00000040: 6108 0ebc 401f ee3d f1e1 7d3e 415b 833d
00000050: 05bc bbbe e2c4 bbbe de0d a4be 8143 23be
00000060: a25c 673e bf4b f1bb 1e43 b43c 0574 a33e
00000070: 63aa 6c3d 1089 63bd 96bc 37be ff8f 88bd
00000080: f0b1 8d3d 35dd 31bd 58b0 a73e 0413 b83c
00000090: 5cdd 40be 7455 59be d843 a13e df99 8a3d
000000a0: 1d49 74bd 7568 413f 1c53 023e ff4b 9cbe
000000b0: fee5 a13e 105f 5cbc 2b2c 9b3e 2065 593d
000000c0: 8887 e3bd 3636 5e3a 880a d2bb fdfb a4bd
000000d0: f2f6 1bbc e1ac b5be bd23 5d3e 0124 57be
000000e0: ad13 463d dc6c 32be 602e 4a3d f14d 12be
000000f0: 682b 693e 9772 aa3e 4d76 bc3e 1a31 ab3e
00000100: 8cf1 a63e fd33 833e b080 fb3e b348 a43e
00000110: 8675 d33e 4829 ee3d d74f 743e 13ef 26bd
00000120: d35b 083d e319 933d 0199 c63e 72cd 3b3d
00000130: 3856 8b3e 4ab7 fc3d 9c41 603d 7dc8 123e
00000140: b824 0dbd ae97 b73d 1015 e9bd f4cb 9a3e
00000150: cb19 a63d b0b2 9f3c c7c4 aabd 7fc4 863d
00000160: 882b 963d a1d6 8a3c fac0 403d 8302 0fbd
00000170: e1a5 a63e 67f2 c7bc f686 9a3d ece4 a4bd
00000180: b26a 99be 1b03 96be 0252 1ebe 7818 87be
00000190: ad4c ea3d be61 cdbd 5fb1 0d3e 81bf f53c
000001a0: dbb3 3ebe 60c4 bbbe 2dbd 213b 7d4f e03e
000001b0: c29a 1d3e bb31 adbd 6a31 813d 6cb0 1cbe
000001c0: ca1b 423e e0f5 18be aa50 4e3d 7942 f7bb
000001d0: 9978 d23d e806 1ebe e2f9 08bb 2dcd e63c
000001e0: a266 863e ca6d b13d f364 12be 0b6c b1be
000001f0: 19ba 303c fde3 3d3e a856 9fbd 9ba7 203e
00000200: 6559 e73c 8021 20be ed43 1e3e affe b73d
00000210: 2553 07be 0bea e9be 3775 c9bd d550 b5be
00000220: 2fea bfbe b458 96be 69e8 f9bb 5414 d7bd
00000230: e8f0 00be dc59 b7be 4f19 f1bd e716 81be
00000240: e23a c7bc 61d3 c3be 81b8 9a3c 4fcc aebc
00000250: f0bb 22be 034e 633d 6148 f8bd b130 083e
00000260: 7571 813d 1ea7 4d3d b6a8 9e3c d990 aebe
00000270: 8b72 c2bd 3c15 923d f0a0 833e 5f65 53be
00000280: 4660 52bd 2ca0 d1bd 8cea 083e 65c2 c03d
00000290: 2772 9dbe 78c1 503e 10a0 8e3e f2a9 6dbe
000002a0: 3c0d e53d 293e 11bd 24aa 8f3d efac ef3d
000002b0: ba0a 9ebc bbe8 633e ab98 c9bb ff2b 8abd
000002c0: cd64 08bc e1de a33e 0ce2 b0bd 8114 fa3d
000002d0: 94fb 383d fe27 0ebc 12b3 fe3d efb1 be3e
000002e0: 0c8d 62bd 725b a7be 3e8f 243e 3bc9 4e3d
000002f0: efb1 35be abe5 c9bc da7c f3bd 92df 5a3e
00000300: 4886 f13d 792d f43e b3d5 4fbe 64a7 64bd
00000310: 4eed 293d a719 7c3d 0a8a 9c3d eea3 3f3e
00000320: f91f 2ebd 8cc7 183e c198 753d 4d4d 6d3d
00000330: e223 ba3d c830 8fbd 19f4 fdbd 2989 3abe
00000340: 7b19 bd3d 9f19 d83d d29f 303e 7fea 12be
00000350: 6ddb 49bd 9a7e 8dbd 9744 08be 031c 3dbe
00000360: f2c0 023e 070a dabd 24b8 b1bd fe9c 91be
00000370: 427e 653e 592f da3e a96f 4b3e 0f9e ae3e
00000380: fc29 06bd fcf6 d8bd 0f27 ae3d 3ab8 b4bd
00000390: 4678 60bb 2a64 323e 41d1 853e 3b49 f13d
000003a0: 9caa 813e 8107 6a3e eb7f e03d edb2 d9bd
000003b0: 9c1b 843c ddcb bcbd 8ceb 85bd 068a 0d3d
000003c0: 8fc5 433d 0825 29be af77 f4bd 011d 983e
000003d0: 2ef4 d7bc 18fb cf3b 2b2b fb3c cf9e 44bc
000003e0: 23ff bd3d 3c1b 923e 0ab7 aebd 7fd7 4abd
000003f0: 592f 41be d1d5 e2bd cc8b 33be e776 82bd
-0.1731304 -0.25547197 0.09534146 -0.22848417 0.052648176 0.11429914 0.04772065 0.056124274
0.0984794 0.042075794 -0.26101634 0.08066413 0.18343651 -0.15143697 0.28515112 -0.047667757
-0.00866899 0.11627054 0.24793221 0.0641389 -0.36666885 -0.36673647 -0.3204183 -0.1594372
0.2259393 -0.007363766 0.02200466 0.31924453 0.05777968 -0.055550635 -0.17943034 -0.0666809
0.069187045 -0.04342385 0.32751727 0.022470005 -0.18834442 -0.21224004 0.31497073 0.0676763
-0.05964004 0.75550014 0.12727016 -0.3052673 0.31620783 -0.013450399 0.30307135 0.053074956
-0.11109835 0.0008476706 -0.006409947 -0.080558755 -0.009519326 -0.3548346 0.21595664 -0.21009828
0.048358608 -0.17424339 0.049360633 -0.14287545 0.22770464 0.3329055 0.36809006 0.334359
0.3260616 0.256256 0.49121618 0.32086715 0.413006 0.116289675 0.23858581 -0.040755343
0.033290695 0.07182672 0.38788608 0.045850225 0.27214217 0.12339647 0.05475007 0.14334293
-0.034458846 0.089644775 -0.113809705 0.3023373 0.08110388 0.019494385 -0.083383135 0.065804474
0.07332522 0.016948046 0.047059037 -0.034914505 0.3254843 -0.024407579 0.07545273 -0.08051476
-0.29964215 -0.29299244 -0.15460971 -0.26385856 0.11440406 -0.100284085 0.13837193 0.029998543
-0.18623297 -0.3667326 0.0024679408 0.43810645 0.15391067 -0.08456751 0.06308253 -0.15301675
0.18955913 -0.14937544 0.050369896 -0.007545766 0.102769084 -0.15432322 -0.0020900895 0.028174007
0.26250178 0.08663519 -0.14296322 -0.34652743 0.010786557 0.18544002 -0.077802 0.15688936
0.028240869 -0.15637779 0.15455599 0.08984124 -0.13215311 -0.45686373 -0.0983681 -0.35413232
-0.37483355 -0.2936455 -0.0076265824 -0.10501924 -0.12591898 -0.35810745 -0.11772405 -0.25212786
-0.02432007 -0.38247207 0.018886806 -0.021337656 -0.15892005 0.05549432 -0.1212318 0.13299824
0.06320468 0.050208203 0.019367557 -0.34094885 -0.094945036 0.071329564 0.25708723 -0.20644139
-0.051361345 -0.102356285 0.13370723 0.09412078 -0.30751154 0.20386302 0.27856493 -0.2320936
0.11184165 -0.03545967 0.070148736 0.11702906 -0.019292224 0.22256748 -0.0061522326 -0.06746673
-0.008324814 0.3200598 -0.08636865 0.12210942 0.0451618 -0.008676527 0.12436499 0.37245128
-0.055310294 -0.32686955 0.16070268 0.050484877 -0.17743658 -0.024645647 -0.11889048 0.21374348
0.1179319 0.47690943 -0.20296364 -0.0558237 0.041486077 0.0615479 0.07643516 0.18714878
-0.04251096 0.14919871 0.05996013 0.057935048 0.09088875 -0.06991726 -0.124000736 -0.18216385
0.09233376 0.10551762 0.17248467 -0.14347266 -0.049281526 -0.06908913 -0.13307415 -0.18467717
0.12768915 -0.10646444 -0.086777 -0.28440088 0.22411445 0.42614248 0.19866814 0.34104964
-0.032754883 -0.105939835 0.085035436 -0.08824201 -0.0034251376 0.17421022 0.2613621 0.11781546
0.25325477 0.22854425 0.109618984 -0.106298305 0.016126446 -0.09218571 -0.065390676 0.034555458
0.04779583 -0.16518033 -0.1193689 0.29709628 -0.026361551 0.0063470714 0.030660233 -0.012000754
0.09277179 0.28536403 -0.08531006 -0.04952192 -0.18865718 -0.110759385 -0.17533797 -0.06370335

model/hidden_layers/0/b f4 [40]
00000000: 9e64 f23d c7a9 523d 6300 523c e674 04be
00000010: 36cd 573e dd50 7d3e c095 17be 5452 0d3e
00000020: 2992 adbd 18a7 e63d 1830 17bd fde2 88bd
00000030: 8a99 d6bd b78f 853d fdc0 dabc b815 153d
00000040: 9cb8 59be 3226 3ebe e217 123e fd1f ee3c
00000050: 0dd9 c73c 94c3 f33d f764 00be d967 a23d
00000060: dd87 693c 1f33 48be c94a 2abd 7142 a6bc
00000070: c206 443d b6e7 88bd b4fa d83c 1e3c 033e
00000080: 25e2 03be e516 583e 67c0 1fbe 15d4 1b3c
00000090: 9698 04be 1d91 08be cf9b 393d a1d9 ca3d
0.118355975 0.051431444 0.012817475 -0.12935218 0.21074376 0.24737878 -0.14803219 0.13800937
-0.084751435 0.11262339 -0.0369111 -0.066839196 -0.10478504 0.06521552 -0.026703352 0.036397666
-0.21261829 -0.18569258 0.14266923 0.029067988 0.02439549 0.11902538 -0.12538515 0.079299636
0.014253584 -0.19550751 -0.041575227 -0.020295354 0.047858007 -0.0668482 0.026486732 0.12815902
-0.12879236 0.21102484 -0.1560074 0.0095110135 -0.12948832 -0.13336606 0.045314606 0.09904791

model/hidden_layers/1/W f4 [40, 40]
00000000: 3823 8ebc 0bfa 9b3e 300e b1be f385 643e
00000010: dc46 4b3e e783 1c3e b197 023e 1541 cf3b
00000020: 4e79 62be 7fbb a53d 5e03 203c 95d2 bcbd
00000030: 93ae 923e 004e f83c a4a4 4fbd ee25 f9bd
00000040: 8621 2f3d dc43 8c3e baa0 803d ea7a ecbc
00000050: 8cd0 a0be bdf2 05bd 79bc 8dbe 868e 013f
00000060: e21a fc3e 1a5c cabb 441d c1bc e529 f5be
00000070: 957d 3c3d c7c7 783d b495 8a3d 30b2 363e
00000080: b563 c63e a485 e33c d4c8 013e da10 9fbe
00000090: c5f6 9d3d 74b3 72bd 2c6e 9c3e 5fa5 3fbe
000000a0: 72bc 25bc 2ab0 d43d ed17 26bd 5035 4a3d
000000b0: 0607 07be a0c7 07bf f8ce 0d3e ca9c e4ba
000000c0: 6a8c 973e 8a85 afbe 4c0d 7c3b d186 47be
000000d0: d6c6 2a3e c16a 4d3d 1134 03be a5a3 e7bd
000000e0: e8e6 aa3d 40eb e93d 7829 2bbe 58e3 7d3c
000000f0: c519 1cbe 31f9 8ebb a1db 063e ff73 f8bd
00000100: a3f2 523e d436 b73d 5c56 883e 1812 4bbe
00000110: 3926 4ebe d18d c13e 9b1e 6fbe e3f2 42bd
00000120: 3082 8f3e a312 acbe 448c 9439 131d 063e
00000130: a0b8 933e 7aed 86bc 9361 fd3d aa0c 9fbe
00000140: fa52 083e 6705 2ebe 3987 19be 27a1 bd3d
00000150: 8ab1 8bbe 0c01 90bc df2c 4abe b84e bc3e
00000160: b796 9a3e 7d23 b3bd b089 293e ccaf 843d
00000170: d74b 9bbe 88b0 813c e7d6 903c 9d4b 82bd
00000180: 3dee 3fbe 4d8f 11bf 79b8 f43c 7a40 14be
00000190: d4d4 f33d 8e36 133f 525b 88be e12d b93c
000001a0: 9b7d 0cbe 31a4 a1bd da1c 073e 25d4 f03e
000001b0: aa6e eebd bd3a 6d3d e5c4 98be f656 26be
000001c0: 7519 42bf 2ab1 16bc 8883 a33e bb19 9ebe
000001d0: 0c0a 32bf 55a8 e7be 24cc ff3c fa4a 1a3f
000001e0: f1f0 553e d254 eb3d 894f 96ba 6842 173e
000001f0: d611 9fbe bae2 17be adbf a13e 2d49 b73d
00000200: bb4a 273e acc2 98be b200 1fbe b008 b4bd
00000210: 802d 823d 496e a83c 45c1 09bd 8731 853c
00000220: c819 d23c 4b88 643c c361 e0bd ff19 8e3d
00000230: 1db8 28be 93df a5bd 4165 08bd 1c6f ccbe
00000240: 0f4f 82be d24f 0d3e 21f4 783e 376c d13d
00000250: 0960 b93d 1478 973e 7d71 463d f996 d1be
00000260: 5d82 e9bc cb3a afbd ff05 943d 2e65 3e3e
00000270: 7374 173e 3f4e 0f3c 450a f33d fad8 35bd
00000280: 803a 8abc fe5d 163f f571 643e e182 d33c
00000290: 0220 07be 49ad df3e 7ce6 b9bd 79d2 08bc
000002a0: 96ac 0c3e 8a8c 5d3c bb09 1abe bb55 ec3d
000002b0: 5d86 923e 0b92 813c ea20 863d 2314 03be
000002c0: 2377 04bf 3b66 203d e124 a63e baff 7ebe
000002d0: 34f6 babe 3347 01be d902 b5be 8b51 46be
000002e0: 8551 b33e 1573 f63d 1257 1ebf 7a0b 06bf
000002f0: 625b 0ebe d63d febd 96e1 353e 72db 27bd
00000300: fca9 4a3e 2740 20be 3340 6bbe b622 c1bd
00000310: 97eb 113f 3c7f 9ebd 77b8 703e caea 62be
00000320: 7d92 0fbe 130d 58be 6000 ce3d 1a61 dc3c
00000330: 24d2 503e 5bd1 93be ea43 8cb7 07f6 88be
00000340: 4b37 b33e 83c4 e3bd 7c64 d8bd a196 cfbd
00000350: 4b17 f53c fb3f 33bd d951 cebd 9e89 c13c
00000360: 1110 763e c0bc 893e 25d8 7abe f842 633d
00000370: 2c7f eabd f0fa db3d ffe2 1ebe f78e 9e3d
00000380: 924e 933d 72c0 0e3e d538 3a3e c2cf 4e3d
00000390: 174d 66be ba2f fdbd ffa0 223d 9fa4 6fbe
000003a0: a6dd 813d fe86 8dbe 5b73 163e b250 1cbe
000003b0: 0bac 193d 1796 7e3e 18ae b43d d685 59be
000003c0: 5a3e ad3d fda8 11be 4714 083e dde5 20be
000003d0: f666 d23e b490 953d d101 813d d401 0c3e
000003e0: 50e2 7b3e 7776 033e 61bd 99bd f9b1 89be
000003f0: 24d8 88bd e332 983e 962b 09be c587 163e
-0.017350778 0.30464205 -0.34581137 0.22316723 0.1985125 0.15284692 0.12753178 0.006324897
-0.22116587 0.08092403 0.009766428 -0.09219853 0.28648815 0.03031063 -0.050694123 -0.12165438
0.04275658 0.27395523 0.06280656 -0.028867204 -0.3140911 -0.032702196 -0.27682856 0.506081
0.4923926 -0.00617553 -0.023573525 -0.47883525 0.0460182 0.060737398 0.06766835 0.1784141
0.38747945 0.027773686 0.12674266 -0.31067544 0.07713083 -0.05925317 0.30552804 -0.18715428
-0.01011573 0.10385163 -0.04055016 0.04936725 -0.13186273 -0.5303898 0.13848484 -0.0017441746
0.29599315 -0.3428157 0.0038460074 -0.19485022 0.16677412 0.050150637 -0.1281283 -0.113105096
0.08344823 0.114218235 -0.16715038 0.0154960975 -0.15244205 -0.004363202 0.1316972 -0.121314995
0.20600371 0.089460045 0.26628387 -0.19831121 -0.20131768 0.3780351 -0.23351519 -0.047594916
0.28029013 -0.3360797 0.00028333266 0.13097028 0.28851795 -0.01647066 0.123721264 -0.3106435
0.13312903 -0.16994248 -0.1499299 0.09259253 -0.2728389 -0.017578624 -0.1974368 0.36778808
0.3019311 -0.08747003 0.1655643 0.06478843 -0.303313 0.015831247 0.017680598 -0.06362078
-0.18743224 -0.56859285 0.02987312 -0.14477721 0.11905828 0.5750512 -0.26632172 0.022604885
-0.1371979 -0.07892645 0.131946 0.47036853 -0.11642201 0.057917345 -0.2983772 -0.1624411
-0.75820094 -0.009197513 0.31936288 -0.30879006 -0.6954658 -0.45245615 0.031225272 0.60270655
0.20892693 0.114907876 -0.0011467795 0.14771426 -0.31068295 -0.14832583 0.3159155 0.08949504
0.16337101 -0.29836023 -0.15527609 -0.087907195 0.06356335 0.0205604 -0.03363158 0.016258968
0.02564706 0.01394851 -0.109561466 0.06938552 -0.16476484 -0.08099284 -0.03329969 -0.3992852
-0.25450942 0.1379998 0.24311878 0.102257185 0.090515204 0.295838 0.048448075 -0.40935495
-0.028504545 -0.08556136 0.07227706 0.18593284 0.14790516 0.008746683 0.11867193 -0.044396378
-0.016873598 0.5873717 0.22309096 0.025819244 -0.13195804 0.43686894 -0.090771645 -0.008350962
0.13737711 0.013522277 -0.15042774 0.11539789 0.28618136 0.015816709 0.065492466 -0.1280065
-0.5174429 0.039159995 0.3245001 -0.2490224 -0.36515963 -0.12624817 -0.35353735 -0.19367044
0.35023132 0.12033669 -0.6185161 -0.5236126 -0.13902047 -0.12414138 0.17761835 -0.040980764
0.19791406 -0.15649472 -0.22973709 -0.09430449 0.57000107 -0.07739112 0.23507868 -0.22159877
-0.14020725 -0.21098737 0.10058665 0.02690177 0.20392662 -0.28870663 -1.6720925e-05 -0.26750204
0.35003123 -0.11121466 -0.10566041 -0.10136152 0.029918334 -0.04376219 -0.10074205 0.023625191
0.24029566 0.26901817 -0.24496515 0.05548379 -0.11450037 0.10741222 -0.1551628 0.07742112
0.071927205 0.139406 0.18185742 0.050491102 -0.22490345 -0.12362619 0.03970432 -0.23402642
0.06341104 -0.27642053 0.14692442 -0.15265158 0.03751759 0.24861942 0.08822268 -0.2124246
0.08459158 -0.1422462 0.13288985 -0.15712686 0.41094178 0.073029906 0.062991746 0.13672572
0.2459805 0.1283816 -0.07506824 -0.26893595 -0.066818506 0.29726323 -0.13395533 0.1470023

model/hidden_layers/1/b f4 [40]
00000000: 97ad 603d 7c6e f8bd 7f6b f83d e870 bfbd
00000010: fd51 843d d2d3 9abd 9dea b03d 2476 37bc
00000020: 4a51 aebd 79ad 14bc 3e0e 88bd 280c 9bbd
00000030: 415c e03d 6c42 7fbd b10c fe3c 7a3d f1bd
00000040: 68ba 993d ea9a 01bd 377a 32bd c468 e73b
00000050: c6b6 a3bc 55b6 973c dc4a a63d e5c4 143b
00000060: 5d31 bfbc 8125 24bc 4a5b b5ba 9e3a 7d3d
00000070: 1387 5a3d d8fb 7d3d c7d5 4f3c 0ad7 bdbc
00000080: 0f11 3a3b 63a3 373d ac7e 1f3c 48ff 70bd
00000090: 3a10 c0bd b68f faba 2f1d 81bd ba7e 0dbc
0.05485305 -0.12130448 0.12129878 -0.09347707 0.064609505 -0.07559933 0.08638499 -0.0111976005
-0.085115984 -0.009074562 -0.066433415 -0.07570678 0.10955096 -0.062319204 0.031011911 -0.11779304
0.07506257 -0.03164188 -0.043573584 0.0070620496 -0.019984614 0.01851956 0.08119747 0.0022700366
-0.023338968 -0.010018707 -0.001383641 0.06182348 0.053351473 0.062007755 0.012685246 -0.023173828
0.0028391515 0.044833552 0.009734791 -0.058837205 -0.09378095 -0.0019116316 -0.063043945 -0.008636171

model/output/W f4 [9, 40]
00000000: 896a ab3e e4bd 953e 73ef 12bf 42de 993c
00000010: 4c1c 8e3e c2a8 793e 70c8 22be af68 fa3b
00000020: 14ea e73d 8842 2a3d 9e59 4f3e c5b3 2f3d
00000030: 246d 96bd f0a9 c33d 39ef 223e 4636 293e
00000040: 27a4 9ebd 3676 2a3e e6c7 043e fed5 e4bd
00000050: e4a6 d03d cc3a 9bbe 5764 6d3d ab05 adbc
00000060: f235 51bd 3ce2 0fbe 0aa3 8bbe 3f15 40be
00000070: 02c2 02be dde7 eabb ae10 d3be 9c95 343e
00000080: 240c 503e accd c2bb 1d52 403e 6fc5 ec3e
00000090: 0249 9b3c 704d 98bd f452 1b3e 8f8b 633d
000000a0: 210a 39bd e0a5 573e a7e9 eebe c5d6 183e
000000b0: 8417 8d3e 2070 6f3e 9581 4b3d 5c88 8e3d
000000c0: 3a14 bb3d a639 873d 2626 af3e 31c1 203e
000000d0: ab02 aabe 9446 203d d0e3 f63d bb0c 9a3d
000000e0: c41d a1bc 7821 953e 03d1 bebd 30df b9be
000000f0: 6903 18be e46a 23bd e085 653d 8b25 053e
00000100: 7dcc 113d a0d5 48bd cb42 32be db54 5fbe
00000110: bf70 d6bd 0ce5 7ebe ad5e 38be a4f1 b83e
00000120: 82b3 ec3d 00c5 e4bb 6e02 f0bd 5f02 d33e
00000130: 79de d4ba 083a dcbd 3ec7 4c3e 77ec 21bc
00000140: 953c b73e 4238 e43d 79fc 94be 38c7 883e
00000150: f43b bf3e 7b7f aa3e 7511 4fbe 0c46 85be
00000160: 5afa 933c 2ff7 543d 7356 6e3e 70cc 493e
00000170: 8278 9ebc 1031 bf3c 3428 273e 4237 223e
00000180: 4eb4 9bbd d316 5d3e 97c9 da3d 91ce 473e
00000190: 7c3c 1abd 039f e8bd 5b68 523e d27b 763d
000001a0: 2a2f 903c bc8c 58bc 7640 a8be 83d1 89be
000001b0: 6574 52bd 2fa7 2c3d 6e22 a9be f410 793e
000001c0: 6d1e 8e3e 71d2 f0bd 90a6 2d3e ee00 8c3e
000001d0: 6911 dc3d 24e0 dabe f18b ae3d a272 2e3e
000001e0: 23f2 943e 90c5 523e 8820 5ebe 5a66 803e
000001f0: 9dcb 973e dd1b d53d f381 15be aaf2 f33d
00000200: 7048 3f3e 12f1 153e bf2e b13d 76f7 713e
00000210: 5c23 073e e96d 8c3e 190d b6be ce54 043d
00000220: 0a27 69bd 28c4 ac3e a05c 42be 64cf 08bf
00000230: 6fb5 373e e594 95be c603 c0bd c690 32be
00000240: 8aec d43c 78f9 a7bd 765e c0be f4b5 973c
00000250: 79cd 23bd b9c9 edbd 3b50 77be 049c a23e
00000260: 566a 243e 9161 11bd 875a ba3e a580 0f3f
00000270: 2e3b 9abd defb f53d 6e01 7f3e 3aad 6e3e
00000280: 26ab 083d 1e52 963e e21e 9fbe 53b1 2b3e
00000290: 54c1 a73e 016e e73e 8e62 1fbe 2686 88be
000002a0: a357 dd3d cf82 043e e47a 803e e2bb 873e
000002b0: c3c2 a4bd 6b64 fa3d aa25 e3bd 1a63 df3d
000002c0: 2316 24be 7a97 ac3e f68e 0c3d 04d0 88be
000002d0: 78f9 be3d b860 6cbc 7837 983c 0b9b 783d
000002e0: 86aa 9abd 83e1 c6be 383e f7bd 88e9 dbbb
000002f0: 7477 dabd c6fc 3f3d 70ad 98be 4afd 243e
00000300: 739d 80bd e4c3 73bd 1eb5 ac3c 96b7 0c3f
00000310: c667 ebbd 217b 9ebe e3e5 0a3e 1a2b 35bd
00000320: 44b5 da3d 4959 ad3e dde8 23bf cd13 fbbd
00000330: ee21 873c 7bc9 bb3d 0f85 8fbe 7042 81bc
00000340: e9bc a03e a71f 9c3d 5dd6 693e feab 8b3d
00000350: f856 85be 292d d63c 38d0 b0bd 4044 553d
00000360: 5bbf d5bd bde5 3c3d 414f d2be 36ce 1dbf
00000370: 00bd caba 11aa 66be b397 b23e a2b9 07be
00000380: 59f3 0a3e b8b2 11bf d7e3 28bd 3eb3 3fbe
00000390: 707b 52bc ec52 aebe 85e4 81be f761 d5bd
000003a0: 3ef1 e63d 7984 08be eec6 61bd afa5 813e
000003b0: f51e 743e 9770 4cbe cb51 753e 3a78 92bc
000003c0: 1d98 083d 4222 023f aa88 11bf 0f31 353e
000003d0: 2057 6c3e 8784 9fbd f414 a33d fc31 a33e
000003e0: 52bd 49bc af3b ab3d a550 6b3e 506c 873e
000003f0: dd31 b8be e2d3 3a3d 183e 1f3c 2c3f bdbc
0.33479717 0.29246438 -0.5739662 0.018782739 0.27755964 0.24380782 -0.15896773 0.007641874
0.11323944 0.041567355 0.2024903 0.04289605 -0.07345036 0.095538974 0.15911569 0.1652461
-0.07746153 0.16646656 0.1296688 -0.11173628 0.10188082 -0.30318296 0.05795702 -0.021120867
-0.051076837 -0.14051145 -0.27272826 -0.18758105 -0.1276932 -0.0071687535 -0.41223663 0.17635196
0.20317131 -0.005944928 0.18781324 0.4624438 0.018955711 -0.07436645 0.15168363 0.055553015
-0.045175675 0.2105937 -0.46662638 0.14925678 0.27557003 0.23382616 0.049684126 0.06959602
0.09134717 0.066027924 0.34208792 0.15698697 -0.3320516 0.03912981 0.120551705 0.075219594
-0.019667514 0.29127097 -0.093172096 -0.3630309 -0.14845051 -0.03989686 0.056035876 0.13002603
0.035595406 -0.049031854 -0.17408292 -0.21809714 -0.10470723 -0.24892062 -0.18004866 0.36121857
0.11557676 -0.006981492 -0.117192134 0.41212747 -0.0016240618 -0.10753256 0.1999788 -0.009883038
0.35788408 0.11143543 -0.2909887 0.26714492 0.37350428 0.33300385 -0.20221503 -0.26030004
0.018063713 0.051993545 0.23275165 0.19706893 -0.019344572 0.023338825 0.1632393 0.15841392
-0.0760275 0.21590738 0.106829815 0.19512393 -0.03765534 -0.11358454 0.20547621 0.060176678
0.017600615 -0.013217147 -0.3286168 -0.26917657 -0.051380534 0.042151626 -0.3303408 0.24322873
0.27757588 -0.117588885 0.1695807 0.2734446 0.10745508 -0.4274913 0.085227855 0.17035916
0.29090986 0.20583177 -0.21692097 0.25078088 0.29647532 0.10405705 -0.14600353 0.11911519
0.18679976 0.14642742 0.08651494 0.23629555 0.13197082 0.27427605 -0.35556868 0.03230744
-0.056921996 0.33743405 -0.18980646 -0.5344145 0.17940305 -0.2921516 -0.0937572 -0.17438039
0.025991697 -0.08201879 -0.37572068 0.01851938 -0.039990876 -0.11610741 -0.24151699 0.31759655
0.16056189 -0.035493437 0.36397192 0.5605567 -0.07530819 0.120109305 0.24902889 0.23308268
0.033366345 0.29359525 -0.3107825 0.16766863 0.32764685 0.45201114 -0.1556494 -0.26664847
0.10807731 0.12940525 0.25093758 0.2651053 -0.0804496 0.122261845 -0.11091168 0.10907574
-0.1602407 0.33709317 0.034316026 -0.26721203 0.09324926 -0.014427356 0.018581137 0.060694735
-0.07552056 -0.38843927 -0.12072414 -0.0067111887 -0.10667315 0.046871923 -0.29819822 0.16112247
-0.06280031 -0.059512988 0.021082457 0.5496763 -0.114944026 -0.30953315 0.13564257 -0.044230558
0.10679105 0.33857182 -0.64027196 -0.12259636 0.016495671 0.09169289 -0.28031203 -0.01577875
0.31394127 0.07623225 0.2283568 0.06819914 -0.26042914 0.02614458 -0.086334646 0.05206704
-0.10436889 0.046117533 -0.4107609 -0.6164278 -0.0015467703 -0.22525813 0.34881362 -0.13254407
0.13569392 -0.5691333 -0.04123291 -0.18720719 -0.012846813 -0.3404764 -0.2536966 -0.10419076
0.11276482 -0.13331784 -0.055121355 0.2532172 0.23839934 -0.19964825 0.23956983 -0.017879594
0.03334819 0.50833523 -0.5684916 0.17694496 0.2308011 -0.077889495 0.07962981 0.31874073
-0.012313204 0.08360993 0.22979982 0.26449823 -0.35975543 0.045612223 0.009719394 -0.023101412

model/output/b f4 [9]
00000000: 7f0b 49be 381d c73b ec5d a83c 3274 4ebd
00000010: 3323 9dbc a23f 3abd 7db1 5fbd 8957 8a3b
00000020: e828 e93a
-0.19633292 0.006076481 0.020552598 -0.05040378 -0.019181823 -0.04547084 -0.054612625 0.004221861
0.001778868
