python/results/2017_12_22_10_38_44/agent400/model.npz (npz, 14889 bytes, 6 tensors)

model/hidden_layers/0/W f4 [40, 40]
-0.037563924 -0.19905996 0.1634979 -0.32789445 0.06954902 0.13284758 0.07718918 0.07373856
0.11354848 0.08787838 -0.23971468 0.1147892 0.21466814 -0.15229434 0.3345628 0.004344189
0.0041995305 0.12594314 0.2526953 0.10313803 -0.30645758 -0.34670645 -0.29274777 -0.19725089
0.18005517 -0.044452354 -0.0015076784 0.28289795 0.04270052 -0.076747805 -0.19373018 -0.08357665
0.060398757 -0.047835886 0.32191184 0.01696513 -0.17891492 -0.17720093 0.31081873 0.077139705
-0.04189795 0.83748424 0.32798287 -0.21013361 0.2549963 0.031265482 0.33905214 0.0886916
-0.104662135 -0.019481841 -0.031586975 -0.124035224 -0.049620442 -0.31702784 0.08237683 -0.32227707
-0.020636205 -0.1818018 0.06564305 -0.18003249 0.18745518 0.31163633 0.38630545 0.3953168
0.42249152 0.36636737 0.60242695 0.41597998 0.4961996 0.19210926 0.27853712 0.01874893
0.0730102 0.079911485 0.3864763 0.037873466 0.25846162 0.14916685 0.12240885 0.16744412
-0.032871824 0.06663124 -0.23438214 0.33802158 0.061353408 5.4566975e-05 -0.09996759 0.03863183
0.059724204 0.0097151315 0.01823413 -0.046255447 0.3096513 -0.058743328 0.07238962 -0.096244216
-0.3180855 -0.3055637 -0.17497526 -0.29876852 0.066799454 -0.13454795 0.1448527 0.031137617
-0.17155765 -0.35329345 -0.016274557 0.40877026 0.12680656 -0.08984711 0.07558915 -0.1539075
0.19191907 -0.14649507 0.04301566 -0.02775497 0.10141167 -0.15066724 0.008041236 0.01296621
0.12909696 0.061199978 -0.059456613 -0.26133955 -0.013561287 0.1911989 -0.05646035 0.19447006
0.052282583 -0.13867188 0.1782546 0.087621175 -0.13954702 -0.461256 -0.113218494 -0.33741623
-0.36603975 -0.31551698 -0.040663518 -0.14108434 -0.15148166 -0.38891113 -0.11258293 -0.19126354
-0.010588108 -0.39992025 0.048276834 0.02177491 -0.0756308 0.10724934 -0.11479168 0.15354112
0.078821816 0.06645803 0.04918482 -0.28151265 -0.08108531 0.07194678 0.20905615 -0.19628409
-0.07675336 -0.17501716 0.012436411 -0.0044775764 -0.26651 0.20357169 0.26216733 -0.2529996
0.08423125 -0.045997422 0.055128276 0.13350148 0.0016015031 0.23417823 0.030997036 -0.04193622
0.023448559 0.3627708 -0.036587156 0.18066636 0.08358615 0.0044737454 0.10668022 0.31802946
-0.07842592 -0.2998634 0.1479435 0.033492014 -0.21768817 -0.05393594 -0.116810955 0.20508137
0.113121144 0.4700273 -0.2196572 -0.08809943 0.051147573 0.09062038 0.14928736 0.2073383
-0.04347213 0.11243107 -0.26572326 -0.25476918 0.099356145 -0.13641766 -0.123962805 -0.2132957
0.06574942 0.16379662 0.17210512 -0.10175955 -0.008695337 -0.0734128 -0.07482546 -0.14214967
0.15028115 -0.044117596 -0.033264488 -0.22519253 0.2836311 0.45677298 0.22061627 0.25697383
-0.092352144 -0.10958108 0.05222429 -0.12463956 -0.021635605 0.17183895 0.29188803 0.12572315
0.26237532 0.2324928 0.093042016 -0.16826113 0.030996267 -0.017028255 0.040816758 0.06446865
0.03958916 -0.21807577 -0.111783035 0.7254532 -0.025968872 0.0007251459 0.018873375 -0.05252591
0.06025165 0.22819431 -0.09776507 -0.09099099 -0.23269668 -0.09695707 -0.23532097 -0.123476796
00000000: a1dc 19bd 60d6 4bbe fe6b 273e c8e1 a7be
00000010: b76f 8e3d 3209 083e 5c15 9e3d 3e04 973d
00000020: 1b8c e83d 95f9 b33d c477 75be 9a16 eb3d
00000030: f7d1 5b3e 0cf3 1bbe d14b ab3e b359 8e3b
00000040: 379c 893b 3df7 003e 4761 813e 083a d33d
00000050: 02e8 9cbe 8283 b1be 09e3 95be 23fc 49be
00000060: 6260 383e ac13 36bd 4b9d c5ba 00d8 903e
00000070: bee6 2e3d f42d 9dbd 3461 46be 3c2a abbd
00000080: b064 773d 90ef 43bd a1d1 a43e 75fa 8a3c
00000090: 7935 37be 2974 35be a223 9f3e 6cfb 9d3d
000000a0: 2f9d 2bbd 5e65 563f 5fed a73e 442d 57be
000000b0: e08e 823e 3c10 003d 3e98 ad3e f1a3 b53d
000000c0: 1a59 d6bd 6298 9fbc 5861 01bd 2e06 febd
000000d0: ce3e 4bbd 7951 a2be 2fb5 a83d 8001 a5be
000000e0: 420d a9bc 402a 3abe dd6f 863d 705a 38be
000000f0: 40f4 3f3e cc8e 9f3e d4c9 c53e f766 ca3e
00000100: cf50 d83e 8194 bb3e a738 1a3f 54fb d43e
00000110: e00d fe3e 4ab8 443e 6b9c 8e3e 5b97 993c
00000120: 5f86 953d a2a8 a33d 39e0 c53e 3521 1b3d
00000130: 1555 843e 32bf 183e 7eb1 fa3d 7976 2b3e
00000140: 9ba4 06bd f675 883d df01 70be 2a11 ad3e
00000150: b64d 7b3d d8de 6438 cfbb ccbd 693c 1e3d
00000160: 5ea1 743d 372c 1f3c be5f 953c 5a76 3dbd
00000170: 9d8a 9e3e d89c 70bd 0241 943d b01b c5bd
00000180: 1adc a2be d872 9cbe b72c 33be 30f8 98be
00000190: 27ce 883d f0c6 09be 4454 143e 5114 ff3c
000001a0: cfac 2fbe e1e2 b4be 3852 85bc 564a d13e
000001b0: 94d9 013e c301 b8bd 7cce 9a3d ed99 1dbe
000001c0: 6f86 443e ce02 16be 3031 303d 645e e3bc
000001d0: ecb0 cf3d 8348 1abe 63bf 033c 3a70 543c
000001e0: fe31 043e d4ac 7a3d c788 73bd 4cce 85be
000001f0: 2930 5ebc a5c9 433e f842 67bd 2923 473e
00000200: 4326 563d 0000 0ebe 6088 363e bb72 b33d
00000210: 6ae5 0ebe bf29 ecbe 19df e7bd d2c1 acbe
00000220: 9069 bbbe 718b a1be ca8e 26bd 6a78 10be
00000230: 021e 1bbe 5c1f c7be e191 e6bd 97da 43be
00000240: be79 2dbc 59c2 ccbe eebd 453d 4c61 b23c
00000250: 52e4 9abd 8ba5 db3d e617 ebbd e239 1d3e
00000260: 556d a13d 261b 883d 0676 493d 6d22 90be
00000270: 0e10 a6bd d558 933d d112 563e b2fe 48be
00000280: de30 9dbd b337 33be 17c2 4b3c a2b8 92bb
00000290: 0074 88be 1975 503e cc3a 863e 2a89 81be
000002a0: 6f81 ac3d cb67 3cbd 30ce 613d 9db4 083e
000002b0: 87e9 d13a 6bcc 6f3e 7fed fd3c 50c5 2bbd
000002c0: 3117 c03c 18bd b93e 6adc 15bd 9a00 393e
000002d0: 372f ab3d 7f98 923b 297b da3d c2d4 a23e
000002e0: c59d a0bd b287 99be 807e 173e ec2e 093d
000002f0: a6e9 5ebe efeb 5cbd 953a efbd da00 523e
00000300: 0fac e73d 6ba7 f03e d1ed 60be 796d b4bd
00000310: 1e80 513d 2e97 b93d c9de 183e 7e50 543e
00000320: d50f 32bd 4342 e63d e10c 88be 1b71 82be
00000330: 3c7b cb3d 12b1 0bbe 36e0 fdbd 306a 5abe
00000340: a2a7 863d 4dba 273e 533c 303e 5067 d0bd
00000350: e376 0ebc 7359 96bd 173e 99bd af8f 11be
00000360: 4de3 193e a7b4 34bd 5840 08bd df98 66be
00000370: 1838 913e 26de e93e 3be9 613e 1392 833e
00000380: 1f23 bdbd 0c6c e0bd 23e9 553d 0743 ffbd
00000390: 273d b1bc 8df6 2f3e 5972 953e 92bd 003e
000003a0: 0f56 863e 9812 6e3e d08c be3d a54c 2cbe
000003b0: e2eb fd3c d77e 8bbc 792f 273d 2408 843d
000003c0: 3e28 223d 414f 5fbe 81ee e4bd 4db7 393f
000003d0: acbc d4bc b817 3e3a 569c 9a3c 6925 57bd
000003e0: 6fca 763d c5ab 693e 0e39 c8bd 7c59 babd
000003f0: 0a48 6ebe 6e91 c6bd fbf7 70be 67e1 fcbd

model/hidden_layers/0/b f4 [40]
0.22450522 -0.04536283 0.031712655 -0.19078076 0.33024246 0.50478953 -0.31609973 0.26549715
-0.2452612 0.33611113 0.038905162 -0.014029461 -0.15904722 0.13941069 0.01892729 0.066817254
-0.23568206 -0.29503286 0.22115104 0.050204072 0.073419444 0.21739587 -0.12742472 0.13694845
0.04037818 -0.2522249 -0.23533338 -0.02592384 0.046588533 -0.06471101 0.074809104 0.20204717
-0.09607052 0.4540916 -0.3299097 0.09624826 -0.20140474 -0.21786126 0.05303039 0.14493077
00000000: b2e4 653e 60ce 39bd 21e5 013d 085c 43be
00000010: 8a15 a93e e339 013f d3d7 a1be 3eef 873e
00000020: c125 7bbe c216 ac3e 055b 1f3d d3db 65bc
00000030: 46dd 22be adc1 0e3e 670d 9b3c 7cd7 883d
00000040: a356 71be 8c0e 97be 6b75 623e c9a2 4d3d
00000050: ef5c 963d 069d 5e3e a07b 02be 373c 0c3e
00000060: 9763 253d 9f23 81be 3cfb 70be 3c5e d4bc
00000070: 9ed3 3e3d 3587 84bd 8435 993d 74e5 4e3e
00000080: 9fc0 c4bd b27e e83e ede9 a8be cf1d c53d
00000090: 0b3d 4ebe 0617 5fbe 6536 593d bb68 143e

model/hidden_layers/1/W f4 [40, 40]
-0.0012960096 0.3452151 -0.3438887 0.18156332 0.20942411 0.1539734 0.16639441 0.019210793
-0.23925166 0.091577925 0.009475511 -0.082858376 0.30988866 0.03926966 -0.056880772 -0.1342664
0.05735844 0.26581037 0.07042031 -0.01448052 -0.33051378 -0.04193665 -0.27210167 0.52028924
0.5182907 0.007572545 -0.0351424 -0.5061853 0.054167185 0.048114233 0.092299 0.19883026
0.38970205 0.026585523 0.1319147 -0.30309746 0.12394293 -0.06250059 0.29235536 -0.20377223
0.03701164 0.11216593 -0.058159586 -0.04015694 -0.10027983 -0.57149374 0.21425253 -0.0058215405
0.32957962 -0.3710192 -0.07598357 -0.21857896 0.21064915 0.027533837 -0.14164992 -0.1663178
0.1648915 0.17556159 -0.23528603 0.040690593 -0.19341742 -0.001732962 0.13744992 -0.07527896
0.16756277 0.15339634 0.26020843 -0.1529651 -0.17296122 0.40235084 -0.2843485 -0.037074365
0.3111908 -0.42267463 0.012238659 0.15487815 0.28390506 -0.033949044 0.088704355 -0.27930287
0.13204446 -0.25977597 -0.102631755 0.101108365 -0.2932346 -0.002860943 -0.22068675 0.43336445
0.2963106 -0.07226685 0.2029247 0.08523058 -0.27058378 0.032963093 0.06278104 -0.07813789
-0.1772782 -0.61914915 0.0636878 -0.13360752 0.1075663 0.6068236 -0.23524301 0.035655007
-0.15327659 -0.066354446 0.116132885 0.4824023 -0.15935937 0.038462225 -0.299065 -0.18146686
-0.91325486 0.0014853262 0.3078383 -0.31549603 -0.69289696 -0.5293369 0.016757468 0.6234797
0.13690177 0.13954492 -0.013728459 0.13572294 -0.33590856 -0.21610112 0.42196572 0.08111466
0.15246691 -0.38301864 -0.19486468 -0.0978282 0.13252777 -0.011533673 -0.059286248 0.0011558457
0.07411616 0.060299423 -0.16961204 0.07130572 -0.15992133 -0.11039389 -0.061146796 -0.38145778
-0.25212064 0.18100315 0.24529028 0.102626435 0.12379972 0.267752 0.06358768 -0.36713496
-0.047259368 -0.1455806 0.13740396 0.1345946 0.17771778 0.031411927 0.09388288 -0.02768329
-0.05978106 0.6451399 0.21879391 0.027219364 -0.13715859 0.44129544 -0.038551126 -0.015847852
0.1313513 0.009897888 -0.14893399 0.1276655 0.2760423 0.01586028 0.05041849 -0.11623759
-0.5131688 0.030544134 0.3379637 -0.27498817 -0.3582841 -0.16798684 -0.36204815 -0.22283065
0.39640152 0.11763926 -0.6289359 -0.5741533 -0.13254082 -0.1404493 0.18213509 -0.010006994
0.20588633 -0.15482545 -0.20864592 -0.12864184 0.64806855 -0.07219719 0.23922077 -0.25799397
-0.21571516 -0.26268426 0.13783704 0.0039784317 0.16807775 -0.32471967 0.18668632 -0.30384287
0.32002664 -0.20633501 -0.1365862 -0.11837227 0.0596706 -0.06782716 -0.12686642 0.0063970145
0.35425046 0.27656788 -0.2059671 0.051272854 -0.07383277 0.08506092 -0.1593102 0.09229624
0.04919592 0.22941671 0.1752654 0.050961222 -0.17255877 -0.14518614 0.017971542 -0.17186692
0.014594393 -0.32314095 0.27094153 -0.1601322 0.07726868 0.26096198 0.041720595 -0.18768393
0.14442293 -0.187044 0.16726112 -0.19848457 0.46793288 0.10341587 -0.046073638 0.18348503
0.19523893 0.17273092 -0.03409821 -0.22934842 -0.014863032 0.36250937 -0.08360682 0.11442385
00000000: dede a9ba 09c0 b03e 2e12 b0be bceb 393e
00000010: 4673 563e 34ab 1d3e 4c63 2a3e f45f 9d3c
00000020: 63fe 74be 358d bb3d 2c3f 1b3c a7b1 a9bd
00000030: baa9 9e3e 39d9 203d d0fb 68bd 227d 09be
00000040: aff0 6a3d 4c18 883e 8638 903d b43f 6dbc
00000050: 1a39 a9be c4c5 2bbd e950 8bbe ad31 053f
00000060: b3ae 043f 1d23 f83b 7af1 0fbd 5c95 01bf
00000070: 69de 5d3d 6e13 453d 4207 bd3d 299a 4b3e
00000080: 0787 c73e e2c9 d93c a614 073e 972f 9bbe
00000090: cad5 fd3d 4f00 80bd 9aaf 953e aba9 50be
000000a0: 8499 173d 40b7 e53d bf38 6ebd 9b7b 24bd
000000b0: 835f cdbd 6a4d 12bf 0465 5b3e 9fc2 bebb
000000c0: a9be a83e 3bf6 bdbe 469d 9bbd 2ad3 5fbe
000000d0: 69b4 573e a48e e13c ad0c 11be 374f 2abe
000000e0: 51d9 283e 6bc6 333e d2ee 70be 2eab 263d
000000f0: 370f 46be 8e24 e3ba acbf 0c3e db2b 9abd
00000100: 9395 2b3e ee13 1d3e 0a3a 853e e2a2 1cbe
00000110: bf1c 31be ee00 ce3e 2096 91be 4adb 17bd
00000120: 6754 9f3e cf68 d8be a884 483c 6198 1e3e
00000130: 015c 913e 270e 0bbd a1aa b53d c900 8fbe
00000140: aa36 073e 5b01 85be 9930 d2bd e711 cf3d
00000150: d822 96be a97e 3bbb b5fb 61be f2e1 dd3e
00000160: 06b6 973e a400 94bd 7ecb 4f3e 5f8d ae3d
00000170: f589 8abe 4f04 073d 5993 803d c206 a0bd
00000180: 6b88 35be 8f80 1ebf c06e 823d 69d0 08be
00000190: b84b dc3d cb58 1b3f 8be3 70be fc0a 123d
000001a0: 8af4 1cbe d7e4 87bd 14d7 ed3d 6ffd f63e
000001b0: 1a2f 23be 918a 1d3d 0c1f 99be 73d2 39be
000001c0: 12cb 69bf 47af c23a fb9c 9d3e b288 a1be
000001d0: b261 31bf a082 07bf f546 893c 5e9c 1f3f
000001e0: fa2f 0c3e dde4 0e3e 55ed 60bc f4fa 0a3e
000001f0: 35fc abbe 9d49 5dbe e40b d83e 711f a63d
00000200: 4920 1c3e 051b c4be 9b8a 47be 275a c8bd
00000210: 5cb5 073e bbf7 3cbc 23d6 72bd bf7f 973a
00000220: 37ca 973d 87fc 763d c7ae 2dbe bc08 923d
00000230: 6bc2 23be 3116 e2bd 1075 7abd 6f4e c3be
00000240: f515 81be e458 393e 602d 7b3e cf2d d23d
00000250: b58a fd3d ca16 893e 423a 823d 1df9 bbbe
00000260: 0a93 41bd 1513 15be a0b3 0c3e 2bd3 093e
00000270: a6fb 353e cba9 003d ab45 c03d 11c8 e2bc
00000280: fcdc 74bd e327 253f 830b 603e 25fb de3c
00000290: 4d73 0cbe 7af1 e13e c9e7 1dbd 5bd3 81bc
000002a0: f580 063e c02a 223c 2782 18be bfba 023e
000002b0: 6b55 8d3e 6bed 813c 9e83 4e3d f90d eebd
000002c0: 085f 03bf b137 fa3c 9409 ad3e 40cb 8cbe
000002d0: 0371 b7be be04 2cbe 605e b9be b82d 64be
000002e0: 24f5 ca3e daec f03d f101 21bf b6fb 12bf
000002f0: c8b8 07be f1d1 0fbe 9f81 3a3e 60f4 23bc
00000300: ded3 523e 908a 1ebe 47a7 55be b0ba 03be
00000310: d2e7 253f 1fdc 93bd 4af6 743e c917 84be
00000320: 6fe4 5cbe 8d7e 86be 2725 0d3e 815d 823b
00000330: 931c 2c3e a841 a6be b32a 3f3e 4b91 9bbe
00000340: 88da a33e 7c49 53be 41dd 0bbe 296d f2bd
00000350: 2969 743d f7e8 8abd 45e9 01be 0c9e d13b
00000360: 5160 b53e 4e9a 8d3e 0ae9 52be 7c03 523d
00000370: a335 97bd 6b34 ae3d 3722 23be d005 bd3d
00000380: a981 493d 37ec 6a3e c678 333e b7bc 503d
00000390: 3fb3 30be adab 14be 0e39 933c e2fd 2fbe
000003a0: 521d 6f3c bb72 a5be d9b8 8a3e b2f9 23be
000003b0: 0b3f 9e3d cf9c 853e 37e3 2a3d 3730 40be
000003c0: 9be3 133e 7688 3fbe 8046 2b3e 8a3f 4bbe
000003d0: e694 ef3e b3cb d33d b6b7 3cbd 80e3 3b3e
000003e0: b7ec 473e 60e0 303e 91aa 0bbd 50da 6abe
000003f0: 1384 73bc d49a b93e 0d3a abbd 0d57 ea3d

model/hidden_layers/1/b f4 [40]
0.04373239 -0.20857427 0.11248182 -0.14606646 0.059221227 -0.19960043 0.05994006 -0.01124977
-0.10492385 -0.026852688 -0.069028355 -0.11519606 0.19185892 -0.121374 0.026449053 -0.122950554
0.12267685 -0.0071074115 -0.0907151 0.026174197 -0.008465774 0.06521034 0.057455067 -0.007851897
-0.024723167 0.02388214 0.0015732729 0.10556424 0.05358382 0.10590333 0.018786307 -0.031408425
-0.025259675 0.061928473 0.013405683 -0.06748212 -0.097479224 0.001456569 -0.14783032 -0.018809492
00000000: bc20 333d 7e94 55be de5c e63d 7292 15be
00000010: f591 723d 0e64 4cbe b583 753d f550 38bc
00000020: 51e2 d6bd 2bfa dbbc bd5e 8dbd e9eb ebbd
00000030: aa76 443e ef92 f8bd afab d83c 80cd fbbd
00000040: 003e fb3d 4ae5 e8bb d7c8 b9bd 456b d63c
00000050: 08b4 0abc 008d 853d 0156 6b3d 3ea5 00bc
00000060: 3d88 cabc 7aa4 c33c 4736 ce3a 1032 d83d
00000070: b57a 5b3d d8e3 d83d bee5 993c 1fa6 00bd
00000080: 61ed cebc b6a8 7d3d 83a3 5b3c 1134 8abd
00000090: 30a3 c7bd 58ea be3a d560 17be 5d16 9abc

model/output/W f4 [9, 40]
0.38896087 0.43976992 -0.6294946 0.13228224 0.28426716 0.39311373 -0.17528911 -0.021902746
0.20332862 0.0752472 0.32405928 0.11089702 -0.23416398 0.18953478 0.18495834 0.19630656
-0.12547894 0.22549899 0.084775776 -0.13963236 0.12103476 -0.38164347 0.21090762 -0.07778218
-0.026661409 -0.18816878 -0.33299798 -0.22480807 -0.1780709 -0.088409536 -0.46528754 0.24430326
0.2544519 0.0088829985 0.20253836 0.5291153 -0.008999237 -0.1684238 0.27665347 0.20560536
-0.004111892 0.29124516 -0.61495507 0.25287774 0.3300547 0.32708746 -0.03503484 0.01279045
0.19388986 0.043513976 0.433704 0.27696794 -0.46151742 0.13250855 0.15526009 0.16946845
-0.107995525 0.37648705 -0.1750817 -0.44204208 -0.07501331 -0.13101517 0.122321725 0.11087536
0.07737978 -0.10259208 -0.21307655 -0.33040243 -0.14039929 -0.36321422 -0.27728343 0.39647388
0.17039184 -0.010641806 -0.033698164 0.49259225 0.030673116 -0.19469279 0.30428338 0.08854032
0.40754703 0.25835708 -0.40168032 0.3489559 0.4655042 0.48581862 -0.28283602 -0.24517705
0.06956966 0.061585974 0.36711293 0.25774533 -0.15927029 0.11123853 0.16595364 0.20927823
-0.13832255 0.28148305 0.14092827 0.076131865 0.030230803 -0.18666348 0.20939001 0.024719808
0.080079645 -0.10099051 -0.39431393 -0.33101013 -0.09842459 -0.006591326 -0.3884997 0.3133553
0.3140723 -0.085568294 0.13753128 0.3895667 0.112130046 -0.46600005 0.22577925 0.24154946
0.32533675 0.27427936 -0.2671088 0.3173044 0.35730198 0.22137108 -0.19167893 0.1026289
0.16311432 0.13624369 0.27275226 0.323857 -0.027329307 0.30870175 -0.34703127 0.15109098
-0.120886244 0.37478548 -0.19559023 -0.5733673 0.19379027 -0.3398536 0.014332717 -0.20232473
0.07571062 -0.11810844 -0.41509175 -0.038358305 -0.0747084 -0.20348415 -0.26395303 0.3358292
0.20122015 0.02458281 0.3760278 0.6338446 -0.114726864 0.047998246 0.3483467 0.32994106
0.100468986 0.42948467 -0.41602373 0.2367076 0.3270187 0.54599977 -0.18972786 -0.2890406
0.14134464 0.13243656 0.35538256 0.34916273 -0.2502965 0.20876387 -0.09667791 0.16624987
-0.23655903 0.40609938 0.015808962 -0.29222047 0.13892679 -0.15281391 0.1059206 0.012779342
0.0058052563 -0.4456043 -0.20527391 -0.08328636 -0.14639522 -0.042807054 -0.37411705 0.2503931
-0.02277141 -0.03665272 0.07786531 0.6192759 -0.124755576 -0.37512943 0.2293117 0.08231661
0.14776495 0.42472243 -0.7713974 -0.038025312 0.042651266 0.18793032 -0.2844354 -0.055007085
0.32990518 0.09144321 0.36238685 0.1230531 -0.41365847 0.14093135 -0.066065006 0.14962284
-0.17195278 0.13046224 -0.4720123 -0.67811245 0.03165318 -0.2895301 0.3857039 -0.12803133
0.18452573 -0.59007925 -0.091663495 -0.29595035 0.039184414 -0.38286313 -0.34665087 -0.07315479
0.14869311 -0.091156326 0.011830208 0.32017967 0.20637959 -0.26245287 0.34330738 0.056213066
0.14591672 0.5497101 -0.59889066 0.2691626 0.35684323 0.058405694 -0.05620133 0.28811058
0.07095061 0.07846365 0.32569158 0.4061563 -0.42536947 0.144152 -0.007402018 0.09171295
00000000: e125 c73e 8629 e13e 8f26 21bf ff74 073e
00000010: 778b 913e 3446 c93e fd7e 33be 636d b3bc
00000020: 6135 503e 341b 9a3d 19eb a53e fa1d e33d
00000030: afc8 6fbe 6815 423e b865 3d3e 9604 493e
00000040: 8d7d 00be 35e9 663e ec9e ad3d c9fb 0ebe
00000050: 12e1 f73d c666 c3be 2bf8 573e 434c 9fbd
00000060: 0769 dabc 51af 40be b67e aabe 1634 66be
00000070: 3858 36be 0f10 b5bd 2b3a eebe a22a 7a3e
00000080: 8547 823e ff89 113c 3766 4f3e 1a74 073f
00000090: 8971 13bc 4a77 2cbe 86a5 8d3e 368a 523e
000000a0: 0dbd 86bb 161e 953e b26d 1dbf 3179 813e
000000b0: eefc a83e 0278 a73e b180 0fbd 098f 513c
000000c0: 108b 463e b63b 323d 730e de3e bece 8d3e
000000d0: 034c ecbe 52b0 073e 80fc 1e3e 2389 2d3e
000000e0: c22c ddbd e9c2 c03e 9e48 33be 5753 e2be
000000f0: 94a0 99bd d728 06be d083 fa3d 9f12 e33d
00000100: 4a79 9e3d cc1b d2bd bd30 5abe 822a a9be
00000110: d5c4 0fbe 37f7 b9be 18f8 8dbe a0fe ca3e
00000120: 337b 2e3e f85a 2ebc 1607 0abd 0d35 fc3e
00000130: 3046 fb3c 8c5d 47be 08cb 9b3e a154 b53d
00000140: 01aa d03e 6147 843e 0ba9 cdbe 59aa b23e
00000150: 9156 ee3e 38bd f83e e2cf 90be b10f 7bbe
00000160: 8a7a 8e3d 9341 7c3d 3af6 bb3e 32f7 833e
00000170: c017 23be 07d1 e33d c0ef 293e 084d 563e
00000180: 6da4 0dbe 8c1e 903e 804f 103e 06eb 9b3d
00000190: 97a6 f73c b624 3fbe 566a 563e 3281 ca3c
000001a0: cc00 a43d 1dd4 cebd 84e3 c9be 297a a9be
000001b0: d592 c9bd 0dfc d7bb 6fe9 c6be 1b70 a03e
000001c0: 16ce a03e 6e3e afbd 00d5 0c3e 4975 c73e
000001d0: 70a4 e53d 8f97 eebe ad32 673e be58 773e
000001e0: 8a92 a63e 586e 8c3e 7cc2 88be b975 a23e
000001f0: 49f0 b63e 1aaf 623e 7b47 44be 1a2f d23d
00000200: 7107 273e 7783 0b3e 2fa6 8b3e 96d0 a53e
00000210: b6e1 dfbc 280e 9e3e 15ae b1be 98b7 1a3e
00000220: 3593 f7bd e2e3 bf3e ce48 48be 33c8 12bf
00000230: f570 463e 4b01 aebe c6d3 6a3c 372e 4fbe
00000240: 2b0e 9b3d d6e2 f1bd e886 d4be 991d 1dbd
00000250: b800 99bd 265e 50be da24 87be cef1 ab3e
00000260: a80c 4e3e e461 c93c b786 c03e a443 223f
00000270: ebf5 eabd cf99 443d 805a b23e 09ee a83e
00000280: afc2 cd3d 6ae5 db3e 1001 d5be 7a63 723e
00000290: ff6e a73e a4c6 0b3f 0548 42be 21fd 93be
000002a0: a6bc 103e 739d 073e b4f4 b53e 75c5 b23e
000002b0: dd26 80be 32c6 553e 11ff c5bd 683d 2a3e
000002c0: 883c 72be 42ec cf3e cc81 813c ec9d 95be
000002d0: d342 0e3e 407b 1cbe e6ec d83d 7260 513c
000002e0: 053a be3b 3f26 e4be 5333 52be 0a92 aabd
000002f0: a1e8 15be 7356 2fbd 458c bfbe 8633 803e
00000300: 1c8b babc 2a21 16bd d977 9f3d de88 1e3f
00000310: da7f ffbd f710 c0be b0d0 6a3e 9c95 a83d
00000320: b24f 173e 3875 d93e 4d7a 45bf 6ec0 1bbd
00000330: 18b3 2e3d ce70 403e 84a1 91be 1c4f 61bd
00000340: 55e9 a83e 9446 bb3d c58a b93e 4403 fc3d
00000350: 0bcb d3be 4f50 103e 174d 87bd bb36 193e
00000360: 6414 30be e597 053e 99ab f1be c798 2dbf
00000370: c4a6 013d 4a3d 94be fb7a c53e a51a 03be
00000380: 50f4 3c3e 6f0f 17bf 12ba bbbd ce86 97be
00000390: d67f 203d a306 c4be 397c b1be 2ed2 95bd
000003a0: 0243 183e 2bb0 babd 7dd3 413c 97ee a33e
000003b0: 2c55 533e 3960 86be fcc5 af3e ac3f 663d
000003c0: 316b 153e cdb9 0c3f e650 19bf aecf 893e
000003d0: 28b4 b63e cf3a 6f3d 5e33 66bd 3b83 933e
000003e0: 8e4e 913d 8db1 a03d 0cc1 a63e b8f3 cf3e
000003f0: 07ca d9be 959c 133e a18c f2bb 00d4 bb3d

model/output/b f4 [9]
-0.17694335 0.0527161 0.0027398886 -0.041348793 -0.022286627 -0.046710797 -0.056488495 0.06021947
0.017182276
00000000: a330 35be d6ec 573d b48f 333b 5a5d 29bd
00000010: 7292 b6bc d253 3fbd 7b60 67bd b1a8 763d
00000020: d8c1 8c3c
