python/results/2017_12_22_10_38_44/agent400/target_model.npz (npz, 14903 bytes, 6 tensors)

model/hidden_layers/0/W f4 [40, 40]
-0.034284588 -0.19828553 0.16350035 -0.32696378 0.069804214 0.13312036 0.07782671 0.07435413
0.113933995 0.08811936 -0.2394789 0.11501842 0.21488558 -0.1519825 0.33537135 0.0046876776
0.0045111924 0.12629393 0.2529851 0.10330112 -0.30643913 -0.34672186 -0.29277357 -0.19725132
0.18001612 -0.044440016 -0.0014551241 0.2829301 0.04272415 -0.07674016 -0.19372717 -0.08357299
0.06040095 -0.0478308 0.32191893 0.016992947 -0.17886692 -0.1771204 0.3108848 0.077342026
-0.047333945 0.83567834 0.32782653 -0.21227047 0.25415346 0.030313576 0.338064 0.087926455
-0.10538274 -0.01996762 -0.03204766 -0.12448966 -0.05007585 -0.31768715 0.08107136 -0.3232536
-0.021462644 -0.1826471 0.064912856 -0.18054585 0.18720381 0.31146085 0.38614994 0.3951502
0.42234898 0.36618522 0.60224134 0.41585258 0.49609196 0.1920126 0.27843893 0.01864505
0.07289862 0.07977539 0.3863125 0.037676297 0.2581432 0.14876367 0.12194272 0.16670117
-0.028003909 0.06706583 -0.23439668 0.3387445 0.06166829 0.0004529664 -0.09948576 0.038995646
0.059982102 0.009909499 0.018428283 -0.046087887 0.30980992 -0.05853157 0.07296363 -0.095901184
-0.3177916 -0.30529445 -0.17472018 -0.2985297 0.06693666 -0.13450645 0.14487095 0.031181766
-0.17150542 -0.35316893 -0.01613983 0.40889153 0.12690227 -0.0897771 0.075644314 -0.15385012
0.19197945 -0.14642744 0.043099593 -0.027657382 0.101530835 -0.15051886 0.008172183 0.013211234
0.13247642 0.061673127 -0.059067618 -0.26083642 -0.013188002 0.19160005 -0.056458235 0.19460343
0.052238807 -0.1387111 0.178288 0.08764231 -0.13949592 -0.46117213 -0.11282684 -0.33707175
-0.36571938 -0.3152306 -0.040521547 -0.14111786 -0.15150139 -0.38884464 -0.112536214 -0.1912225
-0.010532908 -0.3999305 0.04825142 0.021744449 -0.07563178 0.10727425 -0.11474493 0.1535882
0.07887629 0.06652056 0.049265917 -0.28143212 -0.08099233 0.07205585 0.20927575 -0.19604932
-0.07918867 -0.17519248 0.011983331 -0.0047190767 -0.26686424 0.20317733 0.26222154 -0.25303793
0.08430055 -0.04594585 0.055130154 0.13350388 0.001573681 0.23414193 0.030743098 -0.042238366
0.023180336 0.3625402 -0.036671218 0.18069996 0.08355875 0.004363059 0.106575415 0.31793162
-0.07855866 -0.2999223 0.14793085 0.03347332 -0.21772829 -0.05399326 -0.116885915 0.20500858
0.113041826 0.46994105 -0.21976264 -0.0882154 0.051007334 0.09046142 0.1490036 0.2070938
-0.043834344 0.112086914 -0.26643643 -0.2546046 0.09909092 -0.1368142 -0.12337651 -0.21291459
0.0661462 0.16407382 0.17228396 -0.101624615 -0.008617197 -0.073300935 -0.07460313 -0.14243546
0.1500385 -0.044314187 -0.033265587 -0.22501555 0.28367782 0.45667747 0.22051504 0.25691268
-0.09249014 -0.10953139 0.05237838 -0.124517426 -0.02156024 0.17184627 0.2918512 0.125681
0.26232025 0.23243125 0.09295826 -0.1683439 0.030902227 -0.017122405 0.04052145 0.064302854
0.038380153 -0.21866733 -0.111459985 0.7248828 -0.025914144 0.00069708005 0.018198213 -0.053041648
0.0598395 0.22798733 -0.0979836 -0.09122641 -0.2328893 -0.09726755 -0.23604861 -0.12362685
00000000: ff6d 0cbd 5d0b 4bbe a36c 273e cc67 a7be
00000010: 83f5 8e3d b450 083e 9c63 9f3d fa46 983d
00000020: 3a56 e93d ec77 b43d f539 75be c78e eb3d
00000030: f70a 5c3e 4da1 1bbe cbb5 ab3e 179b 993b
00000040: a0d2 933b 3253 013e 4387 813e 8a8f d33d
00000050: 97e5 9cbe 8785 b1be 6be6 95be 40fc 49be
00000060: 2556 383e bc06 36bd ddb9 beba 37dc 903e
00000070: 85ff 2e3d f229 9dbd 6a60 46be 5128 abbd
00000080: fd66 773d 3bea 43bd 8fd2 a43e cb34 8b3c
00000090: e428 37be 0d5f 35be 4b2c 9f3e 7f65 9e3d
000000a0: 3de1 41bd 04ef 553f e1d8 a73e 6e5d 59be
000000b0: 6720 823e 2d54 f83c b916 ad3e c912 b43d
000000c0: e8d2 d7bd 2293 a3bc 6844 03bd 6ff4 febd
000000d0: 561c 4dbd e4a7 a2be be08 a63d 7f81 a5be
000000e0: 6dd2 afbc d707 3bbe 08f1 843d 03e1 38be
000000f0: 5bb2 3f3e cc77 9f3e 72b5 c53e 2151 ca3e
00000100: 203e d83e a17c bb3e 7d2c 1a3f a1ea d43e
00000110: c4ff fd3e f39e 443e 8c8f 8e3e 81bd 983c
00000120: df4b 953d 4861 a33d c1ca c53e 7652 1a3d
00000130: 582b 843e 8155 183e 1bbd f93d b6b3 2a3e
00000140: 7468 e5bc cf59 893d af05 70be eb6f ad3e
00000150: e497 7c3d 1f7c ed39 31bf cbbd e6b9 1f3d
00000160: cbaf 753d 745b 223c e9f6 963c a7c6 3cbd
00000170: 689f 9e3e cdbe 6fbd f56d 953d d767 c4bd
00000180: 95b5 a2be 8e4f 9cbe d9e9 32be e3d8 98be
00000190: 1616 893d 0fbc 09be 0d59 143e e770 ff3c
000001a0: 1e9f 2fbe 8fd2 b4be ad37 84bc 3b5a d13e
000001b0: abf2 013e 0edd b7bd 68eb 9a3d e38a 1dbe
000001c0: 4396 443e 13f1 15be 3389 303d bc91 e2bc
000001d0: 66ef cf3d 9e21 1abe 9fe4 053c ee73 583c
000001e0: e6a7 073e f69c 7c3d e3f0 71bd 5a8c 85be
000001f0: 7d12 58bc ce32 443e c040 67bd 1f46 473e
00000200: 5cf8 553d 480a 0ebe 2191 363e d07d b33d
00000210: 05d8 0ebe c11e ecbe c211 e7bd ab94 acbe
00000220: 923f bbbe e865 a1be ecf9 25bd 3381 10be
00000230: 2e23 1bbe a516 c7be 6379 e6bd d5cf 43be
00000240: 3892 2cbc b1c3 ccbe 48a3 453d 6a21 b23c
00000250: d6e4 9abd 9ab2 db3d 64ff eabd 3a46 1d3e
00000260: e489 a13d ee3b 883d 0fcb 493d df17 90be
00000270: 4fdf a5bd 0492 933d 624c 563e 27c1 48be
00000280: ab2d a2bd a865 33be bc55 443c 7ca2 9abb
00000290: 6ea2 88be b80d 503e e741 863e 308e 81be
000002a0: c4a5 ac3d b731 3cbd 28d0 613d 3eb5 083e
000002b0: f943 ce3a e7c2 6f3e f3d8 fb3c 2302 2dbd
000002c0: b0e4 bd3c de9e b93e 8f34 16bd 6909 393e
000002d0: da20 ab3d fef7 8e3b 3644 da3d efc7 a23e
000002e0: 5de3 a0bd 6a8f 99be 2f7b 173e 521b 093d
000002f0: 2af4 5ebe 0928 5dbd e261 efbd c5ed 513e
00000300: 7982 e73d 1d9c f03e 7509 61be 47aa b4bd
00000310: 11ed 503d d643 b93d 6694 183e 6610 543e
00000320: a48b 33bd d38d e53d 5b6a 88be 895b 82be
00000330: 2ef0 ca3d 0619 0cbe d3ac fcbd 4806 5abe
00000340: a977 873d f802 283e 356b 303e 9120 d0bd
00000350: 252f 0dbc cd1e 96bd 87c9 98bd 9ada 11be
00000360: b1a3 193e cb82 35bd 7f41 08bd 7a6a 66be
00000370: 383e 913e a1d1 e93e b2ce 613e 0f8a 833e
00000380: 786b bdbd fe51 e0bd b68a 563d fe02 ffbd
00000390: 1a9f b0bc 78f8 2f3e 856d 953e 85b2 003e
000003a0: d74e 863e 7502 6e3e e660 be3d 5862 2cbe
000003b0: ab26 fd3c 4944 8cbc d2f9 253d 37b1 833d
000003c0: 8234 1d3d 54ea 5fbe 2245 e4bd eb91 393f
000003d0: e649 d4bc 40bc 363a 6b14 953c 3342 59bd
000003e0: 431a 753d 8375 693e a0ab c8bd e9d4 babd
000003f0: 887a 6ebe 3634 c7bd bab6 71be 1330 fdbd

model/hidden_layers/0/b f4 [40]
0.22527935 -0.04722526 0.03250719 -0.19032176 0.3298125 0.504802 -0.31649545 0.26577905
-0.24475324 0.33574662 0.039015286 -0.014205743 -0.15960883 0.13942593 0.019071251 0.06674351
-0.2356695 -0.2965892 0.22158496 0.05017538 0.07354177 0.21888152 -0.1273312 0.13687873
0.040160708 -0.25235853 -0.23530763 -0.024885507 0.046278134 -0.064954914 0.074759044 0.20144914
-0.09845502 0.4547294 -0.3299602 0.09634552 -0.20327127 -0.21839526 0.053019468 0.14643638
00000000: a1af 663e 466f 41bd 4226 053d b5e3 42be
00000010: 2fdd a83e b43a 013f b10b a2be 3114 883e
00000020: 98a0 7abe fbe6 ab3e 7ece 1f3d 34bf 68bc
00000030: 7f70 23be acc5 0e3e 503b 9c3c d2b0 883d
00000040: 5853 71be 8ada 97be 2be7 623e b384 4d3d
00000050: 119d 963d 7a22 603e 1c63 02be f029 0c3e
00000060: 8e7f 243d 2335 81be 7cf4 70be b1dc cbbc
00000070: 248e 3d3d 1507 85bd 451b 993d af48 4e3e
00000080: c9a2 c9bd 4bd2 e83e 8bf0 a8be cd50 c53d
00000090: 5826 50be 02a3 5fbe f12a 593d 6bf3 153e

model/hidden_layers/1/W f4 [40, 40]
-0.0012305574 0.34534776 -0.3439796 0.18168858 0.20933992 0.153837 0.16646178 0.019101309
-0.23920925 0.09151528 0.00930339 -0.082976535 0.30976003 0.03922955 -0.05692367 -0.13416934
0.057237435 0.26594085 0.070179954 -0.014610922 -0.3303926 -0.041962247 -0.27215958 0.52015936
0.5183542 0.007449311 -0.03505716 -0.5062722 0.054274723 0.048002724 0.09217637 0.19883856
0.3898764 0.02646963 0.13203278 -0.30313197 0.12399248 -0.062407598 0.2924812 -0.20382297
0.0369209 0.112110354 -0.058234353 -0.040019497 -0.100464456 -0.5715575 0.21418947 -0.00589113
0.32986557 -0.37115324 -0.07603654 -0.2186701 0.21059641 0.027556812 -0.14153878 -0.16637322
0.16512266 0.17553502 -0.23532997 0.040862907 -0.19340742 -0.0019248558 0.13740705 -0.07512522
0.16762371 0.15355882 0.26063442 -0.15287757 -0.17305562 0.40232095 -0.28417304 -0.037312318
0.31119186 -0.42295346 0.012507728 0.1547307 0.28382838 -0.03396597 0.08849319 -0.27934036
0.13208331 -0.25948963 -0.102880545 0.101505175 -0.29349306 -0.0031673568 -0.22029263 0.43286172
0.29608694 -0.072576694 0.20273103 0.08482185 -0.2712862 0.032550145 0.062338606 -0.0774346
-0.17822666 -0.61899745 0.06306089 -0.13453984 0.10840305 0.6069345 -0.23537199 0.034734093
-0.15336677 -0.067293085 0.116238974 0.4819999 -0.15878205 0.03793291 -0.29999477 -0.18102592
-0.9128418 0.0015624374 0.30821857 -0.31552234 -0.692694 -0.5288313 0.01769262 0.6234435
0.13702652 0.13975762 -0.013931338 0.13577867 -0.33591548 -0.21606076 0.4220368 0.08105093
0.152593 -0.3830365 -0.19514929 -0.09800976 0.1324924 -0.0116672665 -0.05937544 0.001318105
0.07392364 0.06048737 -0.16984464 0.071196154 -0.15984116 -0.11054811 -0.061337303 -0.38149416
-0.2518755 0.18080118 0.24549419 0.10244721 0.12395936 0.26765087 0.06346166 -0.36705247
-0.046957966 -0.14577988 0.13744743 0.13442604 0.17784339 0.031514775 0.094035275 -0.027912911
-0.059740048 0.64506763 0.2187047 0.0273098 -0.13718835 0.44124326 -0.038420707 -0.015978526
0.13133013 0.0099362135 -0.1490161 0.12757824 0.27594942 0.015849888 0.05035248 -0.11613657
-0.51326835 0.030622186 0.3378894 -0.27508324 -0.35820302 -0.16806993 -0.36206278 -0.22291033
0.39644423 0.117540576 -0.62895006 -0.574282 -0.13241515 -0.14052087 0.18203655 -0.010029576
0.20610385 -0.154856 -0.20854011 -0.12856379 0.64819366 -0.07205225 0.23931712 -0.25812155
-0.21569179 -0.2621317 0.13731728 0.0043142014 0.16782165 -0.32496685 0.18714175 -0.3043158
0.3200487 -0.20657182 -0.13703562 -0.11890906 0.059234332 -0.06823528 -0.12728924 0.00704925
0.35341647 0.27683964 -0.2066432 0.050570924 -0.073150456 0.08478147 -0.15974046 0.09167309
0.04962121 0.22857422 0.17580941 0.050358623 -0.17192377 -0.14572708 0.017256105 -0.17158075
0.015243887 -0.32350513 0.27135378 -0.16047099 0.07775726 0.2614444 0.0424967 -0.18815927
0.14449677 -0.18710943 0.16725549 -0.19835368 0.46789148 0.10334908 -0.045993924 0.18337668
0.19512491 0.1727257 -0.034080196 -0.22943217 -0.015152141 0.3623866 -0.08371789 0.11459551
00000000: a84a a1ba 6cd1 b03e 181e b0be 920c 3a3e
00000010: 345d 563e 7287 1d3e f574 2a3e 597a 9c3c
00000020: 45f3 74be 5d6c bb3d 3f6d 183c 9aef a9bd
00000030: de98 9e3e 2aaf 203d cb28 69bd b063 09be
00000040: cd71 6a3d 6629 883e 82ba 8f3d a662 6fbc
00000050: 3829 a9be 9be0 2bbd 8058 8bbe 2a29 053f
00000060: dcb2 043f 5a19 f43b 1998 0fbd 0e9b 01bf
00000070: 2c4f 5e3d 819e 443d f7c6 bc3d 569c 4b3e
00000080: e19d c73e d6d6 d83c 9a33 073e 1d34 9bbe
00000090: c5ef fd3d 1c9f 7fbd 19c0 953e f8b6 50be
000000a0: 5f3a 173d 1d9a e53d 2587 6ebd 7ceb 23bd
000000b0: 4fc0 cdbd 9851 12bf 7c54 5b3e 610a c1bb
000000c0: 24e4 a83e cc07 bebe 0cb9 9bbd 0eeb 5fbe
000000d0: 96a6 573e d3be e13c 8bef 10be be5d 2abe
000000e0: ea15 293e 74bf 333e 57fa 70be dd5f 273d
000000f0: 980c 46be 714b fcba 6fb4 0c3e 40db 99bd
00000100: 8da5 2b3e 863e 1d3e e071 853e f08b 1cbe
00000110: 7e35 31be 03fd cd3e 217f 91be cdd4 18bd
00000120: 8a54 9f3e 5b8d d8be 37ed 4c3c ba71 1e3e
00000130: f451 913e e71f 0bbd eb3b b53d b305 8fbe
00000140: d940 073e d3db 84be 09b3 d2bd f2e1 cf3d
00000150: b944 96be 6e93 4fbb 6494 61be 0da0 dd3e
00000160: b598 973e 17a3 94bd b998 4f3e 14b7 ad3d
00000170: 06e6 8abe 4d53 053d c456 7f3d 0896 9ebd
00000180: 0d81 36be 9e76 1ebf 1126 813d d0c4 09be
00000190: 6b02 de3d 0f60 1b3f 5b05 71be 5645 0e3d
000001a0: 2e0c 1dbe f5d0 89bd b30e ee3d b1c8 f63e
000001b0: c397 22be 8a5f 1b3d ea98 99be dc5e 39be
000001c0: 00b0 69bf b3ca cc3a d3ce 9d3e 258c a1be
000001d0: 6554 31bf 7d61 07bf 1df0 903c fe99 1f3f
000001e0: ae50 0c3e 9f1c 0f3e 4440 64bc 9009 0b3e
000001f0: 1dfd abbe 083f 5dbe 3515 d83e 08fe a53d
00000200: 5741 1c3e 5c1d c4be 37d5 47be 57b9 c8bd
00000210: 16ac 073e 1028 3fbc a933 73bd 44c4 ac3a
00000220: 4765 973d 9bc1 773d c1eb 2dbe 4acf 913d
00000230: 67ad 23be 0c67 e2bd d33c 7bbd 3453 c3be
00000240: d3f5 80be f223 393e d462 7b3e d8cf d13d
00000250: 68de fd3d 8909 893e 30f8 813d 4dee bbbe
00000260: ff56 40bd 5247 15be 05bf 0c3e fba6 093e
00000270: 941c 363e a315 013d 9195 c03d 9ea9 e4bc
00000280: fbb1 74bd 2723 253f 20f4 5f3e cdb8 df3c
00000290: 1a7b 0cbe a3ea e13e 085f 1dbd 66e5 82bc
000002a0: 687b 063e 80cb 223c ad97 18be dfa3 023e
000002b0: 3e49 8d3e a0d7 813c 673e 4e3d 03d9 edbd
000002c0: 8e65 03bf 61db fa3c d7ff ac3e b6d7 8cbe
000002d0: 6366 b7be 861a 2cbe 4b60 b9be 9b42 64be
000002e0: bdfa ca3e 1db9 f03d df02 21bf 2504 13bf
000002f0: d697 07be b4e4 0fbe ca67 3a3e 1753 24bc
00000300: e30c 533e 9292 1ebe 8a8b 55be 3aa6 03be
00000310: 05f0 253f 2190 93bd 8c0f 753e 8228 84be
00000320: 4fde 5cbe 2036 86be e79c 0c3e 255e 8d3b
00000330: 70d9 2b3e 0e62 a6be 16a2 3f3e 48cf 9bbe
00000340: 6cdd a33e 9087 53be 1153 0cbe 9886 f3bd
00000350: b39f 723d f0be 8bbd 1c58 02be 65fd e63b
00000360: 01f3 b43e edbd 8d3e 469a 53be 7523 4f3d
00000370: e8cf 95bd e8a1 ad3d 0193 23be 1abf bb3d
00000380: 9c3f 4b3d 5c0f 6a3e 6207 343e d844 4e3d
00000390: c90c 30be 7b39 15be ad5c 8d3c ddb2 2fbe
000003a0: 7fc1 793c 77a2 a5be e2ee 8a3e 8252 24be
000003b0: 333f 9f3d 0adc 853e 0511 2e3d d3ac 40be
000003c0: f6f6 133e 9d99 3fbe 0645 2b3e 3a1d 4bbe
000003d0: 798f ef3e afa8 d33d 2064 3cbd 19c7 3b3e
000003e0: d3ce 473e 02df 303e ad97 0bbd 44f0 6abe
000003f0: b040 78bc bd8a b93e 4974 abbd 0db1 ea3d

model/hidden_layers/1/b f4 [40]
0.043851685 -0.20881449 0.11343454 -0.14587155 0.059320275 -0.19875869 0.060209017 -0.011420836
-0.10503751 -0.026667988 -0.06956609 -0.11536336 0.19230646 -0.12118183 0.026684249 -0.12310023
0.12266301 -0.0072185993 -0.08997433 0.027146872 -0.008261615 0.065181695 0.05733071 -0.007500289
-0.025343552 0.024561904 0.0016297916 0.105893776 0.053085133 0.10663841 0.019137528 -0.030953027
-0.025559058 0.06200314 0.0133655295 -0.06769828 -0.09798812 0.001705483 -0.14801121 -0.018785158
00000000: d39d 333d 77d3 55be 5e50 e83d 5a5f 15be
00000010: d1f9 723d 6687 4bbe bb9d 763d 751e 3bbc
00000020: e81d d7bd d376 dabc ab78 8ebd a043 ecbd
00000030: fceb 443e 2e2e f8bd ed98 da3c f91b fcbd
00000040: bf36 fb3d 008a ecbb 7644 b8bd 1e63 de3c
00000050: ba5b 07bc fb7d 853d 9bd3 6a3d fcc4 f5bb
00000060: 489d cfbc 0c36 c93c bb9e d53a d6de d83d
00000070: cc6f 593d 3d65 da3d 4ec6 9c3c 3491 fdbc
00000080: 3b61 d1bc 01f7 7d3d 18fb 5a3c 65a5 8abd
00000090: ffad c8bd 838a df3a 4090 17be 55e3 99bc

model/output/W f4 [9, 40]
0.38953638 0.44074824 -0.63087845 0.13409454 0.28532562 0.39404795 -0.17614163 -0.022930581
0.20536418 0.0752145 0.32538205 0.11226424 -0.23573017 0.19045451 0.18607497 0.1979203
-0.1270005 0.22679542 0.08362798 -0.14068133 0.12182285 -0.3831038 0.21097074 -0.07826012
-0.026062295 -0.18927598 -0.33382556 -0.22662088 -0.17829219 -0.089109376 -0.46646422 0.24506415
0.25542948 0.009240034 0.20408207 0.53039306 -0.00915807 -0.1696519 0.27758512 0.20649555
-0.0038239988 0.29158953 -0.61535066 0.2530371 0.3303694 0.32715458 -0.034925893 0.012454168
0.19406077 0.043315914 0.43420905 0.27723038 -0.46162304 0.13255787 0.15567915 0.1696867
-0.10835742 0.3768924 -0.17548095 -0.4423278 -0.07471233 -0.13134602 0.12249273 0.110556595
0.07771528 -0.102896266 -0.21339709 -0.33076137 -0.14059174 -0.36342347 -0.27767038 0.39679974
0.17071342 -0.010433642 -0.03320671 0.49292898 0.030450085 -0.19504769 0.30433807 0.08852435
0.40743425 0.25830606 -0.40148875 0.34883776 0.4653348 0.4857485 -0.2828393 -0.24502347
0.069375336 0.06158401 0.36702138 0.25769433 -0.15909633 0.11111304 0.16579537 0.20915507
-0.13813913 0.28129825 0.14106877 0.07632967 0.03013576 -0.18650034 0.20933121 0.024701428
0.080017395 -0.100792706 -0.39414924 -0.33080402 -0.09849882 -0.00652677 -0.38831753 0.31323797
0.31392488 -0.08568686 0.13734068 0.38934687 0.11218037 -0.4658299 0.22573428 0.24150984
0.3260503 0.27448398 -0.26760927 0.31684726 0.35782114 0.22105637 -0.19118516 0.102361925
0.16259809 0.1358684 0.27292594 0.32370964 -0.026958939 0.3085279 -0.3467153 0.15090959
-0.12079769 0.3752057 -0.19595863 -0.57391024 0.19384657 -0.33981052 0.014766622 -0.20267716
0.0761831 -0.11863915 -0.4157667 -0.03806287 -0.074996896 -0.20340644 -0.26448077 0.33636427
0.2016633 0.025052654 0.3761663 0.63448244 -0.115283474 0.047581602 0.34808403 0.32978722
0.10071147 0.42980278 -0.41715223 0.2367882 0.3275708 0.5455881 -0.18915142 -0.2899868
0.14173926 0.1320768 0.35623085 0.3487967 -0.25021017 0.20882885 -0.09554009 0.16661635
-0.23724183 0.40722567 0.014642684 -0.2926218 0.13915828 -0.15310591 0.10616712 0.012626102
0.0064136996 -0.4461821 -0.20574711 -0.08376627 -0.14622669 -0.04298178 -0.37512457 0.25090185
-0.022005206 -0.036417283 0.07898065 0.6200045 -0.12508528 -0.37613297 0.22901025 0.081606105
0.14777474 0.42458665 -0.7701836 -0.038696084 0.04211301 0.18827891 -0.28466892 -0.053866558
0.32868177 0.091728844 0.36151078 0.12281767 -0.41334862 0.14061826 -0.06742423 0.14866824
-0.17071868 0.1291538 -0.4707948 -0.67769194 0.031172127 -0.28874415 0.38575006 -0.12795725
0.18417113 -0.58958733 -0.09139796 -0.29468903 0.03886929 -0.3825559 -0.34567165 -0.07343746
0.14799254 -0.09122521 0.010326004 0.31953648 0.20646311 -0.26131722 0.34347054 0.056648728
0.14544292 0.5495595 -0.5982795 0.2693445 0.35624528 0.058807284 -0.056527313 0.2885374
0.071068496 0.07878728 0.3253899 0.40641078 -0.42560387 0.1441872 -0.007920718 0.09172548
00000000: 5071 c73e c1a9 e13e 4081 21bf 1450 093e
00000010: 3316 923e a7c0 c93e 795e 34be ead8 bbbc
00000020: fd4a 523e 0f0a 9a3d 7a98 a63e cbea e53d
00000030: 4063 71be 8206 433e 708a 3e3e 9eab 4a3e
00000040: 6b0c 02be 0f3d 683e 2545 ab3d c40e 10be
00000050: 427e f93d 2e26 c4be b708 583e d746 a0bd
00000060: 9880 d5bc 90d1 41be 2feb aabe 4e0f 68be
00000070: 3a92 36be fa7e b6bd 66d4 eebe 19f2 7a3e
00000080: a7c7 823e 8363 173c e4fa 503e d7c7 073f
00000090: bb0b 16bc 3ab9 2dbe a31f 8e3e 9273 533e
000000a0: 0e9c 7abb 394b 953e 9f87 1dbf 148e 813e
000000b0: 2e26 a93e ce80 a73e 740e 0fbd 910c 4c3c
000000c0: deb7 463e 076c 313d a650 de3e 24f1 8d3e
000000d0: db59 ecbe 40bd 073e 5b6a 1f3e 5ac2 2d3e
000000e0: 7fea ddbd 0af8 c03e 47b1 33be ca78 e2be
000000f0: c702 99bd 927f 06be 78dd fa3d 7f6b e23d
00000100: 3029 9f3d 47bb d2bd c484 5abe 8e59 a9be
00000110: 48f7 0fbe a412 babe d02a 8ebe 5629 cb3e
00000120: 80cf 2e3e def1 2abc c203 08bd 3061 fc3e
00000130: 7572 f93c 95ba 47be 33d2 9b3e 414c b53d
00000140: 399b d03e b140 843e ef8f cdbe dd9a b23e
00000150: 5d40 ee3e 07b4 f83e 50d0 90be 6fe7 7abe
00000160: a814 8e3d 843f 7c3d 3aea bb3e 83f0 833e
00000170: 26ea 22be 3c8f e33d 43c6 293e bf2c 563e
00000180: 5874 0dbe 5306 903e 5574 103e bb52 9c3d
00000190: 45df f63c f2f9 3ebe ec5a 563e a65a ca3c
000001a0: 29e0 a33d 686c cebd eecd c9be 255f a9be
000001b0: c0b9 c9bd 84de d5bb 8ed1 c6be ba60 a03e
000001c0: c3ba a03e 987c afbd 09a3 0c3e 7958 c73e
000001d0: d2be e53d 4281 eebe e326 673e 5b4e 773e
000001e0: 11f0 a63e 2a89 8c3e 1504 89be ce39 a23e
000001f0: 5534 b73e 9a5c 623e 0bc6 43be 21a3 d13d
00000200: 1d80 263e 1621 0b3e f3bc 8b3e 45bd a53e
00000210: fed8 dcbc 5ef7 9d3e ab84 b1be 0b88 1a3e
00000220: c764 f7bd f61a c03e 61a9 48be c8eb 12bf
00000230: b77f 463e a5fb adbe b4ef 713c 9a8a 4fbe
00000240: e305 9c3d 15f9 f2bd 5fdf d4be d0e7 1bbd
00000250: f997 99bd c749 50be 066a 87be f037 ac3e
00000260: d380 4e3e 393b cd3c df98 c03e 716d 223f
00000270: be19 ecbd ede4 423d 1238 b23e dfd9 a83e
00000280: d141 ce3d 1c0f dc3e fa94 d5be 9b78 723e
00000290: 5cb7 a73e a9ab 0b3f e9b0 41be 2679 94be
000002a0: 1924 113e 243f 073e e463 b63e 7b95 b23e
000002b0: 8c1b 80be 3bd7 553e 86aa c3bd 7a9d 2a3e
000002c0: 86ef 72be e27f d03e dee7 6f3c 86d2 95be
000002d0: 827f 0e3e ccc7 1cbe 266e d93d b6dd 4e3c
000002e0: 032a d23b fb71 e4be 5faf 52be a68d abbd
000002f0: 73bc 15be aa0d 30bd 5410 c0be 3576 803e
00000300: 4344 b4bc 4a2a 15bd 9bc0 a13d 9db8 1e3f
00000310: 5b16 00be 8094 c0be aa81 6a3e 1a21 a73d
00000320: 4352 173e 6c63 d93e c12a 45bf c97f 1ebd
00000330: b17e 2c3d 30cc 403e 20c0 91be 2ea3 5cbd
00000340: fa48 a83e 55dc bb3d f117 b93e d587 fb3d
00000350: 6ea2 d3be 3cfe 0f3e b715 8abd 7d3c 183e
00000360: e1d0 2ebe e540 043e 040c f1be 387d 2dbf
00000370: b05c ff3c 46d6 93be 0881 c53e 3a07 03be
00000380: 5b97 3c3e 32ef 16bf db2e bbbd 7be1 96be
00000390: 6835 1f3d 5ede c3be e0fb b0be 6166 96bd
000003a0: 5b8b 173e 48d4 babd 662e 293c 499a a33e
000003b0: 116b 533e 5fcb 85be 5fdb af3e 7f08 683d
000003c0: fdee 143e eeaf 0c3f d828 19bf 86e7 893e
000003d0: c865 b63e e8df 703d 2f89 67bd 2dbb 933e
000003e0: 5c8c 913d 3a5b a13d 8199 a63e 1315 d03e
000003f0: c0e8 d9be cfa5 133e e6c5 01bc 92da bb3d

model/output/b f4 [9]
-0.17553511 0.053149648 0.0025631448 -0.041052446 -0.020967493 -0.04838164 -0.05707421 0.059856437
0.01634099
00000000: 7abf 33be 72b3 593d 6ffa 273b 9c26 28bd
00000010: 05c4 abbc d42b 46bd a6c6 69bd 062c 753d
00000020: 8add 853c
