python/results/2017_12_22_10_38_44/agent800/model.npz (npz, 14915 bytes, 6 tensors)

model/hidden_layers/0/W f4 [40, 40]
-0.024685835 -0.29747462 0.23914295 -0.5468689 0.013270782 0.07199794 0.028442955 0.043713167
0.06479483 0.080843545 -0.26749593 0.10120889 0.19490203 -0.24510023 0.33737564 0.033180255
0.054582536 0.14506394 0.2383158 0.079716176 -0.30669758 -0.49316433 -0.5398778 -0.46669945
0.0119096 -0.05365937 0.17156282 0.54119366 0.3003282 0.15617912 0.009673232 0.064665265
0.14126368 -0.009633545 0.3010858 0.047592912 -0.068529285 0.008366287 0.40087754 0.05694443
-0.048949122 0.82861435 0.58910006 -0.46939167 0.4154976 0.20803957 0.30295685 0.16327187
0.1325998 0.054489903 0.043725267 -0.09226639 -0.022071145 -0.14166452 -0.025508493 -0.34185567
-0.096184395 -0.22348683 0.014071383 -0.21822281 0.14255403 0.39512014 0.6060306 0.6928675
0.8012277 0.735005 0.83596563 0.63519984 0.6697306 0.2951079 0.29964966 0.022634301
0.08793359 0.083181545 0.4219556 0.05602841 0.28493765 0.2556492 0.32207 0.36907783
-0.0480314 0.058517233 -0.3269159 0.45059568 0.08022946 0.00042175743 -0.11369473 0.013500501
0.06723394 -7.110465e-06 0.036093522 -0.020084303 0.3270676 -0.0936435 0.029466523 -0.17632039
-0.3827 -0.33982712 -0.17716809 -0.28358337 0.050500005 -0.14376138 0.18961038 0.10559467
-0.06874038 -0.28876358 -0.002749782 0.40435183 0.10982521 -0.10674733 0.07293562 -0.15925615
0.17748615 -0.17769417 -0.018744625 -0.07633409 0.05085964 -0.23519424 -0.05476402 0.041111693
0.058653858 0.2146464 -0.3529679 -0.64100504 -0.03339595 0.12763192 -0.12108446 0.11080615
0.015416827 -0.045361977 0.24146523 0.105001934 -0.14120983 -0.4666201 -0.15277585 -0.4104704
-0.4989305 -0.56799954 -0.3357834 -0.4131532 -0.398878 -0.4979633 -0.13727766 -0.1954486
-0.0056363298 -0.3022416 0.07642931 0.05058958 -0.00078170747 0.17471531 -0.089684844 0.1456101
0.05088423 0.05794851 0.074313805 -0.29114854 -0.13772514 -0.13252129 -0.027781852 -0.28238693
-0.09763928 -0.32631683 0.28830102 -0.077586286 -0.1519518 0.2954849 0.24755996 -0.13243517
0.1257702 -0.0688536 0.035943978 0.120388746 -0.007624818 0.1905984 0.004805326 -0.02763955
0.030514909 0.3581676 -0.041468717 0.20671292 0.10648623 0.17558703 0.2466335 0.4997917
0.07792081 -0.2365751 0.117812656 -0.03001983 -0.26679403 -0.10169775 -0.10986234 0.22305918
0.11965847 0.45350868 -0.24155243 -0.05661664 0.08832449 0.110246725 0.16849716 0.18675917
-0.054736447 0.12519844 -0.22057061 -0.45411152 0.07410011 -0.23189144 -0.12787046 -0.23445733
0.09102727 0.19741626 0.17406112 -0.068989374 0.017369187 -0.12902427 -0.13580832 -0.1668791
0.13661183 0.02545938 0.07196815 -0.060840335 0.36658835 0.39786598 0.06356156 0.11467801
-0.1996257 -0.12747675 0.1892271 0.069555685 0.20896652 0.3813733 0.4711637 0.22818346
0.28693262 0.18312235 -0.045355786 -0.27937785 -0.019276423 0.07150789 0.19810851 0.1277125
-0.009655058 -0.04740492 -0.29467303 1.1723093 0.13097934 0.13934745 0.22481357 0.19834003
0.22963254 0.39982566 0.14231156 0.01336064 -0.1771845 0.031132873 -0.17898448 -0.1190672
00000000: f339 cabc 984e 98be e4e1 743e 9aff 0bbf
00000010: b26d 593c a873 933d 3301 e93c 940c 333d
00000020: 27b3 843d 4d91 a53d 3af5 88be 9b46 cf3d
00000030: 6694 473e 8efb 7abe 80bc ac3e 05e8 073d
00000040: f091 5f3d a48b 143e 0f09 743e 3c42 a33d
00000050: 7707 9dbe 0980 fcbe 6e35 0abf 3bf3 eebe
00000060: 7c20 433c edc9 5bbd 2aae 2f3e ab8b 0a3f
00000070: 9ec4 993e 6bed 1f3e 7a7c 1e3c 396f 843d
00000080: 6da7 103e 04d6 1dbc eb27 9a3e c9f0 423d
00000090: 1559 8cbd c012 093c d23f cd3e 903e 693d
000000a0: e07e 48bd 1220 543f 43cf 163f 1b54 f0be
000000b0: 1abc d43e 5308 553e 291d 9b3e be30 273e
000000c0: 3ec8 073e ce30 5f3d 4419 333d 29f6 bcbd
000000d0: 8cce b4bc 8110 11be 30f7 d0bc b507 afbe
000000e0: 53fc c4bd bbd9 64be a88b 663c cd75 5fbe
000000f0: aff9 113e 304d ca3e d224 1b3f c45f 313f
00000100: 421d 4d3f 4a29 3c3f d801 563f 759c 223f
00000110: 7773 2b3f 6218 973e ae6b 993e 926b b93c
00000120: 8716 b43d 165b aa3d 900a d83e 0c7e 653d
00000130: 59e3 913e 74e4 823e 5ce6 a43e c5f7 bc3e
00000140: 93bc 44bd c4af 6f3d 8561 a7be 7ab4 e63e
00000150: 584f a43d 531f dd39 c8d8 e8bd 3531 5d3c
00000160: f3b1 893d 6e96 eeb6 cdd6 133d d687 a4bc
00000170: 6875 a73e 2ac8 bfbd c763 f13c 558d 34be
00000180: 41f1 c3be d2fd adbe 8d6b 35be d731 91be
00000190: 18d9 4e3d 2f36 13be 3929 423e 0542 d83d
000001a0: c2c7 8cbd d2d8 93be b035 34bb 3407 cf3e
000001b0: 0aec e03d 589e dabd 455f 953d 0b14 23be
000001c0: eebe 353e 76f5 35be 548e 99bc 0c55 9cbd
000001d0: 3352 503d c2d6 70be 3d50 60bd bc64 283d
000001e0: 073f 703d 44cc 5b3e 35b8 b4be e818 24bf
000001f0: 31ca 08bd f1b1 023e 21fb f7bd 56ee e23d
00000200: dc96 7c3c 7bcd 39bd a942 773e 410b d73d
00000210: 4f99 10be d4e8 eebe 4671 1cbe 2d29 d2be
00000220: d273 ffbe 6b68 11bf cdeb abbe d188 d3be
00000230: bd39 ccbe 0cf5 febe 8492 0cbe ae23 48be
00000240: f6b0 b8bb 69bf 9abe f886 9c3d 0537 4f3d
00000250: 80eb 4cba 92e8 323e b0ac b7bd d01a 153e
00000260: fb6b 503d 6b5b 6d3d d631 983d 6c11 95be
00000270: d207 0dbe a9b3 07be c496 e3bc 0595 90be
00000280: 1af7 c7bd 0013 a7be 319c 933e 8fe5 9ebd
00000290: 4199 1bbe cc49 973e 5c80 7d3e 169d 07be
000002a0: e7c9 003e 1e03 8dbd fe39 133d 608e f63d
000002b0: 9cd9 f9bb 3a2c 433e ff75 9d3b 566c e2bc
000002c0: 67fa f93c be61 b73e 1adb 29bd 8dac 533e
000002d0: 7415 da3d 16cd 333e 7e8d 7c3e b3e4 ff3e
000002e0: f294 9f3d be40 72be c347 f13d 26ec f5bc
000002f0: 3a99 88be e946 d0bd 82ff e0bd a069 643e
00000300: 800f f53d 4a32 e83e 8559 77be dae6 67bd
00000310: 78e3 b43d 09c9 e13d 858a 2c3e cc3d 3f3e
00000320: 5333 60bd 0534 003e 43dd 61be 4e81 e8be
00000330: ccc1 973d f374 6dbe 79f0 02be 9515 70be
00000340: 816c ba3d 7d27 4a3e 143d 323e 4d4a 8dbd
00000350: d349 8e3c f01e 04be 5611 0bbe 5be2 2abe
00000360: f9e3 0b3e 3190 d03c 0a64 933d b733 79bd
00000370: 78b1 bb3e 17b5 cb3e 902c 823d 4edc ea3d
00000380: ae6a 4cbe 4489 02be c0c4 413e 3673 8e3d
00000390: 52fb 553e 5c43 c33e 5e3c f13e eda8 693e
000003a0: d5e8 923e 6d84 3b3e fdc6 39bd 9d0a 8fbe
000003b0: 97e9 9dbc bb72 923d f5dc 4a3e 11c7 023e
000003c0: 4030 1ebc a92b 42bd 62df 96be 3b0e 963f
000003d0: 731f 063e 19b1 0e3e 8735 663e a619 4b3e
000003e0: cb24 6b3e f3b5 cc3e 1fba 113e 96e6 5a3c
000003f0: db6f 35be 5e0a ff3c b547 37be 81d9 f3bd

model/hidden_layers/0/b f4 [40]
0.46964768 0.21859063 0.01716185 -0.5340443 0.5246108 0.80033135 -0.3079156 0.47481248
-0.5896798 0.82239413 -0.013050047 0.04783496 -0.24722491 0.27322957 0.036787596 0.06502811
-0.16629179 -0.5081525 0.33132026 0.109232955 0.07460597 0.31097198 -0.15339613 0.18746158
0.12638983 -0.36110935 -0.5097972 -0.018481294 0.07665668 0.039752923 0.041338127 0.18242507
0.05062017 0.5629996 -0.5003402 0.19377412 -0.089958824 -0.30405146 0.044027828 0.18525328
00000000: a975 f03e 39d6 5f3e 0297 8c3c 21b7 08bf
00000010: e54c 063f 84e2 4c3f 1da7 9dbe 9f1a f33e
00000020: 41f5 16bf 6c88 523f ddcf 55bc 97ee 433d
00000030: 8728 7dbe bfe4 8b3e 97ae 163d 752d 853d
00000040: 6548 2abe 4816 02bf cfa2 a93e 87b5 df3d
00000050: 04cb 983d b837 9f3e e013 1dbe eef5 3f3e
00000060: 566c 013e 53e3 b8be 1282 02bf 1566 97bc
00000070: 2dfe 9c3d f6d3 223d 2b52 293d a3cd 3a3e
00000080: 1857 4f3d be20 103f 4c16 00bf b96c 463e
00000090: 553c b8bd a2ac 9bbe 8656 343d 09b3 3d3e

model/hidden_layers/1/W f4 [40, 40]
-0.010749031 0.48813614 -0.36179215 0.2577529 0.22320932 0.13562351 0.2232195 0.026056651
-0.12601677 0.10989798 -0.027487576 -0.061777063 0.42159763 0.031311106 -0.09014882 -0.12279189
0.08736359 0.35862094 0.07383917 -0.044268396 -0.3870656 -0.13500842 -0.26443803 0.49453038
0.6295898 0.10172322 -0.020853044 -0.60507435 0.032927446 0.041149516 0.13651817 0.24719827
0.4444714 0.03737884 0.16560093 -0.28062242 0.27875537 -0.039157744 0.27990073 -0.24417749
0.092987016 0.25423953 -0.101183265 -0.12314346 0.06945968 -0.538399 0.4724259 0.21820024
0.3873993 -0.5069396 -0.21016589 -0.241377 0.25267124 0.11127634 -0.25344408 -0.20370047
0.18107481 0.17219138 -0.34060505 0.020640124 -0.27414185 0.21763614 0.11589281 -0.16567062
0.14049426 0.3717689 0.21737835 -0.051024556 -0.08710116 0.43855727 -0.31664225 -0.033490308
0.37827295 -0.5687376 0.0075073605 0.30496857 0.53579926 -0.13061273 0.10348061 -0.20119342
0.31553555 -0.57599837 -0.06365842 0.060031913 -0.2826365 0.02648487 -0.23788062 0.49131545
0.23226084 0.08231387 0.21879797 0.05727938 -0.49291828 0.046489213 0.07367861 -0.12163283
-0.19247817 -0.6664803 0.14698754 -0.11209392 0.23414698 0.7033044 -0.19108759 0.096360855
-0.3290831 -0.0633022 0.034320068 0.59778523 -0.13973804 0.0061720056 -0.40027 -0.30141658
-1.1713598 -0.059220247 0.38875633 -0.2638486 -0.81918585 -0.5733981 0.030203236 0.7216777
0.012152995 0.14866143 -0.028743919 0.1747128 -0.40445763 -0.2572371 0.48754427 0.072822206
0.18620062 -0.58347887 -0.23867749 -0.07337982 0.17403597 -0.06486045 -0.07690507 0.037972484
0.124093495 0.09900188 -0.20949055 -0.029863277 -0.10558377 -0.0838143 -0.010000545 -0.4930431
-0.30300567 0.2972395 0.25062853 0.15880287 0.09602127 0.21786016 0.124520384 -0.32127103
-0.093982376 -0.15992333 0.17876433 0.14952059 0.21734321 0.050854065 0.09400668 0.07030446
-0.070210844 0.7799912 0.20182978 0.077478446 -0.12340645 0.45066324 -0.0029508474 -0.0067331046
0.19580439 0.034375824 -0.19308919 0.14027242 0.3714873 0.0053142426 0.04205781 -0.10129678
-0.51911515 0.09525901 0.32935107 -0.30065706 -0.35004583 -0.20317921 -0.3860683 -0.24799919
0.49024197 0.13843648 -0.63117164 -0.6473872 -0.14647439 -0.1288369 0.1957565 0.05169746
0.22657332 -0.1375707 -0.207782 -0.15969741 0.7327874 -0.059612844 0.25472364 -0.32601365
-0.358138 -0.3445814 0.12594885 0.010335985 0.15851186 -0.34388787 0.29750213 -0.41449958
0.33368433 -0.45609495 -0.1979773 -0.09753909 0.10028283 -0.04118361 -0.12323733 0.14084847
0.46821782 0.3021631 -0.20742585 0.024462948 -0.030685276 0.036461186 -0.07489507 0.087576374
-0.0044029723 0.305905 0.23814012 0.049144633 -0.1384665 -0.13556318 -0.0051686214 -0.17505506
-0.121289514 -0.4049843 0.2542543 -0.13400275 0.123025544 0.32290277 -0.027028102 -0.14531265
0.15820552 -0.24437858 0.23740798 -0.35167283 0.53804076 0.12131587 -0.015213251 0.18805102
0.027277254 0.32870162 0.08686695 -0.18884459 0.07417369 0.4374286 -0.116017476 0.094872795
00000000: b41c 30bc fbec f93e d23c b9be 30f8 833e
00000010: fc90 643e e4e0 0a3e a793 643e c274 d53c
00000020: 8a0a 01be 3112 e13d a02d e1bc f209 7dbd
00000030: a5db d73e 1340 003d f29f b8bd 507a fbbd
00000040: afeb b23d 2a9d b73e fe38 973d c752 35bd
00000050: 762d c6be a63f 0abe 6c64 87be 1633 fd3e
00000060: cc2c 213f 4354 d03d 01d4 aabc 27e6 1abf
00000070: eede 063d 658c 283d 6bcb 0b3e 8b21 7d3e
00000080: c191 e33e 8e1a 193d 4a93 293e bead 8fbe
00000090: 06b9 8e3e df63 20bd 264f 8f3e aa09 7abe
000000a0: fa6f be3d af2b 823e 2c39 cfbd a332 fcbd
000000b0: e040 8e3d 84d4 09bf cfe1 f13e e26f 5f3e
000000c0: 3359 c63e cbc6 01bf ba35 57be 882b 77be
000000d0: 205e 813e dae4 e33d 6cc3 81be db96 50be
000000e0: ad6b 393e f052 303e c963 aebe 7a15 a93c
000000f0: 525c 8cbe 02dc 5e3e 3659 ed3d 8fa5 29be
00000100: badd 0f3e 7e58 be3e 6e98 5e3e 20ff 50bd
00000110: 1862 b2bd 948a e03e ef1e a2be 222d 09bd
00000120: feac c13e ca98 11bf 4e00 f63b d724 9c3e
00000130: 242a 093f 58bf 05be a4ed d33d a605 4ebe
00000140: e08d a13e a174 13bf 595f 82bd 06e4 753d
00000150: bbb5 90be ccf6 d83c fa96 73be b38d fb3e
00000160: c9d5 6d3e 2d94 a83d 930c 603e c89d 6a3d
00000170: c95f fcbe 796b 3e3d d0e4 963d a21a f9bd
00000180: ff18 45be 749e 2abf e783 163e 7f91 e5bd
00000190: 3ac4 6f3e c20b 343f 77ac 43be d758 c53d
000001a0: 957d a8be 95a4 81bd 3393 0c3d 7408 193f
000001b0: 7d17 0fbe 893e ca3b 30f0 ccbe 4653 9abe
000001c0: 1eef 95bf ee90 72bd 120b c73e 2a17 87be
000001d0: 2ab6 51bf 38ca 12bf c76c f73c dfbf 383f
000001e0: 5b1d 473c b43a 183e 5e78 ebbc eae7 323e
000001f0: 1215 cfbe 95b4 83be 679f f93e cf23 953d
00000200: 60ab 3e3e df5e 15bf df67 74be 2948 96bd
00000210: 7c36 323e 8ed5 84bd 6880 9dbd 0989 1b3d
00000220: bb24 fe3d 7fc1 ca3d b184 56be d5a3 f4bc
00000230: 4e3c d8bd d5a6 abbd 53d9 23bc 2570 fcbe
00000240: 8f23 9bbe c72f 983e 6252 803e 389d 223e
00000250: cda6 c43d bc16 5f3e 8b04 ff3d a37d a4be
00000260: d579 c0bd f1c2 23be ff0d 373e ed1b 193e
00000270: 388f 5e3e 5a4c 503d 9386 c03d c9fb 8f3d
00000280: b4ca 8fbd 81ad 473f 77ac 4e3e 05ad 9e3d
00000290: 85bc fcbd 55bd e63e 0163 41bb 60a1 dcbb
000002a0: f280 483e aacd 0c3d 2cb9 45be 93a3 0f3e
000002b0: 9533 be3e 1923 ae3b cf44 2c3d b074 cfbd
000002c0: bbe4 04bf 2817 c33d b4a0 a83e b9ef 99be
000002d0: 3539 b3be 360e 50be bfaa c5be 80f3 7dbe
000002e0: ff00 fb3e 4bc2 0d3e 7794 21bf 2bbb 25bf
000002f0: 62fd 15be d2ed 03be 6474 483e b7c0 533d
00000300: d602 683e 55df 0cbe cec4 54be b887 23be
00000310: f497 3b3f 992c 74bd 236b 823e 43eb a6be
00000320: dd5d b7be f96c b0be bcf8 003e 4358 293c
00000330: ef50 223e 1212 b0be 3352 983e 4a39 d4be
00000340: acd8 aa3e 4785 e9be 90ba 4abe 93c2 c7bd
00000350: 1661 cd3d 25b0 28bd da63 fcbd 953a 103e
00000360: 3fba ef3e 1fb5 9a3e 7167 54be 8566 c83c
00000370: b05f fbbc 5358 153d 9662 99bd 3e5b b33d
00000380: cf46 90bb 959f 9c3e 01db 733e e24b 493d
00000390: 2aca 0dbe 13d1 0abe 8a5d a9bb a241 33be
000003a0: a366 f8bd 1a5a cfbe 9f2d 823e 0438 09be
000003b0: d1f4 fb3d 8353 a53e 0a6a ddbc d7cc 14be
000003c0: a100 223e 613e 7abe 141b 733e 760e b4be
000003d0: 0abd 093f 7474 f83d 0041 79bc 7290 403e
000003e0: 8c74 df3c 944b a83e 4de7 b13d 7a60 41be
000003f0: 60e8 973d a4f6 df3e 929a edbd ab4c c23d

model/hidden_layers/1/b f4 [40]
0.019038636 -0.15670107 0.111769065 -0.17281705 0.06886868 -0.31094378 0.045100316 -0.029746065
-0.15693073 -0.010298983 -0.009248827 -0.1419442 0.2681831 -0.099912226 0.0077014025 -0.14204691
0.14504726 -0.03370516 -0.11221043 -0.0290005 -0.021746943 0.050145857 0.07978969 -0.04248881
0.007781463 -0.039012734 -0.0018385632 0.1331728 0.09655195 0.104828686 0.009785927 -0.021830836
0.0023645647 0.06504223 0.07418443 -0.076612145 -0.09528421 0.04234798 -0.18639441 -0.008433828
00000000: eaf6 9b3c 3f76 20be 2ee7 e43d f4f6 30be
00000010: 060b 8d3d 0634 9fbe 1cbb 383d 05ae f3bc
00000020: 73b2 20be 11bd 28bc 6488 17bc d259 11be
00000030: 4c4f 893e c89e ccbd 0c5c fc3b bf74 11be
00000040: 4587 143e 6c0e 0abd 95ce e5bd 7592 edbc
00000050: a526 b2bc be65 4d3d c768 a33d bf08 2ebd
00000060: a5fb fe3b d1cb 1fbd f2fb f0ba 735e 083e
00000070: 07bd c53d 6cb0 d63d 2755 203c 95d6 b2bc
00000080: d0f6 1a3b dc34 853d 02ee 973d d4e6 9cbd
00000090: 5e24 c3bd 1375 2d3d 2dde 3ebe 0a2e 0abc

model/output/W f4 [9, 40]
0.5324125 0.6405403 -0.8067146 0.28923085 0.42152634 0.54002494 -0.42021707 -0.07207266
0.37095118 0.096760444 0.44630852 0.3712051 -0.40335366 0.40271685 0.30633438 0.23384686
-0.15285656 0.36799446 0.09453312 -0.31261015 0.21231441 -0.5165303 0.31844398 -0.15319636
0.054574687 -0.3870579 -0.52033734 -0.2995248 -0.18312846 -0.22140078 -0.61055416 0.3917877
0.3964442 -0.04119417 0.31044263 0.77056307 -0.0073131337 -0.3627513 0.40018386 0.28613937
0.09750418 0.49671757 -0.91287154 0.4008937 0.4342153 0.5112871 -0.24942347 -0.037483588
0.33560717 0.033580087 0.5594217 0.43143034 -0.56292737 0.19924498 0.21276335 0.32723257
-0.2507092 0.5604493 -0.37180352 -0.6093686 0.002367884 -0.28588045 0.32566196 0.10671745
0.18944502 -0.295833 -0.3296665 -0.47741944 -0.1866362 -0.5238681 -0.5045663 0.5420065
0.28679973 -0.029010594 0.08400047 0.666021 0.11280115 -0.46291736 0.5382402 0.19800247
0.57261413 0.45029444 -0.67329437 0.4669372 0.6326146 0.65148664 -0.41315144 -0.2939947
0.26530364 0.10931652 0.48532283 0.36152348 -0.41119412 0.29835796 0.21841963 0.38133398
-0.27219552 0.42032826 0.08973016 -0.14642595 0.092466734 -0.325966 0.26087093 -0.03503532
0.15685289 -0.28507173 -0.56297296 -0.43624344 -0.1642497 -0.13232724 -0.6337652 0.47464398
0.3970833 -0.07732174 0.18499495 0.62146604 0.11039694 -0.5372158 0.42923984 0.36711377
0.50150156 0.46344045 -0.5134851 0.49887 0.561348 0.32484567 -0.28024358 0.051164873
0.23648912 0.21847278 0.460783 0.5552027 -0.28222907 0.3310195 -0.27986553 0.28120893
-0.27721754 0.54683614 -0.12466169 -0.68811697 0.26709142 -0.38202944 0.16649136 -0.2962491
0.15435472 -0.19745429 -0.67085886 -0.17039575 -0.16924019 -0.3351302 -0.47954428 0.48922688
0.37514848 0.23430844 0.3983851 0.9250448 -0.14575458 0.12353038 0.53522974 0.49370494
0.24413149 0.5937634 -0.7036064 0.37364888 0.41748628 0.64435256 -0.3665807 -0.31832644
0.30931795 0.15816998 0.48227096 0.44918 -0.37243667 0.32213235 -0.032518614 0.30925384
-0.34927726 0.5799843 -0.030874282 -0.3834611 0.21214692 -0.35407978 0.23573448 -0.0676215
0.097198255 -0.595119 -0.4158556 -0.27540848 -0.20574361 -0.18624541 -0.619893 0.38869137
0.092950225 -0.025539516 0.22017644 0.83283377 -0.12396009 -0.51874673 0.41334993 0.2837
0.2775325 0.53101295 -1.0558144 0.14716288 0.24858661 0.5095026 -0.40203756 -0.09806488
0.441806 0.13199893 0.5208813 0.36115283 -0.48286638 0.22494908 -0.038832974 0.27766445
-0.25661117 0.31537855 -0.60535336 -0.9814252 0.1114958 -0.39962983 0.54301 -0.08880204
0.24111146 -0.81841147 -0.16090256 -0.44091216 0.02542981 -0.5031573 -0.57100534 -0.04158718
0.27578798 -0.12718238 0.083972245 0.43517467 0.27431548 -0.56553257 0.57677406 0.13393967
0.331231 0.65967864 -0.7647763 0.39454696 0.5652498 0.22235669 -0.20623198 0.22387186
0.25330013 0.094675794 0.48711264 0.5839393 -0.51039636 0.31730175 0.024216961 0.19349188
00000000: 304c 083f 73fa 233f d984 4ebf 1116 943e
00000010: 4dd2 d73e 133f 0a3f b126 d7be d59a 93bd
00000020: 50ed bd3e 572a c63d 8d82 e43e 980e be3e
00000030: 5f84 cebe e730 ce3e dcd7 9c3e 8d75 6f3e
00000040: 6e86 1cbe c569 bc3e 959a c13d 700e a0be
00000050: f368 593e 543b 04bf 170b a33e 82df 1cbe
00000060: b589 5f3d 742c c6be d434 05bf 515b 99be
00000070: 0786 3bbe e3b6 62be 474d 1cbf 6698 c83e
00000080: bcfa ca3e 38bb 28bd 56f2 9e3e 9f43 453f
00000090: 03a3 efbb 8aba b9be e6e4 cc3e dc80 923e
000000a0: 46b0 c73d c451 fe3e f3b1 69bf f041 cd3e
000000b0: 7851 de3e b6e3 023f de68 7fbe 6488 19bd
000000c0: b4d4 ab3e 468b 093d 4336 0f3f 70e4 dc3e
000000d0: 021c 10bf e006 4c3e a3de 593e 078b a73e
000000e0: f55c 80be 9b79 0f3f 085d bebe 95ff 1bbf
000000f0: 802e 1b3b ec5e 92be 2abd a63e ae8e da3d
00000100: e0fd 413e 6c77 97be 0cca a8be 5270 f4be
00000110: 8f1d 3fbe 381c 06bf 422b 01bf f0c0 0a3f
00000120: 6ad7 923e a0a7 edbc 7008 ac3d 5a80 2a3f
00000130: 4a04 e73d 8103 edbe 1cca 093f 29c1 4a3e
00000140: d796 123f fe8c e63e 055d 2cbf 6512 ef3e
00000150: 08f3 213f d4c7 263f 9688 d3be 7986 96be
00000160: e1d5 873e 57e1 df3d 3c7c f83e 9b19 b93e
00000170: 0988 d2be 60c2 983e 65a9 5f3e 353e c33e
00000180: 365d 8bbe 4435 d73e 72c4 b73d aff0 15be
00000190: 335f bd3d 04e5 a6be e090 853e 3281 0fbd
000001a0: 0b9e 203e ecf4 91be ff1e 10bf 4d5b dfbe
000001b0: 1331 28be cb80 07be 703e 22bf 8904 f33e
000001c0: 814e cb3e dc5a 9ebd 516f 3d3e 6618 1f3f
000001d0: ca17 e23d fa86 09bf 53c5 db3e 56f6 bb3e
000001e0: 6862 003f 1148 ed3e c273 03bf e36b ff3e
000001f0: 81b4 0f3f 2c52 a63e 167c 8fbe 4292 513d
00000200: 342a 723e 54b7 5f3e c0eb eb3e c421 0e3f
00000210: 5480 90be 637b a93e 894a 8fbe 9efa 8f3e
00000220: 75ef 8dbe 74fd 0b3f a14e ffbd 6f28 30bf
00000230: 35c0 883e 5d99 c3be b67c 2a3e f6ad 97be
00000240: 2a0f 1e3e 7531 4abe 68bd 2bbf 397c 2ebe
00000250: 4d4d 2dbe 3096 abbe d486 f5be f27b fa3e
00000260: 7613 c03e 8dee 6f3e 22f9 cb3e bccf 6c3f
00000270: b040 15be 7ffd fc3d d104 093f e5c6 fc3e
00000280: 9bfd 793e e100 183f 8d1f 34bf e84e bf3e
00000290: c3c0 d53e 4af4 243f 77b0 bbbe affb a2be
000002a0: ec5e 9e3e 50f7 213e 38ec f63e ecfa e53e
000002b0: 05b0 bebe 88ee a43e 3d32 05bd 8556 9e3e
000002c0: 78d4 b2be da79 143f 10ec fcbc 0355 c4be
000002d0: 0b3d 593e f249 b5be 6164 713e 247d 8abd
000002e0: e10f c73d b859 18bf 06eb d4be 5702 8dbe
000002f0: 74ae 52be 1eb7 3ebe 4fb1 1ebf 8e02 c73e
00000300: b05c be3d 3f38 d1bc ef75 613e 9834 553f
00000310: cade fdbd 96cc 04bf 9aa2 d33e 2041 913e
00000320: bd18 8e3e 77f0 073f ed24 87bf deb1 163e
00000330: 7d8d 7e3e c36e 023f ded7 cdbe 3dd6 c8bd
00000340: 6534 e23e ba2a 073e 7a58 053f 06e9 b83e
00000350: 433a f7be 0d59 663e 530f 1fbd 092a 8e3e
00000360: 8a62 83be 4c79 a13e 70f8 1abf af3e 7bbf
00000370: e957 e43d 489c ccbe b402 0b3f d8dd b5bd
00000380: ece5 763e 6a83 51bf a4c3 24be 3dbf e1be
00000390: 2d52 d03c ebce 00bf 682d 12bf 5257 2abd
000003a0: 1534 8d3e 193c 02be a4f9 ab3d 37cf de3e
000003b0: 1473 8c3e bec6 10bf 77a7 133f 7b27 093e
000003c0: 1c97 a93e b3e0 283f 61c8 43bf 0f02 ca3e
000003d0: 36b4 103f 79b1 633e 7a2e 53be aa3e 653e
000003e0: 8eb0 813e 62e5 c13d d466 f93e 0c7d 153f
000003f0: 56a9 02bf 6075 a23e a662 c63c bc22 463e

model/output/b f4 [9]
-0.04584676 0.10996949 0.04228488 0.043888886 0.033809178 0.00104541 -0.0037205927 0.13576353
0.06169017
00000000: d0c9 3bbd af37 e13d e932 2d3d d5c4 333d
00000010: 7e7b 0a3d 2406 893a 30d5 73bb 9805 0b3e
00000020: d5ae 7c3d
