python/results/2017_12_22_10_38_44/agent800/target_model.npz (npz, 14924 bytes, 6 tensors)

model/hidden_layers/0/W f4 [40, 40]
-0.024276989 -0.29756808 0.24005912 -0.54704297 0.014112917 0.073156714 0.029156564 0.042795885
0.064862914 0.08097773 -0.26735368 0.10129452 0.19494782 -0.24514431 0.33725014 0.03309798
0.05493488 0.14573057 0.23832376 0.07986067 -0.3063969 -0.49263254 -0.5392744 -0.46601605
0.012541256 -0.052955195 0.17188 0.54121983 0.30038083 0.15621696 0.009702519 0.06473894
0.14134611 -0.009559535 0.30115184 0.047668554 -0.06844173 0.008629582 0.40154925 0.0577275
-0.047033425 0.8278683 0.5893242 -0.46914697 0.4159908 0.2084349 0.30340388 0.16377681
0.13298886 0.05481252 0.043991372 -0.0919624 -0.021692352 -0.14115408 -0.024842767 -0.34120214
-0.09566175 -0.22310337 0.014370456 -0.21799289 0.14279258 0.39533213 0.6061727 0.69297326
0.8013109 0.7350031 0.83599454 0.6353334 0.66983426 0.29524484 0.29979122 0.022748614
0.08806191 0.08334326 0.42218682 0.056317907 0.28540424 0.25620234 0.32275128 0.3696319
-0.04933258 0.058534276 -0.326625 0.45021603 0.0803468 0.0006152759 -0.11358311 0.01351067
0.06714189 -4.0092287e-05 0.03602905 -0.020134175 0.32700294 -0.0937464 0.029350363 -0.17643642
-0.38273513 -0.339776 -0.17722552 -0.2836728 0.050393283 -0.14375055 0.18977228 0.10576792
-0.068694204 -0.28875408 -0.0027892704 0.40426323 0.10980486 -0.10672771 0.07296266 -0.15922761
0.17749424 -0.17769869 -0.018765815 -0.0764261 0.05073468 -0.23533325 -0.054901656 0.041035384
0.058425467 0.21404982 -0.3533567 -0.642218 -0.033605438 0.12715635 -0.121536694 0.11165899
0.015594515 -0.045145776 0.24152532 0.10505554 -0.141176 -0.46659416 -0.15274414 -0.41046128
-0.4989824 -0.5683086 -0.3355641 -0.41330624 -0.3989906 -0.4979985 -0.13711043 -0.19528285
-0.005704335 -0.30258062 0.07658746 0.051016375 -0.00056956836 0.17476606 -0.08966575 0.145549
0.05086771 0.05793786 0.074270666 -0.29129457 -0.13778126 -0.13245021 -0.028186467 -0.28280056
-0.09801602 -0.32599643 0.28859678 -0.07779845 -0.15210474 0.2953833 0.24746212 -0.13275643
0.12551032 -0.06893897 0.03582039 0.12027699 -0.0076851286 0.19050318 0.0046912455 -0.027757164
0.030527411 0.35823718 -0.041565694 0.20656163 0.10623725 0.17528133 0.24623582 0.49971703
0.07791644 -0.23652202 0.11763908 -0.03039043 -0.267102 -0.10182599 -0.10996429 0.22299509
0.11960508 0.45347303 -0.24157028 -0.056661293 0.08823375 0.11027533 0.16860056 0.18689273
-0.055377275 0.12561266 -0.22014327 -0.4544282 0.07391876 -0.23187713 -0.12781502 -0.23521179
0.09107534 0.19756094 0.17402333 -0.06912336 0.017252365 -0.12919176 -0.13604935 -0.16719934
0.13662829 0.025716959 0.07137419 -0.061142016 0.36629918 0.39771968 0.06337158 0.11465787
-0.19962682 -0.12730637 0.18902637 0.06920216 0.20872694 0.38112223 0.4709225 0.22805579
0.28682965 0.18301612 -0.045470927 -0.2795358 -0.019623572 0.07120085 0.19811343 0.1277936
-0.010131032 -0.04764844 -0.29592514 1.1720781 0.13023816 0.13863246 0.22444119 0.19978382
0.22967309 0.39976054 0.14220732 0.013385411 -0.17712595 0.031273477 -0.17876825 -0.11888084
00000000: 89e0 c6bc d85a 98be 0fd2 753e 020b 0cbf
00000010: dd39 673c 30d3 953d bfd9 ee3c bd4a 2f3d
00000020: d9d6 843d a7d7 a53d 95e2 88be 8073 cf3d
00000030: 67a0 473e 1c07 7bbe 0dac ac3e bf91 073d
00000040: 6603 613d 653a 153e 250b 743e fe8d a33d
00000050: 0ee0 9cbe 553a fcbe e30d 0abf a899 eebe
00000060: d779 4d3c 8ce7 58bd 5001 303e 628d 0a3f
00000070: 84cb 993e 57f7 1f3e 50f7 1e3c d995 843d
00000080: 09bd 103e 999f 1cbc 9330 9a3e 1a40 433d
00000090: 2e2b 8cbd 1763 0d3c dd97 cd3e ac73 6c3d
000000a0: 1fa6 40bd 2def 533f f3dd 163f 0834 f0be
000000b0: bffc d43e f56f 553e c157 9b3e 1cb5 273e
000000c0: 3b2e 083e 1883 603d 4c30 343d c856 bcbd
000000d0: 29b4 b1bc b28a 10be 0f83 cbbc 0cb2 aebe
000000e0: 4fea c3bd 3675 64be 1072 6b3c 8739 5fbe
000000f0: 3838 123e f968 ca3e 222e 1b3f b266 313f
00000100: b622 4d3f 2a29 3c3f bd03 563f 36a5 223f
00000110: 427a 2b3f 552a 973e 3c7e 993e 4d5b ba3c
00000120: cd59 b43d dfaf aa3d df28 d83e 9bad 663d
00000130: 8120 923e f42c 833e a83f a53e 6440 bd3e
00000140: f610 4abd a3c1 6f3d 643b a7be b782 e63e
00000150: dd8c a43d 774a 213a 439e e8bd db5b 5d3c
00000160: b081 893d c428 28b8 3293 133d 6df0 a4bc
00000170: ee6c a73e 1dfe bfbd 2c70 f03c c0ab 34be
00000180: dcf5 c3be 1ff7 adbe 9b7a 35be 903d 91be
00000190: 3069 4e3d 5833 13be aa53 423e da9c d83d
000001a0: 8caf 8cbd 93d7 93be 31cc 36bb 97fb ce3e
000001b0: 5fe1 e03d 0f94 dabd 726d 953d 900c 23be
000001c0: 0dc1 353e a5f6 35be c4ba 99bc 4a85 9cbd
000001d0: 2bcf 4f3d 33fb 70be 8fe0 60bd b814 283d
000001e0: 8b4f 6f3d e02f 5b3e 2beb b4be 6668 24bf
000001f0: dba5 09bd 4635 023e 3be8 f8bd 78ad e43d
00000200: 2380 7f3c c7ea 38bd 6a52 773e 5c27 d73d
00000210: 7190 10be 6ee5 eebe f668 1cbe fb27 d2be
00000220: 9f7a ffbe ac7c 11bf 0fcf abbe e09c d3be
00000230: 7f48 ccbe a9f9 febe ad66 0cbe 3af8 47be
00000240: 6eeb babb d9eb 9abe e3d9 9c3d 8cf6 503d
00000250: 164f 15ba e0f5 323e ada2 b7bd cc0a 153e
00000260: a95a 503d 4050 6d3d 381b 983d 9024 95be
00000270: 8816 0dbe 07a1 07be 4ee7 e6bc 3ccb 90be
00000280: a0bc c8bd 01e9 a6be f5c2 933e cb54 9fbd
00000290: 58c1 1bbe 7b3c 973e b666 7d3e 4df1 07be
000002a0: c785 003e e02f 8dbd 67b8 123d c853 f63d
000002b0: 88d3 fbbb 4413 433e 05b9 993b fe62 e3bc
000002c0: 9f14 fa3c dd6a b73e ca40 2abd e484 533e
000002d0: ea92 d93d f37c 333e 3e25 7c3e e9da ff3e
000002e0: a892 9f3d d432 72be c2ec f03d 5af5 f8bc
000002f0: 98c1 88be 258a d0bd f534 e1bd d358 643e
00000300: 82f3 f43d 9e2d e83e 335e 77be ac15 68bd
00000310: e5b3 b43d 08d8 e13d a0a5 2c3e cf60 3f3e
00000320: 48d3 62bd 9ba0 003e 3d6d 61be d0aa e8be
00000330: b862 973d 3371 6dbe f1e1 02be 5cdb 70be
00000340: b585 ba3d 6a4d 4a3e 2c33 323e 8c90 8dbd
00000350: d554 8d3c d84a 04be 8550 0bbe 4e36 2bbe
00000360: 49e8 0b3e 5fac d23c a22c 923d 0d70 7abd
00000370: 918b bb3e eaa1 cb3e f5c8 813d bfd1 ea3d
00000380: f96a 4cbe 9a5c 02be 2190 413e ddb9 8d3d
00000390: 84bc 553e 7422 c33e c11c f13e 7587 693e
000003a0: 56db 923e 9468 3b3e b93f 3abd 511f 8fbe
000003b0: 9dc1 a0bc c0d1 913d 3fde 4a3e 53dc 023e
000003c0: a1fc 25bc 032b 43bd 8083 97be a806 963f
000003d0: 275d 053e abf5 0d3e e9d3 653e 2194 4c3e
000003e0: 6c2f 6b3e 6aad cc3e cc9e 113e 7c4e 5b3c
000003f0: 8160 35be 9e18 003d 060f 37be cc77 f3bd

model/hidden_layers/0/b f4 [40]
0.4700748 0.21977273 0.017035937 -0.53390455 0.5241849 0.7997474 -0.30825093 0.47462994
-0.59019005 0.8218804 -0.013557811 0.04793667 -0.24765979 0.2729453 0.0366041 0.065075345
-0.16642079 -0.50852525 0.33111328 0.109772205 0.07424271 0.31048214 -0.15318498 0.18778539
0.12703125 -0.3607771 -0.51020455 -0.019010868 0.07690213 0.040294763 0.041605365 0.18256786
0.049659796 0.562502 -0.5004088 0.1937217 -0.08974865 -0.3042635 0.044355758 0.18494667
00000000: a5ad f03e 1a0c 613e f38e 8b3c f8ad 08bf
00000010: fb30 063f 3fbc 4c3f 11d3 9dbe b202 f33e
00000020: b216 17bf c166 523f 9521 5ebc 3e59 443d
00000030: 879a 7dbe 7dbf 8b3e 2eee 153d 3946 853d
00000040: 366a 2abe b62e 02bf ae87 a93e 40d0 e03d
00000050: 900c 983d 84f7 9e3e 86dc 1cbe d04a 403e
00000060: 7b14 023e c7b7 b8be c49c 02bf aebc 9bbc
00000070: dd7e 9d3d 1f0c 253d 636a 2a3d 12f3 3a3e
00000080: 1268 4b3d 2200 103f cb1a 00bf fb5e 463e
00000090: 24ce b7bd 6dc8 9bbe 62ae 353d a962 3d3e

model/hidden_layers/1/W f4 [40, 40]
-0.010581436 0.48806083 -0.36177453 0.25777444 0.22342746 0.13587151 0.22314885 0.026157618
-0.12610266 0.109957695 -0.027473949 -0.061799902 0.42143735 0.03142844 -0.090151764 -0.1228326
0.087278396 0.35857317 0.07386261 -0.04425405 -0.38719198 -0.13478924 -0.26449093 0.4945885
0.6294521 0.10169946 -0.020949887 -0.6048537 0.032974675 0.04129571 0.13642825 0.24709506
0.4444876 0.037401706 0.16551827 -0.28042683 0.27874458 -0.039193753 0.27996823 -0.24407342
0.093240574 0.25410062 -0.101258814 -0.12232366 0.069114335 -0.5384185 0.47197798 0.21782185
0.38789165 -0.50669575 -0.20996872 -0.24151377 0.25208095 0.11099738 -0.25356153 -0.20358771
0.18096183 0.17260541 -0.3404773 0.020183872 -0.27380353 0.21741512 0.11620148 -0.1661371
0.14039621 0.37220663 0.21716304 -0.0508601 -0.08698726 0.43844348 -0.3170732 -0.033499762
0.378357 -0.5684498 0.007790471 0.30514765 0.53583044 -0.13028109 0.10370603 -0.20122346
0.3156657 -0.57558316 -0.06372729 0.06004896 -0.28256652 0.026643546 -0.23794039 0.49158952
0.232322 0.08249241 0.21855173 0.057327714 -0.492742 0.046523076 0.07384615 -0.121678144
-0.1925292 -0.666722 0.14682147 -0.11212647 0.23390436 0.7033649 -0.1912728 0.09636572
-0.32863784 -0.06317993 0.034182757 0.59768796 -0.13971408 0.006131537 -0.4001858 -0.30109057
-1.1716479 -0.059366956 0.38848773 -0.2640234 -0.81898487 -0.573606 0.030191751 0.72161925
0.012116847 0.14881672 -0.028874118 0.17490156 -0.40445393 -0.25697958 0.48750404 0.07254566
0.18604632 -0.5833689 -0.23869741 -0.07359716 0.17424786 -0.06500329 -0.077152796 0.03814649
0.12373 0.09922214 -0.20946555 -0.03027364 -0.105482794 -0.08375039 -0.009953151 -0.4934222
-0.3030298 0.29741132 0.2501572 0.15893991 0.096288614 0.2179075 0.12407345 -0.32116023
-0.09356491 -0.15986404 0.17895277 0.14977215 0.21748959 0.05114673 0.09440589 0.07018583
-0.07007964 0.7799973 0.20179573 0.07738677 -0.12327853 0.45073953 -0.002951397 -0.006700593
0.19570725 0.034439694 -0.19313234 0.14020653 0.37140697 0.0053421212 0.041978978 -0.1012712
-0.5192396 0.09526462 0.32931972 -0.3007336 -0.35000864 -0.20305906 -0.38607246 -0.24802527
0.4901464 0.13832213 -0.6312434 -0.64729494 -0.14637621 -0.12876132 0.19563393 0.051659968
0.22668585 -0.13759509 -0.20776176 -0.15963165 0.73277634 -0.059601948 0.2548394 -0.32596728
-0.3583439 -0.3449615 0.12632819 0.010938995 0.15893145 -0.34345248 0.29747763 -0.41419286
0.33379397 -0.45607528 -0.19768003 -0.09719548 0.10064677 -0.040795945 -0.12286163 0.14049557
0.46849343 0.30214936 -0.20691246 0.024679357 -0.031040618 0.036727123 -0.07552989 0.08779944
-0.0046321205 0.30628827 0.23796405 0.04950903 -0.13871641 -0.13522927 -0.0049659354 -0.17537992
-0.12167096 -0.40455386 0.25395662 -0.133558 0.12355001 0.32254365 -0.027277173 -0.14511566
0.15830643 -0.24398078 0.23690215 -0.35225636 0.53762585 0.120695814 -0.014965118 0.18778686
0.027025051 0.3286959 0.08644065 -0.18929952 0.07399076 0.4370059 -0.11644024 0.09529037
00000000: c25d 2dbc 1ce3 f93e 833a b9be 03fb 833e
00000010: 2bca 643e e721 0b3e 2281 643e 8048 d63c
00000020: 0e21 01be 8031 e13d 0c11 e1bc e521 7dbd
00000030: a3c6 d73e 1cbb 003d 7da1 b8bd a88f fbbd
00000040: 04bf b23d e796 b73e 4845 973d bc43 35bd
00000050: 073e c6be 3106 0abe 5b6b 87be b43a fd3e
00000060: c623 213f ce47 d03d 199f abbc b1d7 1abf
00000070: 7410 073d b125 293d d9b3 0b3e 7d06 7d3e
00000080: e193 e33e 8832 193d 9f7d 293e 1b94 8fbe
00000090: 9cb7 8e3e a189 20bd ff57 8f3e 62ee 79be
000000a0: eaf4 be3d 7a19 823e c860 cfbd d484 fabd
000000b0: d18b 8d3d cbd5 09bf 19a7 f13e b10c 5f3e
000000c0: bc99 c63e d0b6 01bf 0a02 57be 634f 77be
000000d0: c110 813e 9852 e33d d1d2 81be 4c79 50be
000000e0: 0f4e 393e 79bf 303e 0a53 aebe a658 a53c
000000f0: fa2f 8cbe 12a2 5e3e 0bfb ed3d d81f 2abe
00000100: 06c4 0f3e de91 be3e fd5f 5e3e ae52 50bd
00000110: 6026 b2bd aa7b e03e 6b57 a2be 0c37 09bd
00000120: 02b8 c13e ed85 11bf 3547 ff3b 503c 9c3e
00000130: 2f2c 093f 6868 05be d463 d43d 860d 4ebe
00000140: ef9e a13e 6b59 13bf 7483 82bd e6f5 753d
00000150: 8fac 90be 9143 da3c a5a6 73be 9fb1 fb3e
00000160: d2e5 6d3e c8f1 a83d 06cc 5f3e 77d0 6a3d
00000170: ae48 fcbe fb8e 3e3d a63c 973d 6432 f9bd
00000180: 6026 45be 4bae 2abf 5e58 163e 90a2 e5bd
00000190: a084 6f3e b90f 343f 04dd 43be 645b c53d
000001a0: 3843 a8be 7b64 81bd 3803 0c3d 1402 193f
000001b0: 3511 0fbe 0feb c83b 27e5 ccbe 8b28 9abe
000001c0: 8ff8 95bf c42a 73bd dde7 c63e 132e 87be
000001d0: fea8 51bf d8d7 12bf b154 f73c 0abc 383f
000001e0: bd85 463c 6963 183e 6a89 ecbc 6519 333e
000001f0: 9614 cfbe d492 83be 219a f93e d292 943d
00000200: ed82 3e3e aa57 15bf 186d 74be 1cba 96bd
00000210: 086e 323e 7220 85bd 4902 9ebd 7e3f 1c3d
00000220: 2766 fd3d fa34 cb3d 237e 56be 6d00 f8bc
00000230: 5d07 d8bd 5385 abbd 8b12 23bc d6a1 fcbe
00000240: b926 9bbe 4c46 983e 9b14 803e 25c1 223e
00000250: f732 c53d 2523 5f3e 391a fe3d 1d6f a4be
00000260: f69e bfbd 66b3 23be 653f 373e df5d 193e
00000270: 97b5 5e3e 3c7f 513d e057 c13d 97bd 8f3d
00000280: ea85 8fbd e7ad 473f 8aa3 4e3e f47c 9e3d
00000290: 7479 fcbd 55c7 e63e 3a6c 41bb a690 dbbb
000002a0: 7b67 483e a310 0d3d 7cc4 45be 4d92 0f3e
000002b0: 0e29 be3e f60c af3b 26f2 2b3d 4667 cfbd
000002c0: e3ec 04bf 191a c33d 989c a83e c1f9 99be
000002d0: 5534 b3be b7ee 4fbe 4aab c5be 56fa 7dbe
000002e0: 78f4 fa3e 51a4 0d3e 2b99 21bf 1fb5 25bf
000002f0: a5e3 15be 02da 03be 4354 483e 6799 533d
00000300: 5620 683e bae5 0cbe 80bf 54be 7b76 23be
00000310: 3b97 3b3f 2c21 74bd 4f7a 823e 2fe5 a6be
00000320: da78 b7be cb9e b0be 2d5c 013e 7839 333c
00000330: edbe 223e 01d9 afbe fd4e 983e 1611 d4be
00000340: 0be7 aa3e b382 e9be a26c 4abe 6c0e c7bd
00000350: e51f ce3d a619 27bd e19e fbbd 12de 0f3e
00000360: 5fde ef3e 52b3 9a3e dce0 53be 5d2c ca3c
00000370: e548 febc 2e6f 163d 6aaf 9abd 31d0 b33d
00000380: 0bc9 97bb d1d1 9c3e d9ac 733e fbc9 4a3d
00000390: ad0b 0ebe 8b79 0abe 49b9 a2bb cb96 33be
000003a0: a02e f9bd af21 cfbe 9a06 823e 6ec3 08be
000003b0: ca07 fd3d 7124 a53e 6174 dfbc 3399 14be
000003c0: 151b 223e 19d6 79be 7a96 723e f25a b4be
000003d0: d9a1 093f 5e2f f73d 4130 75bc 334b 403e
000003e0: a463 dd3c d44a a83e cc07 b13d bcd7 41be
000003f0: 7888 973d 3dbf df3e 3878 eebd 9927 c33d

model/hidden_layers/1/b f4 [40]
0.019122873 -0.15663576 0.11187156 -0.1724464 0.068995275 -0.31122142 0.045464672 -0.029725092
-0.15626417 -0.010053918 -0.008893064 -0.14260782 0.26845214 -0.09985772 0.0077216397 -0.14229526
0.14549904 -0.033607837 -0.112384826 -0.029217498 -0.021761553 0.05033878 0.07951975 -0.042444464
0.007858673 -0.039180294 -0.0020921326 0.13354337 0.09663359 0.10456556 0.00981926 -0.021624932
0.0025209435 0.06535214 0.073847175 -0.07658498 -0.09572086 0.04218486 -0.18641153 -0.008743977
00000000: 92a7 9c3c 2065 20be eb1c e53d ca95 30be
00000010: 654d 8d3d 6a58 9fbe 2a39 3a3d 0982 f3bc
00000020: b703 20be 30b9 24bc 37b4 11bc c907 12be
00000030: 8f72 893e 3482 ccbd cf05 fd3b d9b5 11be
00000040: b3fd 143e 5fa8 09bd 042a e6bd 8959 efbc
00000050: 4945 b2bc 0930 4e3d 40db a23d 3fda 2dbd
00000060: aac1 003c 847b 20bd 291c 09bb 98bf 083e
00000070: d5e7 c53d 7826 d63d f6e0 203c c526 b1bc
00000080: 6a36 253b 58d7 853d 303d 973d 96d8 9cbd
00000090: 4c09 c4bd 08ca 2c3d aae2 3ebe e642 0fbc

model/output/W f4 [9, 40]
0.532752 0.641627 -0.80691636 0.28903192 0.42175427 0.53946036 -0.41769508 -0.07227272
0.3687024 0.09590239 0.44656727 0.36874774 -0.4033967 0.40206146 0.30660716 0.2337895
-0.15248294 0.36823028 0.094053656 -0.31277925 0.21144743 -0.5164068 0.32050255 -0.15370138
0.0548502 -0.38722312 -0.5205707 -0.29799044 -0.18123832 -0.22039741 -0.61078554 0.39201716
0.39668286 -0.040584143 0.3106397 0.77074707 -0.008426174 -0.36303613 0.39862165 0.28563407
0.097156234 0.49621826 -0.9126374 0.40096623 0.4339034 0.5111143 -0.2493778 -0.037199553
0.33563718 0.03376324 0.55904824 0.4315444 -0.56248164 0.1992091 0.21255457 0.32723874
-0.25065252 0.56017387 -0.37152612 -0.60906106 0.0022409526 -0.28552887 0.3250039 0.10710609
0.18916737 -0.29548377 -0.32929292 -0.4774189 -0.186404 -0.5238633 -0.504283 0.54164916
0.28643304 -0.029500207 0.08396547 0.6656997 0.11323571 -0.46252868 0.53825617 0.19784491
0.5727723 0.45049736 -0.6734924 0.4670613 0.6327454 0.6514154 -0.41336367 -0.29427657
0.26546344 0.10957777 0.48557508 0.36167434 -0.4115476 0.29893368 0.21867998 0.38183475
-0.27249727 0.42051363 0.08950157 -0.1465164 0.0929027 -0.32618132 0.26132724 -0.03492334
0.15718395 -0.28519443 -0.56315744 -0.4366106 -0.16440265 -0.13259414 -0.63394666 0.47483397
0.3973024 -0.07706697 0.18544206 0.621646 0.11017867 -0.5374353 0.4290053 0.36724085
0.5010175 0.46353173 -0.5130115 0.49908006 0.5608998 0.32504413 -0.27984142 0.051292874
0.23632552 0.21842857 0.46067274 0.5548842 -0.28247797 0.3307131 -0.28003797 0.28103602
-0.27724513 0.5464245 -0.12493753 -0.6877593 0.26686537 -0.38206574 0.16670461 -0.29613256
0.15420361 -0.1971243 -0.67021835 -0.17025138 -0.16896302 -0.33512932 -0.47904292 0.48897395
0.37478626 0.23383375 0.39822194 0.9243995 -0.1453298 0.12379084 0.5351494 0.49347496
0.24433896 0.59347725 -0.7038317 0.37342426 0.41772452 0.64394724 -0.36658266 -0.31851894
0.30947572 0.1583239 0.4821947 0.44925213 -0.37223062 0.32234606 -0.032299798 0.30929372
-0.34919858 0.5802037 -0.030993532 -0.3837136 0.21211387 -0.35377517 0.23561436 -0.06735003
0.097441554 -0.5953862 -0.41602916 -0.2753512 -0.20555277 -0.1862602 -0.6200914 0.3889323
0.0931582 -0.02545121 0.22042213 0.833084 -0.12405003 -0.5189714 0.41302037 0.28348726
0.277121 0.529913 -1.0552778 0.14658052 0.248261 0.5095776 -0.40335748 -0.097725645
0.44202477 0.13157095 0.5204453 0.36249867 -0.48243812 0.22517964 -0.03922876 0.27767345
-0.2568473 0.31487945 -0.6044136 -0.9809282 0.11162771 -0.39990953 0.5415237 -0.089121446
0.24056283 -0.81782264 -0.16059808 -0.44140556 0.023966447 -0.50294816 -0.5705664 -0.042117596
0.2752643 -0.12740242 0.083629236 0.43481266 0.27410507 -0.5648761 0.57843107 0.13490129
0.33124164 0.65921736 -0.7649159 0.3955041 0.5653214 0.22365123 -0.20898329 0.22381042
0.255755 0.09562418 0.48738733 0.5865184 -0.5115142 0.3191068 0.024372319 0.19460867
00000000: 6f62 083f ab41 243f 1292 4ebf fefb 933e
00000010: 2df0 d73e 131a 0a3f 21dc d5be b803 94bd
00000020: 90c6 bc3e 7968 c43d 77a4 e43e 81cc bc3e
00000030: 038a cebe 00db cd3e 9dfb 9c3e 8466 6f3e
00000040: 7d24 1cbe ae88 bc3e 349f c03d 9a24 a0be
00000050: ad85 583e 3c33 04bf e918 a43e e563 1dbe
00000060: 9aaa 603d 1c42 c6be 1f44 05bf 3492 98be
00000070: 8a96 39be dcaf 61be 715c 1cbf 79b6 c83e
00000080: 041a cb3e 8f3b 26bd 2b0c 9f3e ae4f 453f
00000090: ef0d 0abc dfdf b9be 2318 cc3e a13e 923e
000000a0: d9f9 c63d 5210 fe3e 9ba2 69bf 724b cd3e
000000b0: 9628 de3e 63d8 023f e55c 7fbe 8f5e 18bd
000000c0: a3d8 ab3e 534b 0a3d c91d 0f3f 63f3 dc3e
000000d0: ccfe 0fbf 78fd 4b3e e8a7 593e d68b a73e
000000e0: 8755 80be 8e67 0f3f ac38 bebe 6deb 1bbf
000000f0: f2dc 123b d730 92be e966 a63e 705a db3d
00000100: 17b5 413e a649 97be 1599 a8be 4070 f4be
00000110: b1e0 3ebe e81b 06bf b118 01bf 85a9 0a3f
00000120: 5aa7 923e 6baa f1bc 17f6 ab3d 4c6b 2a3f
00000130: 20e8 e73d 8fd0 ecbe 28cb 093f db97 4a3e
00000140: 35a1 123f 97a7 e63e ff69 2cbf a922 ef3e
00000150: 9afb 213f 29c3 263f 67a4 d3be 6bab 96be
00000160: d3ea 873e 4f6a e03d 4c9d f83e 612d b93e
00000170: 5eb6 d2be d60d 993e a5ed 5f3e d87f c33e
00000180: c384 8bbe 904d d73e 994c b73d 6508 16be
00000190: c543 be3d 3d01 a7be afcc 853e c70b 0fbd
000001a0: d4f4 203e 0105 92be 162b 10bf 6d8b dfbe
000001b0: 2b59 28be c2c6 07be 544a 22bf 701d f33e
000001c0: 386b cb3e 4ad5 9dbd 86e4 3d3e 3124 1f3f
000001d0: 5ba5 e13d 5c95 09bf 95a6 db3e fe06 bc3e
000001e0: af42 003f 0854 ed3e b954 03bf 6c87 ff3e
000001f0: 2197 0f3f 2f6c a63e 6047 8fbe 7a18 523d
00000200: 51ff 713e bdab 5f3e 4cdd eb3e e40c 0e3f
00000210: f4a0 90be 3a53 a93e 2361 8fbe f4e3 8f3e
00000220: 13f3 8dbe 7ae2 0b3f 3fdf ffbd fe10 30bf
00000230: 94a2 883e 1f9e c3be 9db4 2a3e b09e 97be
00000240: 8de7 1d3e f4da 49be 6e93 2bbf 6156 2ebe
00000250: a404 2dbe 1296 abbe 1d45 f5be cb5a fa3e
00000260: fce3 bf3e 1d72 6f3e bfe3 cb3e 72a5 6c3f
00000270: 56d1 14be 0d86 fd3d 8dff 083f c0a8 fc3e
00000280: fe33 7a3e 20ee 173f 502e 34bf 7731 bf3e
00000290: fddf d53e bad9 243f b9b0 bbbe ea14 a3be
000002a0: 9a73 9e3e a91f 223e 39e2 f63e 6004 e63e
000002b0: 0395 bebe 8b0a a53e cb4c 04bd bf5b 9e3e
000002c0: 28ca b2be 3b88 143f 26e6 fdbc 1c76 c4be
000002d0: 6134 593e 0522 b5be e444 713e d0ee 89bd
000002e0: 708f c73d 3b6b 18bf c601 d5be d5fa 8cbe
000002f0: 6d7c 52be feba 3ebe 4fbe 1ebf 2222 c73e
00000300: bac9 be3d 0e7f d0bc 57b6 613e fe44 553f
00000310: f10d febd 4fdb 04bf 6877 d33e 3e25 913e
00000320: cee2 8d3e 61a8 073f 5813 87bf 3419 163e
00000330: 2238 7e3e ad73 023f df84 cebe 6224 c8bd
00000340: 1251 e23e 89ba 063e e73b 053f 6d99 b93e
00000350: 2102 f7be 7e95 663e 56ae 20bd 372b 8e3e
00000360: 7d81 83be e137 a13e daba 1abf 1c1e 7bbf
00000370: 129d e43d f1c0 ccbe 4ca1 0a3f 4e85 b6bd
00000380: 1a56 763e d35c 51bf d373 24be e9ff e1be
00000390: 4855 c43c 36c1 00bf a410 12bf 8083 2cbd
000003a0: 71ef 8c3e c875 02be ce45 ab3d c49f de3e
000003b0: 8057 8c3e b89b 10bf 0f14 143f 9023 0a3e
000003c0: 8198 a93e 78c2 283f 87d1 43bf 837f ca3e
000003d0: e7b8 103f d404 653e b7ff 55be 8f2e 653e
000003e0: 52f2 823e 9cd6 c33d d58a f93e 1226 163f
000003f0: 98f2 02bf f761 a33e 75a8 c73c 7f47 473e

model/output/b f4 [9]
-0.045615904 0.10974601 0.04261719 0.043720998 0.034093603 0.00063195365 -0.0035786773 0.13485803
0.06105193
00000000: bed7 3abd 84c2 e03d 5d8f 2e3d ca14 333d
00000010: bca5 0b3d b1a9 253a 3e88 6abb 3918 0a3e
00000020: 9711 7a3d
