python/results/2017_12_22_10_38_44/agent1000/model.npz (npz, 14927 bytes, 6 tensors)

model/hidden_layers/0/W f4 [40, 40]
00000000: 4c2e e3bc f536 9fbe 197d de3e 1fe5 10bf
00000010: 4d94 a6bd 9df1 f23c 1ae2 1e3d 5589 303d
00000020: d5eb 473d e067 e93d 4527 85be 7f78 383d
00000030: f67b 213e 9816 93be 7ac8 a63e 9e35 293d
00000040: db1e 403d 10c9 c03d 07b5 403e 124e 6f3d
00000050: cfe3 c8be a0cb 1bbf b22b 27bf 418f 2dbf
00000060: 909d 0bbe 9e75 933d c73a f13e fedd 553f
00000070: 315f 013f 538e 9c3e beb5 e53d 68ae fd3d
00000080: 90e4 1e3e 954a 09bd 947d 693e 9815 123e
00000090: e54d f53d 0516 1d3d 56a7 7b3e e777 90bd
000000a0: d353 61bd 0ece 6c3f fe49 ed3e 592c 44bf
000000b0: 8b97 fc3e 5d9f 6d3e 3829 713e 8cd3 1a3e
000000c0: b0ec 243e 3df4 2f3d 4a28 a93d 1b6d 5dbd
000000d0: daf7 543d ca43 54bd b961 94bc f791 90be
000000e0: e805 b2bd 6e6f 2dbe def4 843d 6d30 72be
000000f0: ffaf 113e 079f f03e 1e87 403f 82f7 683f
00000100: 203e 823f 0315 6d3f de8c 6e3f bf4f 343f
00000110: 4b27 313f 7b2f 943e 1054 933e d1d1 c03c
00000120: cd5d c73d 285c dc3d 760d f83e c57c fe3d
00000130: 7501 a93e 0f82 8a3e 3b11 bc3e 12ad d63e
00000140: 7868 a0bd a603 8e3d 19e9 80be eb9b d53e
00000150: a94a 8b3d 375d 963b c1c4 09be 317f dc3b
00000160: 59d0 9c3d 1bb3 33bb 5837 1d3d 024c 03bd
00000170: 1772 9e3e 32a3 fbbd 9f72 3abc 3b93 59be
00000180: ead2 cebe 86cd b1be 387c 2dbe fca4 8bbe
00000190: deb8 eb3c 73d7 1bbe 2f63 5d3e 343c 133e
000001a0: 66bf bcbc f922 8abe 6c4f 06bc cd5a cd3e
000001b0: 3f6c e83d 1710 debd ae47 893d ec30 2abe
000001c0: 9bdb 2d3e 30a7 42be 3403 0ebd 97af 98bd
000001d0: 1493 5a3d 762e 75be 1a5c 0ebd 157e a53d
000001e0: ad8a 8e3d aec1 5e3e f0b9 c8be 60d8 17bf
000001f0: 6021 91bd bdb5 953d 9d8f 03be 8f78 f93d
00000200: 4353 02bd 2251 b1bd 7020 683e 29eb 013e
00000210: fa50 24be f1a1 02bf aa11 5abe 2c8d f4be
00000220: 55d4 12bf 43a2 37bf 82fb e3be a09b e8be
00000230: 5ecc e4be 5a1e 1dbf c775 80be 955c 56be
00000240: 989f 7b3c 7de6 7abe 9829 b63d 9cc8 303d
00000250: 8e3f db3c 7931 403e a668 acbd eaea 0e3e
00000260: fa9e 333d 286f 6f3d fcd0 dd3d 5945 b6be
00000270: bf40 65be e893 06be 97bc 3b3d 1069 67be
00000280: f6b0 e5bd f5fb b5be 558b 8e3e 3a5f 40be
00000290: ccc2 6a3a 8180 c63e f7c0 533e b451 3dbc
000002a0: b2c0 553e ce5d 0abc 2ba4 ab3d 9fa9 033e
000002b0: c0eb af3c 63d2 633e d0ae 0f3d 4aca 5c3c
000002c0: 17f8 573d 41d3 ae3e f48c 4abd e06f 793e
000002d0: 3fa8 2f3e 813c 813e ba72 a53e 6dae 263f
000002e0: b4de 823e 7561 20be 1be9 c73d 898b 3fbd
000002f0: 728b 8dbe 0a2c e5bd d026 ffbd 3c07 553e
00000300: d90f c13d ba37 d53e dd4c 91be 5d83 36bd
00000310: aa87 f43c e763 413c 4429 103e d98e 963e
00000320: 372a 80bd 01d6 d33d 08aa 8dbe 322b 32bf
00000330: 6004 213e 0ae3 18be c9c1 0abe f9b1 8bbe
00000340: 5a56 983d 0a84 033e 9022 f13d 65c0 f1bd
00000350: 8727 aa3c 9be3 0bbe 4df1 2ebe e136 2cbe
00000360: 6b78 dc3d f9ba ad3c beec 303e 5072 b83d
00000370: c515 d13e 1ef7 af3e a7b0 37bc 6566 e33d
00000380: ec35 1cbe 0b51 e73c 0d0b 8b3e 257a 073e
00000390: 2b96 7b3e b5d9 dd3e a7e3 f83e 0bde 493e
000003a0: 9fb4 5b3e 1863 a53d 1cb2 43be 1135 a8be
000003b0: 1456 cebb 426f 003e 18e9 993e 97d9 713e
000003c0: 0a08 90bc c721 f13d 4f79 c3be 2a19 b13f
000003d0: 937b 7b3e 93d3 c23d ff9a 343e 582f 7d3e
000003e0: 23f7 6a3e 88be b33e 6144 613e 4018 1b3e
000003f0: 1f90 c8bd b975 a83d bea9 12be 000b a6bd
-0.027732037 -0.31096616 0.43454817 -0.5659961 -0.08133755 0.029656226 0.038789846 0.04309972
0.04880889 0.11396766 -0.26006523 0.04503679 0.15769944 -0.28728175 0.32574826 0.0413109
0.046904426 0.0941335 0.18819056 0.058424063 -0.39236304 -0.6085758 -0.6530105 -0.67796713
-0.13634324 0.07200168 0.47115156 0.8354186 0.50535876 0.30577335 0.11216305 0.12386781
0.15516877 -0.033518393 0.2280181 0.1426605 0.11977748 0.038351078 0.24575552 -0.070541196
-0.05501158 0.92501915 0.46345514 -0.7663017 0.49334368 0.23205324 0.2355088 0.15119761
0.16105914 0.042957533 0.08259638 -0.05405913 0.051994182 -0.05182246 -0.018113004 -0.28236362
-0.08692533 -0.16937038 0.06492017 -0.23651285 0.14227293 0.46996328 0.7520617 0.91002667
1.0175209 0.92610186 0.93183696 0.7043418 0.6920058 0.28942475 0.28775072 0.023537548
0.09734688 0.10759765 0.4844777 0.12426142 0.33008924 0.27052352 0.36731896 0.41928917
-0.07832426 0.0693429 -0.2517784 0.41720518 0.0680135 0.004588749 -0.13453962 0.0067290296
0.07656927 -0.0027419988 0.038382858 -0.03205491 0.3094642 -0.122869864 -0.011379867 -0.2124757
-0.4039529 -0.34727114 -0.16941917 -0.2727431 0.028774675 -0.15218906 0.21619867 0.14378434
-0.023040485 -0.26979807 -0.008197647 0.40108338 0.11348771 -0.10842913 0.06703125 -0.16620225
0.16978304 -0.1900909 -0.034671023 -0.07455366 0.05336292 -0.23943505 -0.034755804 0.08080689
0.06960044 0.2175357 -0.3920436 -0.5931454 -0.07086444 0.073100545 -0.12847753 0.12181198
-0.031817686 -0.08658053 0.22668624 0.12687363 -0.16046515 -0.5102835 -0.21295801 -0.47763956
-0.5735524 -0.71731967 -0.44527823 -0.45431232 -0.4468717 -0.6137444 -0.25089857 -0.20933755
0.015357874 -0.24501987 0.08894652 0.043160066 0.026763704 0.18768872 -0.084183976 0.139568
0.043852784 0.058455616 0.10830876 -0.35599783 -0.2238798 -0.1314236 0.04583415 -0.22598672
-0.11215393 -0.3554379 0.27840677 -0.18786326 0.00089554186 0.38769916 0.20679079 -0.011555124
0.20874289 -0.008445216 0.08380922 0.12857674 0.021474719 0.22248225 0.035078824 0.013475964
0.05272683 0.3414555 -0.04945083 0.24359083 0.17154025 0.25241473 0.32314092 0.651099
0.25560534 -0.15662177 0.09761258 -0.04676393 -0.2764545 -0.111900404 -0.12458575 0.20803541
0.09426851 0.41644078 -0.28378955 -0.04455887 0.029849846 0.011803604 0.14078242 0.2940586
-0.06258052 0.103435524 -0.27668786 -0.6959716 0.15724325 -0.14930359 -0.13550486 -0.2728422
0.07438345 0.12843338 0.117741704 -0.118042745 0.020770801 -0.13661043 -0.17084236 -0.1681781
0.107651554 0.02120732 0.1727781 0.090061784 0.4083692 0.34368223 -0.011211551 0.111035146
-0.15254945 0.028236886 0.2715687 0.13230188 0.24569003 0.4333016 0.48611185 0.19713609
0.2145562 0.08075541 -0.19110912 -0.32852986 -0.0062968824 0.12542441 0.3006065 0.2361816
-0.017581958 0.11774021 -0.3817849 1.3835804 0.24558859 0.09513011 0.17637251 0.24725091
0.22945838 0.351063 0.2199874 0.1514597 -0.09793114 0.08225579 -0.14322564 -0.08107567

model/hidden_layers/0/b f4 [40]
00000000: 7daf 2f3f 5382 963e 8501 713c 114c 44bf
00000010: a52b 2b3f 9c42 753f 5b6b 09bf f8ff 093f
00000020: 9034 45bf 01bd 8a3f 68a1 4dbd 91e6 983d
00000030: 8fb0 a6be 936d ac3e d825 5d3d 4d96 e33c
00000040: 4651 1fbe 4735 40bf bd37 d63e 35ae 213e
00000050: 39ba 973d ca65 d23e 9258 60be 03fe 643e
00000060: ebe6 2f3e 205f ebbe 2f8a 44bf 42fb 0dbd
00000070: 4f8d b33d fa7e af3d 4a67 e33c f5aa 1d3e
00000080: abe8 f43d 77bf 2b3f 9355 1abf db1e 853e
00000090: 317a b8bd b61f a5be e1e0 803d 9e7c 4d3e
0.6862715 0.29396304 0.014709835 -0.7667857 0.6686347 0.9580476 -0.53679436 0.539062
-0.7703333 1.083893 -0.050202757 0.07465852 -0.3255658 0.33677348 0.05399117 0.02778163
-0.15558347 -0.75081295 0.418394 0.15789111 0.07408566 0.41093284 -0.21908787 0.22362523
0.17177932 -0.45971012 -0.7677335 -0.034663446 0.08767187 0.08569141 0.027759213 0.15397246
0.119584404 0.6708903 -0.60286826 0.26000103 -0.09007681 -0.32250756 0.06292892 0.20067069

model/hidden_layers/1/W f4 [40, 40]
00000000: 77ac 05bd 7131 103f e1c6 babe 8a2e ad3e
00000010: 36c9 753e d7df e23d a7a9 643e c654 843c
00000020: 0428 6bbd e7d4 fa3d 234d 33bd 7789 4abd
00000030: 4e1c ff3e 5d03 f33c 72ee e3bd 5c21 e1bd
00000040: bdd4 a13d 598d f63e 7833 ab3d f6e0 99bd
00000050: 721e c6be 3424 31be e63d 7bbe 88e2 ea3e
00000060: 03e7 2c3f 9e72 503e d32f 9abb 7c8f 22bf
00000070: cfe8 0c3c 264f 7c3d 2023 083e 91e3 943e
00000080: 757b f83e b380 b03d 58eb 313e 1bd6 88be
00000090: 2d34 a43e 74d1 793a 211a 963e 792a 83be
000000a0: b379 bebd 4b10 b63e 8f83 c4bd 1f5d e9bd
000000b0: cd2d 323e 4e5b 08bf da6e 223f bf12 a43e
000000c0: ba9c df3e 2001 17bf 7b7d 89be 01dc 75be
000000d0: eb49 c13e c082 063e 6a38 82be b698 4abe
000000e0: a77b 393e 8e59 b03e d9ef b4be 6ee3 3abb
000000f0: 45ad 9fbe 456c 983e f2ef d13d 2fa7 71be
00000100: ac1f 073e f8de 0f3f b967 8a3e ee13 c9bc
00000110: f06b a0bd aa39 f53e c81e aabe 561f a8bc
00000120: 0dce b83e a58d 21bf c318 e7bc 864a bf3e
00000130: 18da 223f 5b79 a5bd 4fbb e93d ac85 42be
00000140: cf58 de3e 2c5b 3dbf f7e0 a0bd 4127 c93c
00000150: e636 9ebe 3ca2 e43d b6c4 9fbe d2b6 ea3e
00000160: 930d 323e d4d5 d13d 22b5 5f3e de19 ee3c
00000170: a536 25bf 88a6 3b3d 432a 923d 646d bebd
00000180: a6b2 57be 1b32 11bf 7208 0c3e 9d88 a3bd
00000190: 38a9 9d3e c74e 2f3f 5cb1 25be 3bd7 1e3e
000001a0: 4c7b e1be 4604 f6bd 7e82 393b 2f72 263f
000001b0: a539 03be 081a 96bc 68b0 e2be 5883 b3be
000001c0: afe3 a0bf 1666 c4bd d969 d23e beb8 96be
000001d0: a3ad 66bf d6f5 13bf 921d 3b3d d305 3b3f
000001e0: 7587 b9bd ea85 213e df2a afbc 653c f03d
000001f0: 61c1 debe 1f01 9ebe 8788 0c3f b524 583d
00000200: 7d4c 783e ede6 18bf a281 77be 4dc8 96bd
00000210: 9817 273e 89aa a9bd 6697 b9bd 13e0 2c3d
00000220: fb0a 143e 857e ac3d 7d1b 7abe e682 02bd
00000230: bc3b 4dbd becb 90bd d021 bb3c 8471 06bf
00000240: 96f8 b3be 182c 9e3e 9058 a23e 82c1 263e
00000250: f55d 8b3d c05b 6c3e 3470 213e 21bc b4be
00000260: 6d47 c9bd 2188 38be 40cc 413e a229 263e
00000270: 1fe7 293e e684 c13d 5c6b a23d 5966 d93d
00000280: 9470 bdbd d4b2 5a3f d08a 3f3e 8890 0c3e
00000290: ed77 febd 437e e53e 7ec9 413c 7241 9dbc
000002a0: 0fe8 7e3e 9a32 913d 1e3d 5cbe 3d9e 0a3e
000002b0: 681a d93e 7dc3 a9bb 4c89 813c 9dc2 9fbd
000002c0: edc3 0bbf d173 143e fe8c a73e 18cf acbe
000002d0: 4d1b a5be 8410 75be 35de bebe dcf0 93be
000002e0: 9b71 0e3f 753f 273e a4c1 23bf e326 34bf
000002f0: 157f 21be 7fd4 fbbd 2953 313e 28b7 ca3d
00000300: 559f 833e af36 d7bd aa86 4fbe dc11 31be
00000310: 1005 413f e6ec 01bd ff9e 913e 87a9 c2be
00000320: 9678 cbbe b903 a4be 055f 2a3e 55e9 543d
00000330: a78b 433e 490a a7be 08c1 983e 3e05 d5be
00000340: 2885 c73e 1504 06bf 2126 64be d6b4 92bd
00000350: 9361 ba3d 8a33 20bc 6d49 b7bd fb80 293e
00000360: facb 073f 3421 953e 1535 85be e0a6 6e3d
00000370: 0507 22bd 1038 a53b c061 84bd ab0d fe3d
00000380: 28eb e1b9 0744 ab3e 57a0 cf3e 5e2e f63c
00000390: a275 05be 1bbf f9bd 3f44 fa3c 62e5 3cbe
000003a0: 98f1 4abe 5cb9 eebe c4ba 5e3e 7552 2fbe
000003b0: dd6b b6bd f596 aa3e 825e acbd b33e 1dbe
000003c0: 67e4 413e 9e83 93be 054d 773e c358 c5be
000003d0: 39c8 073f 2d88 cd3d 275f ab3c 9914 3c3e
000003e0: fc75 44bd 6030 be3e 76b4 063e cfa3 46be
000003f0: a3a4 593d d200 df3e ab5d f4bd ef7a b83d
-0.03263518 0.5632544 -0.36479858 0.3382457 0.24002537 0.1107785 0.22330342 0.016153704
-0.05741121 0.12247639 -0.043774735 -0.049447503 0.49826282 0.02966469 -0.11129464 -0.10992691
0.07901905 0.48154715 0.08359426 -0.07513611 -0.38695103 -0.17298967 -0.24535331 0.45875955
0.67539996 0.20356223 -0.004705408 -0.6350019 0.008600428 0.06159892 0.13294649 0.2907987
0.4853169 0.086182974 0.17374933 -0.2672585 0.32071057 0.0009529807 0.2931681 -0.25618342
-0.09300556 0.35559306 -0.09595405 -0.113947146 0.17400284 -0.5326432 0.63450396 0.32045552
0.4367426 -0.5898609 -0.26853547 -0.24009706 0.37751707 0.13135815 -0.25433666 -0.19784817
0.18113576 0.34443325 -0.3533924 -0.0028516906 -0.31186882 0.29770103 0.10250844 -0.23598932
0.13195676 0.561996 0.2703226 -0.024545636 -0.078330874 0.47895557 -0.3322661 -0.020522755
0.36094704 -0.6310676 -0.02821005 0.37361544 0.63614035 -0.08079787 0.114126794 -0.18996304
0.4342713 -0.7396724 -0.07855409 0.02455485 -0.3090126 0.11163756 -0.31204766 0.45842606
0.1738799 0.102458626 0.2184644 0.029065069 -0.64536506 0.045813113 0.07136967 -0.09298208
-0.21064243 -0.5671708 0.13675097 -0.07985041 0.30793166 0.6847958 -0.16180938 0.15511791
-0.4403938 -0.12012534 0.002830654 0.6501798 -0.12814958 -0.01832296 -0.44275212 -0.35061145
-1.2569484 -0.09589784 0.4109638 -0.29437822 -0.901087 -0.5779699 0.045682497 0.7305576
-0.090590395 0.1577374 -0.021382747 0.11730269 -0.4350691 -0.3086023 0.54895824 0.05276938
0.24247928 -0.59727365 -0.24170545 -0.07362423 0.16317594 -0.0828448 -0.0906208 0.04220588
0.14457314 0.08422569 -0.24424548 -0.031863116 -0.050105795 -0.07070111 0.022843271 -0.5251696
-0.35150594 0.30893016 0.31708193 0.16284755 0.0680503 0.23081875 0.15765458 -0.3529978
-0.098280765 -0.18020679 0.18925571 0.16226819 0.16592072 0.094491765 0.079306334 0.106152244
-0.09249988 0.8542912 0.18705297 0.1372701 -0.12425218 0.44822893 0.011827825 -0.019196246
0.24893211 0.070897296 -0.2150769 0.13536926 0.4240296 -0.0051807747 0.015812539 -0.078007914
-0.54595834 0.14497305 0.32724756 -0.3375175 -0.3224739 -0.23932081 -0.37278906 -0.288947
0.556421 0.163328 -0.6396735 -0.70371836 -0.15771134 -0.1229639 0.1731688 0.098982155
0.25707498 -0.10508477 -0.20266214 -0.17291969 0.7539835 -0.031720065 0.28441617 -0.38019964
-0.39740437 -0.3203409 0.1663781 0.051980335 0.19096242 -0.32625034 0.2983477 -0.41605562
0.38968778 -0.5234998 -0.2228017 -0.07163398 0.09100642 -0.009777913 -0.08949552 0.16553108
0.5304562 0.29126894 -0.2601706 0.058264613 -0.039557476 0.0050420836 -0.06463957 0.12404951
-0.0004309055 0.33450338 0.40552017 0.030051406 -0.13033155 -0.121946536 0.03055012 -0.18446878
-0.19818723 -0.46625793 0.21750933 -0.17121299 -0.08907292 0.33318296 -0.084164634 -0.15355949
0.18934785 -0.28811353 0.24150474 -0.38544282 0.5303989 0.10035739 0.020919396 0.18367232
-0.04796408 0.37146282 0.13154778 -0.19398426 0.053135525 0.43555313 -0.11931928 0.09007823

model/hidden_layers/1/b f4 [40]
00000000: 60fe f93c 5141 eabd 56af 033e a6cf 3abe
00000010: 0792 c63d dc31 bfbe 0b7b 833d bd15 fcbc
00000020: cb44 39be 70f1 b8bc 19d5 0c3d 3157 26be
00000030: ec5d 933e 51f8 d1bd 01e2 bd3b bde8 09be
00000040: f9a8 233e 4e94 84bd 7bf8 d2bd 7344 3bbd
00000050: 36bf 1abd f052 7d3d 49f9 013e 1099 9bbd
00000060: 5483 6e3c b2b4 5dbd 7b79 1c3c 6ca8 173e
00000070: 24f0 c93d 885b f63d 5d9d a13c ae5f c7bc
00000080: 5086 ebbb c39e c83d ff78 ce3d 6e07 a4bd
00000090: 911f f8bd 04db 3c3d 2e88 5cbe 57cf 82bc
0.030516803 -0.11438239 0.12859854 -0.18243274 0.09695821 -0.37342727 0.06419953 -0.030772084
-0.18092649 -0.022576064 0.034382913 -0.16244198 0.28782594 -0.10252441 0.005794764 -0.13467689
0.15982427 -0.064735994 -0.103013 -0.045719575 -0.03778001 0.061846673 0.12692751 -0.07597554
0.014557678 -0.054127403 0.009550448 0.14810342 0.09860256 0.12029177 0.019728357 -0.024337616
-0.007187642 0.097959064 0.10081672 -0.080092296 -0.12115396 0.046107307 -0.21536323 -0.015968008

model/output/W f4 [9, 40]
00000000: aaae 1a3f 4f37 313f 71a6 64bf 0a9f a73e
00000010: b586 f33e 666f 193f 14dd cfbe 46f0 a2bd
00000020: 60e1 c63e 9608 3c3e a9fb e93e 122b f23e
00000030: 14b4 f2be 1533 d13e 2979 ac3e ac4c 9a3e
00000040: 1a6f 1dbe 1502 df3e 79ca d63d 9487 bdbe
00000050: f882 683e 0122 07bf b803 bd3e 196b 07be
00000060: 2609 903d c75b eabe 7be2 1abf ccc1 9fbe
00000070: 44c6 5fbe b541 87be e38e 2fbf 256f df3e
00000080: fa40 e73e 7cfe 78bd f27e a03e e7e0 5d3f
00000090: 07ca cb3d a255 dabe cb94 ee3e 9be1 a63e
000000a0: 2b86 f03d 6921 073f 1a2a 83bf ce11 dc3e
000000b0: 5763 fe3e 7e14 0b3f 5540 9fbe 7143 23bd
000000c0: c3a9 b33e 1628 f93c 157e 0a3f e663 f03e
000000d0: bb91 1dbf bce4 573e 261a 5a3e e852 be3e
000000e0: e763 95be 005d 203f f2da cbbe ec06 37bf
000000f0: d2f9 d23c 7133 abbe 5752 cd3e a8f2 e63d
00000100: 8776 483e a327 cdbe 7a86 a3be ed4c 0bbf
00000110: 372a 50be 7ed8 09bf 4404 15bf 5d3b 133f
00000120: c855 b13e 0785 69bd d681 b93d 838d 383f
00000130: 5e95 1a3e 154f 15bf 7bb4 1a3f 9ee4 7f3e
00000140: 9908 1f3f 685e 073f 13ff 41bf a0d0 033f
00000150: 044e 363f c143 2f3f eff2 ecbe 07b9 95be
00000160: bae0 a43e e6c4 f43d 106f ef3e 0958 da3e
00000170: a663 ffbe 0067 ac3e 1587 613e d7ee ce3e
00000180: 8145 99be 5e04 f73e 6a56 8f3d 87c8 5dbe
00000190: de57 d43d 00ae b9be 50c6 853e d545 2cbd
000001a0: f7c9 213e 4b06 babe a41e 1ebf abb8 dabe
000001b0: 33d6 33be d3ae 39be ffd2 35bf 7943 063f
000001c0: 28d8 dc3e d1a4 dfbd bbf1 4e3e 7aa3 343f
000001d0: feea e93d 6721 18bf 607a ec3e badf ca3e
000001e0: b647 193f 2f9c 123f abd0 13bf e40f 043f
000001f0: 0ebc 203f 1339 cd3e 26d2 a5be a111 9d3d
00000200: 761e 7b3e a3ab 713e 2b24 f13e a562 293f
00000210: 5e40 c5be 3dbe b03e 5272 9dbe 2dec 953e
00000220: e9c6 97be 1205 193f 3fbc d73c 6e84 37bf
00000230: 8563 923e ee0e b3be e517 0d3e 729e a3be
00000240: d58a 153e 2d4e 64be b6fa 59bf 8665 5dbe
00000250: b509 4bbe d806 aebe d077 10bf e55a 133f
00000260: ab27 dd3e 06b8 a53e e375 ce3e 2bf7 893f
00000270: 144f 46be 242b 5d3e f04d 0c3f 4d1b fc3e
00000280: 3829 9c3e c242 273f 12f9 49bf 3d69 cd3e
00000290: b365 f03e 1938 2b3f 04f7 d8be 9388 a1be
000002a0: 96f9 c83e 36ab 463e b791 ef3e dc4b f33e
000002b0: 02d4 e8be cb65 b83e 39b0 f8bc 2f60 a43e
000002c0: 21df a1be 1466 263f 185b 82bd d07e d7be
000002d0: f330 6a3e 7e18 d4be bd50 7c3e 8a01 a1bd
000002e0: 9e74 d93d aa4e 26bf 899f 03bf 5e03 a1be
000002f0: 7454 63be b792 62be 97b4 34bf 1b55 dc3e
00000300: fe09 0d3e 666a 13bd fb7b 813e 4c86 6d3f
00000310: fb24 c3bd 2693 10bf 3094 f13e c3ef a63e
00000320: 5244 9c3e 2c74 163f 6779 9bbf 0d0e 0f3e
00000330: 4f5e 903e da7f 0c3f 753c f7be 4df1 09be
00000340: 1aec f13e 2870 dd3d f898 043f 3cb3 b63e
00000350: 5fe3 0cbf 83e4 783e c511 3fbd c281 ae3e
00000360: ebe5 89be b581 ca3e 381f 28bf 33f7 8fbf
00000370: c564 e13d 080c f2be 9bca 1d3f e7b9 173a
00000380: b25b 8d3e 8317 78bf 1809 8fbd a60b febe
00000390: e4ac a5bc 1383 f7be 2b41 30bf f79e 4abd
000003a0: 6260 ba3e 1bbe 6ebe 28e4 d73d f34f d03e
000003b0: 40d7 c13e daf3 36bf 67fc 343f e7e4 513e
000003c0: c801 cf3e a0fd 393f eeaa 4fbf 894a d03e
000003d0: 900c 283f 5376 b13e 80be 6ebe 286d 543e
000003e0: 932d 9d3e 7b5c 243e 140e 0b3f 325b 213f
000003f0: 0a10 04bf d9a9 b03e e32b 053c 252d 6f3e
0.60422766 0.6922502 -0.8931647 0.32738525 0.4756371 0.59935606 -0.40598357 -0.07955985
0.38843822 0.1836265 0.45699814 0.47298485 -0.47403014 0.40859285 0.33686188 0.3013662
-0.15374413 0.43556276 0.10487837 -0.370175 0.2270621 -0.5278626 0.369169 -0.13224448
0.07032995 -0.45773146 -0.6050183 -0.31202543 -0.21852976 -0.26417318 -0.685774 0.43639484
0.4516676 -0.06078957 0.31346852 0.866713 0.09950643 -0.42643458 0.46597895 0.32593998
0.117443405 0.52785355 -1.0247223 0.42982334 0.49685165 0.54328144 -0.3110377 -0.03985924
0.35090455 0.030414622 0.54098636 0.46951216 -0.6155049 0.21083349 0.21299037 0.37172627
-0.29177782 0.62641907 -0.3981548 -0.71494937 0.02575389 -0.33437684 0.40101883 0.11276752
0.19576465 -0.40069303 -0.31938535 -0.54414254 -0.20328604 -0.53845966 -0.58209634 0.57512456
0.34635758 -0.05701163 0.09057967 0.7209093 0.15096042 -0.58323795 0.6043164 0.24989554
0.62122494 0.5287843 -0.7577984 0.5149021 0.7121279 0.6846276 -0.46279094 -0.29242727
0.32202703 0.11951618 0.4676442 0.4264529 -0.49880713 0.33672333 0.22024186 0.40416595
-0.2993584 0.4824552 0.06998904 -0.21658526 0.10368322 -0.36265564 0.26127863 -0.042058785
0.157997 -0.36332926 -0.61765504 -0.42719015 -0.1756218 -0.18133096 -0.7102508 0.52446705
0.43133664 -0.10920108 0.202094 0.70561945 0.11421774 -0.5942597 0.46187115 0.39623815
0.5987505 0.5726957 -0.5774028 0.5158675 0.6278695 0.40082607 -0.32386893 0.07669378
0.24523339 0.2360063 0.47097906 0.66166145 -0.3852567 0.3452014 -0.30751282 0.2928175
-0.29643944 0.5977336 0.02633488 -0.71686447 0.28591552 -0.34972328 0.13778646 -0.31956822
0.14603741 -0.22295447 -0.8514818 -0.2162076 -0.19827922 -0.33989596 -0.5643282 0.5756057
0.43194327 0.3236696 0.40324315 1.0778555 -0.19366103 0.21598488 0.54806423 0.4923958
0.30500197 0.6533624 -0.78895676 0.40119353 0.4695259 0.66882473 -0.42375958 -0.3154951
0.3925292 0.1940125 0.4679086 0.47518814 -0.4547425 0.36015162 -0.030357467 0.32104632
-0.31615546 0.6499951 -0.06365031 -0.42088938 0.22870235 -0.41424936 0.24640174 -0.07861622
0.10617946 -0.6496378 -0.51415306 -0.3144788 -0.22200185 -0.2212628 -0.7058806 0.4303368
0.13773343 -0.03599014 0.25289902 0.92783046 -0.09528538 -0.5647453 0.4718337 0.326048
0.30520874 0.58771014 -1.2146424 0.13970204 0.28196952 0.54882586 -0.48288313 -0.13470955
0.47250444 0.10812408 0.5179591 0.3568362 -0.5503444 0.2430592 -0.046647806 0.34083372
-0.26933226 0.39552084 -0.65672636 -1.1247314 0.110055484 -0.47274804 0.61637276 0.00057878945
0.2760902 -0.96910876 -0.06984156 -0.49618262 -0.020224042 -0.4834219 -0.6884944 -0.049468007
0.3640166 -0.23314707 0.10541564 0.40685996 0.37859535 -0.7146584 0.70697635 0.20497476
0.40431046 0.72652626 -0.81120193 0.40681866 0.6564417 0.34660587 -0.23314857 0.20744765
0.30698833 0.16050903 0.54318357 0.6302978 -0.51586974 0.34504583 0.008128139 0.23357065

model/output/b f4 [9]
00000000: c5e3 93bb 6da6 c13d 7a18 273d 2172 833c
00000010: df0e e83c 5d45 a23b 7927 e53b 6ecc 043e
00000020: 31f2 7c3d
-0.004513236 0.09455571 0.040794827 0.016045632 0.028327404 0.0049521164 0.006993231 0.12968609
0.06175441
