python/results/2017_12_22_10_38_44/agent1000/target_model.npz (npz, 14931 bytes, 6 tensors)

model/hidden_layers/0/W f4 [40, 40]
00000000: 388a e5bc 7571 a0be b64a de3e 0515 11bf
00000010: 71a6 a8bd ac7d ea3c 7885 233d 1fc4 313d
00000020: 4f64 4a3d a639 e93d d44f 85be 591d 373d
00000030: f904 213e dc53 93be 7c99 a63e 3021 2a3d
00000040: 3e6d 3d3d 5523 be3d b514 403e 3ae7 713d
00000050: 56db c8be add4 1bbf 0169 27bf c257 2dbf
00000060: f143 0bbe dabf 903d 1dd9 f03e 3bc8 553f
00000070: 7853 013f 0581 9c3e 928d e53d 9e8e fd3d
00000080: 81df 1e3e 4945 09bd e19c 693e 199f 113e
00000090: 153c f43d 9582 1d3d f498 7b3e f357 91bd
000000a0: 2a43 57bd bbe8 6c3f 22b6 ed3e 6af2 43bf
000000b0: e930 fd3e d9ed 6e3e da92 713e 1446 1b3e
000000c0: 8d09 253e 49bc 313d cdee a93d 00c1 5bbd
000000d0: 19c7 573d d4f3 50bd db77 8ebc db92 90be
000000e0: bbb3 b0bd 3772 2cbe 95d9 863d a149 71be
000000f0: 2543 123e c5dc f03e c0a0 403f aeef 683f
00000100: ff33 823f 7f2a 6d3f 6ea1 6e3f 5566 343f
00000110: 5e3e 313f 235d 943e 4e83 933e 23d7 c33c
00000120: b312 c83d 641c dd3d d941 f83e 9a94 ff3d
00000130: 5059 a93e 1df5 8a3e c495 bc3e 203e d73e
00000140: 9251 a3bd 1952 8e3d dc0a 81be 5bae d53e
00000150: b196 8a3d 37e4 8d3b b9d4 09be d7d4 dc3b
00000160: aee2 9c3d 8b0e 36bb e41b 1d3d 6f6b 03bd
00000170: 9c68 9e3e 5cc7 fbbd 8719 3bbc 1c8b 59be
00000180: c7d1 cebe 1ccd b1be 4777 2dbe a49d 8bbe
00000190: 1f39 ec3c a8f1 1bbe 1416 5d3e cb05 133e
000001a0: 99ed bdbc a232 8abe 9b5d 08bc f84b cd3e
000001b0: 313b e83d 7637 debd 7a1b 893d c73e 2abe
000001c0: 1ed2 2d3e 05ad 42be 420a 0ebd 42ce 98bd
000001d0: a345 5a3d 7f4a 75be f612 0fbd ace9 a43d
000001e0: e3d1 8f3d 9d55 5e3e 5155 c8be 2909 18bf
000001f0: a635 90bd c3b8 963d 0dd3 03be 3317 fa3d
00000200: 03af 02bd 4923 b1bd 7845 683e c01a 023e
00000210: 1d1e 24be d394 02bf b8d8 59be 2873 f4be
00000220: a2ad 12bf 0064 37bf 751e e4be 0501 e9be
00000230: a5bd e4be a11e 1dbf b85a 80be 1f1c 57be
00000240: ef06 803c ed10 7abe 4249 b73d f102 323d
00000250: 9ecd dd3c 1860 403e 651c acbd bd08 0f3e
00000260: cfc9 333d b786 6f3d e5bd dd3d 921b b6be
00000270: 34df 64be efd4 06be 78dc 3e3d 1ed4 66be
00000280: 567a e3bd c722 b6be 4596 8e3e c318 40be
00000290: 6ba8 5d3a 7693 c63e cd2f 543e 89af 3bbc
000002a0: 1004 563e 4ce0 06bc c0d2 ab3d 55a8 033e
000002b0: 3917 b03c 67dc 633e 010d 103d 1a5e 5e3c
000002c0: b69d 583d f5e7 ae3e 534f 49bd d8ed 793e
000002d0: 0edf 2f3e b566 813e 6cac a53e e2be 263f
000002e0: 8bbd 823e adac 20be 9fa9 c73d c92b 40bd
000002f0: a29e 8dbe 924d e5bd 4621 ffbd e712 553e
00000300: 8126 c13d 2d41 d53e 222c 91be 402f 36bd
00000310: 62f3 f43c a1fb 413c 3f06 103e 496f 963e
00000320: 448b 80bd 2c9d d63d 21d8 8dbe 14ee 31bf
00000330: daba 203e b02c 19be 8082 0abe 8cab 8bbe
00000340: 1d37 993d e67a 033e 9091 f03d b85e f2bd
00000350: c5e0 a63c 6f41 0cbe 8528 2fbe ce2e 2cbe
00000360: ac48 dc3d 30d9 ab3c eb2f 313e 10b5 ba3d
00000370: a34c d13e b12f b03e 3e2b 31bc b807 e43d
00000380: 61f4 1cbe b668 e03c c8b7 8a3e b5ff 063e
00000390: af44 7b3e a7d3 dd3e 92e7 f83e cbf7 493e
000003a0: 00e8 5b3e 7af0 a53d d31d 43be 5213 a8be
000003b0: 1b4d cabb 5e66 003e bc8e 993e bc67 713e
000003c0: b749 89bc 7183 f53d c90e c3be 96ee b03f
000003d0: 68f7 7b3e fd51 c53d eb48 343e cbe5 7d3e
000003e0: 181f 6b3e aa10 b43e e5e7 613e 6fa3 1b3e
000003f0: dd77 c7bd 7379 a93d 014c 12be 7265 a6bd
-0.02802001 -0.3133656 0.43416375 -0.566727 -0.08234871 0.028624378 0.039922208 0.043399926
0.049412068 0.11387949 -0.26037467 0.044705722 0.15724553 -0.28774917 0.32538974 0.041535556
0.04624676 0.09284083 0.18757899 0.059058405 -0.3922984 -0.6087139 -0.653946 -0.6771203
-0.13600136 0.07067843 0.47040644 0.8350865 0.5051799 0.30567184 0.11208643 0.12380718
0.15514947 -0.03351334 0.22813751 0.14220847 0.11925522 0.03845461 0.24570066 -0.07096853
-0.052554287 0.9254262 0.4642802 -0.7654177 0.49451378 0.23332919 0.23591176 0.15163451
0.16116925 0.043392453 0.08297501 -0.053650856 0.05268011 -0.051013783 -0.017391136 -0.28237042
-0.08628031 -0.16840445 0.06584469 -0.23563243 0.14283426 0.47043434 0.75245285 0.9099072
1.0172118 0.9264297 0.9321507 0.70468646 0.6923579 0.28977308 0.28811115 0.023906296
0.097691916 0.10796431 0.48487738 0.124795154 0.33075953 0.27140132 0.36833012 0.42039585
-0.07974543 0.06949253 -0.25203598 0.41734585 0.06767023 0.004330184 -0.13460054 0.0067392397
0.07660423 -0.0027779664 0.038356677 -0.03208488 0.30939186 -0.12293884 -0.01141966 -0.21244472
-0.40394422 -0.347268 -0.16940032 -0.27268708 0.028835831 -0.15228903 0.21590453 0.14357679
-0.023184584 -0.26991755 -0.0083230985 0.40097022 0.11339415 -0.10850422 0.06694694 -0.1662551
0.16974685 -0.19011314 -0.03467775 -0.074612156 0.053289067 -0.23954199 -0.034930192 0.08052382
0.070224546 0.21712346 -0.3912759 -0.5938898 -0.070414826 0.07359459 -0.12873478 0.12211456
-0.031905185 -0.08649308 0.2268275 0.12705517 -0.16027112 -0.5100834 -0.21274078 -0.47744107
-0.5729619 -0.7163696 -0.44554487 -0.4550859 -0.44675937 -0.6137486 -0.25069213 -0.21006821
0.015628306 -0.24420519 0.0894952 0.043459836 0.027075585 0.18786657 -0.08403853 0.13968177
0.04389363 0.058478083 0.10827235 -0.3556791 -0.2235077 -0.13167165 0.046596974 -0.22541854
-0.11107318 -0.35573408 0.27849022 -0.18759446 0.0008455577 0.3878438 0.2072136 -0.011455425
0.20899987 -0.0082321875 0.08389807 0.12857182 0.021495448 0.22252046 0.03516865 0.01357224
0.05288478 0.34161344 -0.049147915 0.24407136 0.17174932 0.25273672 0.3235811 0.65135014
0.25535235 -0.1569087 0.097491495 -0.046916757 -0.2766009 -0.11196436 -0.12457518 0.20807992
0.09431172 0.41651288 -0.28353983 -0.044478655 0.02990121 0.011839778 0.14064883 0.2938178
-0.06276563 0.10479197 -0.27703956 -0.69503903 0.15696278 -0.14958453 -0.13526344 -0.27279317
0.07481215 0.12839851 0.11746514 -0.118344724 0.02037085 -0.13696836 -0.171053 -0.1681473
0.107560486 0.020977587 0.17303436 0.09116566 0.40878782 0.34411386 -0.010813532 0.11134285
-0.15327598 0.02739368 0.2709334 0.13183482 0.2453792 0.4332554 0.48614174 0.19723432
0.2147522 0.08102508 -0.19054346 -0.3282724 -0.0061737425 0.1253905 0.2999171 0.23574728
-0.016758783 0.11987961 -0.38097218 1.3822811 0.24606097 0.09634779 0.17605941 0.2479469
0.2296108 0.35168964 0.22061117 0.15199064 -0.09739659 0.08275118 -0.14286806 -0.08124818

model/hidden_layers/0/b f4 [40]
00000000: 3087 2f3f cd5b 973e baee 6b3c d725 44bf
00000010: 2b39 2b3f 5c37 753f 1031 09bf 3acf 093f
00000020: 9df6 44bf 06ad 8a3f 4a3c 4ebd 89fc 983d
00000030: 9796 a6be 3d31 ac3e ff71 5b3d 8c47 e63c
00000040: 7f56 1fbe bcbb 3fbf e1fb d53e 99c2 213e
00000050: 73f5 953d 7346 d23e db23 60be 33ab 643e
00000060: d862 313e d8c7 eabe e655 44bf 9175 13bd
00000070: 1a30 b33d 53e3 af3d f661 e03c ea37 1e3e
00000080: be9d f13d 67c6 2b3f 5855 1abf 2f5d 853e
00000090: 8f64 b8bd 89c9 a4be 71d2 803d e633 4d3e
0.68565655 0.29562226 0.014400179 -0.7662024 0.66884106 0.95787597 -0.5359049 0.5383183
-0.769388 1.0834053 -0.050350465 0.07470042 -0.32536766 0.33631316 0.053575512 0.028110288
-0.1556034 -0.74895835 0.4179373 0.1579689 0.07322206 0.41069373 -0.21888678 0.22330932
0.17322862 -0.45855594 -0.7669357 -0.036000792 0.08749409 0.085882805 0.027390461 0.15451017
0.11797665 0.6709961 -0.60286474 0.26047656 -0.09003555 -0.3218501 0.062901385 0.20039329

model/hidden_layers/1/W f4 [40, 40]
00000000: 0e7a 04bd d446 103f f805 bbbe a4e8 ac3e
00000010: d274 753e edd3 e23d 9984 643e ce9f 833c
00000020: 4d73 6cbd db9b fb3d 6cca 34bd 506b 4cbd
00000030: 92f2 fe3e a668 ef3c efbf e4bd 4983 e0bd
00000040: e2c4 a03d 9093 f63e 0b78 aa3d e2ed 9abd
00000050: 6cf2 c5be 481e 31be 5ad4 7abe 47a2 ea3e
00000060: 5edf 2c3f 3d20 503e 1bf9 a2bb 418c 22bf
00000070: 4506 153c acf1 7a3d 9e99 073e e1ff 943e
00000080: 36ba f83e 11e3 af3d 0f27 323e 46ee 88be
00000090: 560a a43e 8bac b23a 8c5d 963e 5238 83be
000000a0: dad5 bcbd 7a66 b63e 1717 c6bd 5ab8 ebbd
000000b0: d2df 313e b953 08bf 6132 223f 3d12 a43e
000000c0: 8e24 e03e 4d89 16bf 81df 89be e2c4 76be
000000d0: b55d c03e dad1 053e b5a1 82be 4206 4abe
000000e0: 4985 383e d108 b13e 2d4b b5be f5df 78bb
000000f0: ed66 9fbe f709 983e ea08 d33d 6786 72be
00000100: 7066 073e 6597 0f3f e62f 8a3e f3ea ccbc
00000110: d8e5 9dbd a1d1 f43e ca94 aabe d9c1 a2bc
00000120: d89b b93e 5bb9 21bf 2d13 e0bc 4d0a bf3e
00000130: 76f3 223f 3fe1 a3bd 2198 eb3d 1e66 43be
00000140: b916 de3e a634 3dbf efce a1bd 3644 cf3c
00000150: 679d 9ebe a292 e23d 255b 9fbe 6672 ea3e
00000160: 067f 323e e34b d23d 7923 5f3e 9fea e93c
00000170: 0258 25bf 50c0 393d 1749 913d 1d43 bdbd
00000180: cc0b 58be aa65 11bf d970 0b3e 9628 a4bd
00000190: 0ee8 9d3e 392f 2f3f ee36 25be 1c7e 1e3e
000001a0: 9a2f e1be 3ca0 f6bd 170f 583b 914c 263f
000001b0: dc68 03be 5eec 9abc 6cd7 e2be 1836 b3be
000001c0: aae1 a0bf 4acd c5bd bec4 d23e 5b2d 97be
000001d0: 16c8 66bf 2bdc 13bf a374 3c3d b0f4 3a3f
000001e0: 0bcb b7bd f075 213e e4a1 afbc 6aca f13d
000001f0: aff0 debe e329 9ebe 0a52 0c3f 9c24 593d
00000200: 1233 793e 05af 18bf a472 77be 2143 97bd
00000210: d998 253e d9e3 a9bd 67de b9bd d269 2c3d
00000220: 41f4 133e affc ac3d 9f2d 7abe dafc 02bd
00000230: 0df6 4cbd bab8 90bd 0ac6 bc3c 007b 06bf
00000240: 0f14 b4be bd62 9e3e 9b6a a23e a311 273e
00000250: 7ee0 8b3d 2f0c 6c3e 8658 213e d7af b4be
00000260: 0724 c9bd 7cab 38be c947 423e 1434 263e
00000270: 2a57 293e 37a2 c13d 6296 a23d 9ce4 d93d
00000280: 696b bdbd 25c2 5a3f 6b1e 3f3e 73fe 0b3e
00000290: b3fc febd 3d69 e53e 51f1 413c 9e96 9ebc
000002a0: 5762 7e3e 7617 913d bf8b 5cbe 5541 0a3e
000002b0: b811 d93e 1b68 b6bb d256 7d3c 1025 9fbd
000002c0: 98e2 0bbf b884 143e db69 a73e 690b adbe
000002d0: cbe5 a4be 8e0b 75be 08ae bebe 1f2a 94be
000002e0: 1965 0e3f 54b7 263e 94ca 23bf 7a29 34bf
000002f0: 9930 21be 894a fcbd b5d7 303e 21e5 ca3d
00000300: 8fe2 833e 789d d7bd 085a 4fbe 3356 31be
00000310: 76ec 403f e287 00bd dddb 913e 95bf c2be
00000320: af6c cbbe 31ff a3be e06d 2a3e 0c40 593d
00000330: 77e4 423e bc47 a7be ecaf 983e 62d6 d4be
00000340: 8bcb c73e 3adc 05bf 3e29 64be 8cca 92bd
00000350: 0a72 b83d 9c44 1fbc 2e61 b7bd ab65 293e
00000360: 2bce 073f f35a 953e 6d31 85be 73eb 6e3d
00000370: 6302 22bd f2e0 a33b 1b4d 84bd ba36 fe3d
00000380: 5368 23ba 423a ab3e 1d72 cf3e f2f0 f63c
00000390: fac5 05be aeb6 f9bd fdd0 fa3c 8182 3cbe
000003a0: 26cb 4abe 12c6 eebe dafe 5e3e 8acf 2fbe
000003b0: a95b b8bd 81a2 aa3e 6f73 acbd 862b 1dbe
000003c0: 4f7a 413e 6888 93be 9d4c 773e 4d61 c5be
000003d0: 2ae2 073f 5768 cd3d ec38 ac3c 2987 3b3e
000003e0: 0931 44bd 5eee bd3e a2be 063e 3168 46be
000003f0: 83ad 5d3d ea08 df3e 7e7b f4bd bec1 b83d
-0.032342963 0.56358075 -0.3652799 0.3377124 0.23970345 0.11075578 0.22316207 0.016067412
-0.057727147 0.122855864 -0.044138357 -0.04990703 0.4979444 0.029224705 -0.11169421 -0.10962541
0.078500524 0.48159456 0.08323678 -0.07564904 -0.38661516 -0.17296708 -0.24495068 0.45826933
0.6752833 0.20324798 -0.0049735433 -0.6349526 0.009095733 0.061265633 0.13242194 0.2910147
0.48579568 0.08588231 0.17397712 -0.26744288 0.32039136 0.0013631744 0.29368246 -0.25628906
-0.092204764 0.35625058 -0.09672373 -0.11509772 0.17370537 -0.5325275 0.6335812 0.32045165
0.4377789 -0.58803254 -0.26928332 -0.24098542 0.37571493 0.13068333 -0.25513998 -0.1972895
0.18019594 0.3457704 -0.35408917 -0.0037975286 -0.31133214 0.29695103 0.103044346 -0.23684083
0.1322267 0.56090385 0.2698967 -0.025014376 -0.07709855 0.47816184 -0.33316642 -0.019867824
0.36251712 -0.63173455 -0.027352894 0.37312546 0.6365274 -0.08001947 0.11503626 -0.19081923
0.4337671 -0.7390846 -0.079007976 0.02530108 -0.30979463 0.11063124 -0.31124225 0.45790404
0.17431268 0.102683805 0.21790875 0.028554259 -0.64587414 0.04534942 0.07094019 -0.092413165
-0.2109825 -0.5679575 0.13617267 -0.08015554 0.30841106 0.6843143 -0.16134235 0.15477794
-0.4398163 -0.12042281 0.0032967979 0.6496058 -0.1283297 -0.018911537 -0.4430498 -0.35002208
-1.2568867 -0.096582964 0.41165727 -0.2952679 -0.90149057 -0.57757825 0.04600967 0.73029613
-0.08974274 0.15767646 -0.0214395 0.118061855 -0.43543002 -0.30891332 0.5481268 0.05301343
0.24335888 -0.5964206 -0.24164826 -0.07385851 0.16171588 -0.082954116 -0.09075623 0.042093106
0.14448644 0.08446633 -0.24431466 -0.03197942 -0.05003934 -0.07066484 0.023043651 -0.52531433
-0.35171553 0.30934706 0.3172196 0.16315322 0.06829928 0.23051523 0.15756425 -0.35290405
-0.09821325 -0.18034166 0.18972696 0.16230804 0.16537157 0.09454768 0.079388395 0.10639307
-0.092490025 0.8545249 0.18663947 0.13671283 -0.12450542 0.44806853 0.0118373195 -0.01935893
0.24842201 0.07084553 -0.21537684 0.13501485 0.4239633 -0.0055666096 0.015462594 -0.07770741
-0.5464263 0.14503753 0.3269795 -0.33797768 -0.32206568 -0.23930189 -0.3724215 -0.28938386
0.5562301 0.16280872 -0.63980985 -0.7037579 -0.15741195 -0.12318904 0.17269786 0.09906984
0.25758788 -0.10528082 -0.20249188 -0.17318039 0.7536081 -0.031379588 0.28488055 -0.3803679
-0.39731357 -0.32030633 0.16643476 0.053039595 0.19032465 -0.32671916 0.29821718 -0.4156981
0.39022478 -0.52289164 -0.22281358 -0.07167539 0.09006126 -0.009720948 -0.089540824 0.1654269
0.5304896 0.2917095 -0.2601427 0.05833001 -0.039553057 0.005001181 -0.06460019 0.12412782
-0.0006233502 0.33442885 0.4051675 0.030144189 -0.13063803 -0.121930465 0.030617232 -0.18409158
-0.19804057 -0.4663549 0.21776906 -0.17169014 -0.09001858 0.33327106 -0.08420455 -0.15348634
0.18894313 -0.28815007 0.2415032 -0.38550797 0.53079474 0.10029667 0.021023236 0.18313278
-0.047898326 0.37095922 0.13158658 -0.19375683 0.05412055 0.43561488 -0.11937617 0.090213284

model/hidden_layers/1/b f4 [40]
00000000: 1739 fe3c bc72 e8bd f409 043e dcbc 3abe
00000010: 5986 c73d 3a36 bfbe 2b59 833d b6ac febc
00000020: b817 39be adf5 b8bc ba08 0d3d 58d6 25be
00000030: dc0b 933e 08c2 d0bd 8354 c43b e6ce 09be
00000040: b425 233e 4f73 83bd aff1 d4bd 614e 3dbd
00000050: d10a 1abd 17e6 793d cdbb 023e 8327 9abd
00000060: 0cee 6c3c 9950 5ebd e465 2a3c bf17 173e
00000070: e564 ca3d 3995 f53d a188 9d3c 6765 c7bc
00000080: e60c ecbb 03c6 c63d cff4 ce3d fed6 a3bd
00000090: f42c f7bd deb0 3d3d dc26 5cbe 4046 80bc
0.031033082 -0.11350009 0.12894422 -0.18236107 0.09742422 -0.3734606 0.06413492 -0.031088214
-0.18075454 -0.022578085 0.03443215 -0.16195047 0.28719985 -0.101932585 0.00599152 -0.13457832
0.15932351 -0.06418478 -0.1039766 -0.046217326 -0.03760797 0.061010446 0.12766953 -0.075270675
0.014461052 -0.054276083 0.010400269 0.14755152 0.09882525 0.119913526 0.019230189 -0.024340345
-0.007203686 0.097057365 0.10105287 -0.07999991 -0.12069121 0.04631125 -0.21499199 -0.015658498

model/output/W f4 [9, 40]
00000000: f5ac 1a3f 1ae2 303f 3ea9 64bf 1e4f a73e
00000010: 568e f33e bf7b 193f ce9b cfbe 6ce1 a2bd
00000020: 1e25 c73e 24a5 3b3e 36f3 e93e 997b f23e
00000030: a78d f1be 4a9b d03e 6360 ac3e dcc9 993e
00000040: 4fb2 1cbe ee02 df3e 10f4 d93d 838d bdbe
00000050: 0ed7 683e b8fe 06bf 0667 bc3e 1ffd 07be
00000060: d34e 8f3d 6d61 eabe 1fea 1abf 48d7 9fbe
00000070: a096 61be 40ac 86be 1c8e 2fbf 5674 df3e
00000080: 4044 e73e 2644 79bd 2474 a03e ade7 5d3f
00000090: a64d cc3d 944c dabe 5b29 f03e 6f36 a73e
000000a0: 9496 f23d 3937 073f 254e 83bf a084 dc3e
000000b0: faef fe3e 5237 0b3f c82a a0be a148 27bd
000000c0: 507e b43e a650 013d 37be 0a3f af3c f13e
000000d0: 9cdd 1dbf 1fae 593e eafd 5a3e ff12 bf3e
000000e0: c24c 96be 61a4 203f b8e8 cbbe e14c 37bf
000000f0: 31fb dd3c a201 acbe d3b1 cd3e c805 e63d
00000100: c450 493e c7b7 cdbe 1614 a4be b7bd 0bbf
00000110: eb63 51be 6046 0abf 444c 15bf 6b7f 133f
00000120: ccea b13e 0a0e 66bd ae08 bc3d d4da 383f
00000130: 3814 1a3e 4f91 15bf 02fb 1a3f 83c5 803e
00000140: 67e7 1e3f 3095 073f a6d0 41bf 99ce 033f
00000150: 1d26 363f 1136 2f3f c57f ecbe 4282 95be
00000160: 5850 a43e c8d1 f33d 7037 ef3e 74f2 d93e
00000170: e13f ffbe 430a ac3e b61b 613e 48f1 ce3e
00000180: a806 99be 3bae f63e cf4e 8f3d e337 5dbe
00000190: 4889 d33d 6b7b b9be 09f7 853e a96e 2dbd
000001a0: a37e 213e 6dba b9be 75fd 1dbf d671 dabe
000001b0: 0ba1 33be 1de2 38be 97a4 35bf e829 063f
000001c0: a596 dc3e 5c7a dfbd 5e5d 4e3e c871 343f
000001d0: aced e83d 1cff 17bf 0b56 ec3e 9494 ca3e
000001e0: 2466 193f 2689 123f 49da 13bf 750e 043f
000001f0: deee 203f fdef cc3e 3317 a6be b8c7 9b3d
00000200: afbc 7b3e 3ff2 713e fa7a f13e 637c 293f
00000210: 4322 c5be a91c b13e 2613 9dbe ab33 963e
00000220: ccfb 97be ff1b 193f ba32 d83c d0af 37bf
00000230: 47bf 923e 8e52 b3be 31f1 0c3e 17df a3be
00000240: 54e8 153e beb9 64be 820d 5abf e52f 5ebe
00000250: f86c 4bbe b430 aebe 9586 10bf 046e 133f
00000260: fa5a dd3e d818 a63e 8fb4 ce3e e8fe 893f
00000270: 0fc3 46be 2e1d 5d3e a24b 0c3f b567 fc3e
00000280: de2b 9c3e dd30 273f 9402 4abf 4750 cd3e
00000290: 1a7c f03e 8039 2b3f 551a d9be efa6 a1be
000002a0: db1d c93e 22ee 463e 2cc3 ef3e d57e f33e
000002b0: 36e1 e8be 4bc5 b83e 2a8c f6bc 4fab a43e
000002c0: 972e a2be 156b 263f a947 82bd 2e96 d7be
000002d0: b6ad 6a3e c846 d4be cd0c 7c3e 1f15 a1bd
000002e0: d8f3 d93d 205c 26bf 9898 03bf fc4f a1be
000002f0: da8c 63be 0ef8 62be cbb8 34bf 426a dc3e
00000300: 8c21 0d3e 7109 14bd 51a6 813e 9c85 6d3f
00000310: 98b7 c2bd dc9e 10bf 2c93 f13e e525 a73e
00000320: 1ba0 9c3e d77d 163f c4a6 9bbf faf3 0e3e
00000330: d4d3 903e 0532 0c3f 9c00 f7be 5b31 0bbe
00000340: 9713 f23e d150 df3d 2fd3 043f a5f1 b63e
00000350: ee63 0dbf 3a4b 7a3e 7c0b 3abd bb22 af3e
00000360: aa50 8abe c31f cb3e 8787 28bf 921e 90bf
00000370: c194 e23d 9a22 f2be 1649 1e3f 987e 563a
00000380: 4c13 8e3e 686b 78bf 82c7 8fbd 7e1c febe
00000390: 2034 99bc cbf9 f7be ef8b 30bf 3c27 46bd
000003a0: 9df6 ba3e 7b93 6ebe ba96 da3d 3ad5 d03e
000003b0: 198a c13e 8250 37bf a93d 343f e9af 503e
000003c0: fc78 ce3e 0a25 3a3f 466b 4fbf e858 cf3e
000003d0: 7fc3 273f 510c b13e d051 6dbe 9f46 553e
000003e0: 6012 9c3e 564c 223e 50cb 0a3f 23bb 203f
000003f0: 10b9 03bf 59d2 af3e 790d ed3b cc89 6e3e
0.6042016 0.69095004 -0.89320743 0.3267755 0.4756953 0.59954447 -0.40548557 -0.07953152
0.38895506 0.18324715 0.45693368 0.47359923 -0.47178385 0.40743476 0.33667287 0.3003682
-0.15302394 0.43556923 0.10642254 -0.37022027 0.22738287 -0.5273242 0.3679735 -0.13280152
0.069974564 -0.45777455 -0.6051349 -0.31218934 -0.22030115 -0.2630329 -0.68576217 0.43643445
0.45169258 -0.060856007 0.31338608 0.86681634 0.09975748 -0.4263655 0.46906552 0.32658717
0.11845127 0.5281864 -1.0258223 0.43069935 0.49792463 0.5438129 -0.3128264 -0.04084075
0.3525262 0.031571053 0.54196495 0.4711661 -0.61666274 0.21257828 0.21385923 0.3731918
-0.29355437 0.6275082 -0.39825988 -0.7160168 0.027097316 -0.33594996 0.40174732 0.112315714
0.19659716 -0.40179273 -0.32046574 -0.54586357 -0.20448272 -0.54013634 -0.583195 0.576163
0.34749448 -0.056165732 0.09181343 0.72208905 0.15046775 -0.5842485 0.6053926 0.2515069
0.6207184 0.5296202 -0.75709 0.5148712 0.71151906 0.68441874 -0.4619123 -0.2920094
0.32092547 0.11905247 0.46721983 0.4256779 -0.49853423 0.3360158 0.21983227 0.40418458
-0.2988789 0.48179802 0.069974534 -0.2160335 0.10328919 -0.36226973 0.26165035 -0.042341862
0.15770964 -0.36275044 -0.6171487 -0.42664975 -0.17541902 -0.18055005 -0.7095427 0.52407694
0.43083683 -0.1091201 0.20152804 0.70486116 0.11373457 -0.5937364 0.46159396 0.3956648
0.5992148 0.5724052 -0.5775495 0.5158456 0.6286448 0.40026847 -0.32439575 0.07606453
0.24583696 0.23627566 0.47164136 0.66205424 -0.38502702 0.34592178 -0.30678672 0.29336295
-0.29684293 0.59808344 0.026391376 -0.71752644 0.28661558 -0.35023922 0.13763882 -0.32006142
0.14639407 -0.2233648 -0.8517686 -0.21697958 -0.19865787 -0.34021533 -0.56455356 0.57589746
0.43233472 0.3244083 0.4037213 1.0780916 -0.19410346 0.21593162 0.54802907 0.49297872
0.30502218 0.65308934 -0.78910184 0.4010031 0.46969682 0.66884613 -0.42402902 -0.31572673
0.3928059 0.19426778 0.46828592 0.47557703 -0.45484322 0.36088023 -0.030096132 0.32161948
-0.3167617 0.65007144 -0.06361324 -0.42106766 0.22917828 -0.41460252 0.24614258 -0.07865357
0.10642213 -0.6498432 -0.51404715 -0.31506336 -0.222217 -0.22164938 -0.7059447 0.43049818
0.13782328 -0.036141817 0.25322202 0.92781997 -0.09507674 -0.564924 0.47182596 0.326461
0.305909 0.58785766 -1.2160268 0.13960257 0.28286612 0.54763824 -0.48242652 -0.13593046
0.4728057 0.109040864 0.5188474 0.35731235 -0.55230606 0.24442759 -0.04542111 0.34206185
-0.27014667 0.3967267 -0.658318 -1.1259329 0.11063529 -0.47292024 0.6183027 0.0008182316
0.27749097 -0.9703889 -0.07020475 -0.49631113 -0.018701613 -0.48432764 -0.6896352 -0.04837726
0.36516276 -0.23298447 0.1067328 0.4078768 0.37800673 -0.7160722 0.70406586 0.20379604
0.4032668 0.7271277 -0.8102306 0.40497518 0.6553268 0.3457971 -0.2317574 0.20827721
0.3048277 0.15849432 0.5421648 0.6278555 -0.5145426 0.3434017 0.007234272 0.23294753

model/output/b f4 [9]
00000000: d266 93bb 74ef c33d 8be0 243d 2b07 8a3c
00000010: 93d8 ea3c 6d93 cd3b 4ba4 bd3b 9ec9 043e
00000020: d04e 7c3d
-0.004498341 0.095671564 0.040253203 0.016849121 0.028667724 0.006273678 0.0057874075 0.12967536
0.0615986
