python/results/2017_12_22_10_38_44/agent600/model.npz (npz, 14910 bytes, 6 tensors)

model/hidden_layers/0/W f4 [40, 40]
000000 6b 5b 16 bd f7 aa 6a be 2d 6c 4d 3e 08 9f ee be
       -0.036708277 -0.2291678 0.20060797 -0.46605706
000010 83 55 cc 3d 0c c1 0d 3e e0 d4 b4 3d b9 c7 6e 3d
       0.099772476 0.13843173 0.08829665 0.05829594
000020 96 1f ba 3d e3 ac f1 3d d0 88 6d be 56 42 fa 3d
       0.09088056 0.11800554 -0.23196721 0.12219684
000030 cb e1 5f 3e d4 5c 38 be 47 4e b4 3e f8 d6 db 3b
       0.21863477 -0.18004161 0.3521597 0.006708976
000040 60 5f ce 3c 02 19 18 3e c9 66 77 3e 9c 4b 92 3d
       0.025191963 0.1485329 0.24160303 0.071433276
000050 ae 96 9e be b9 eb c0 be a9 dc ad be 4f 03 85 be
       -0.30974334 -0.37679842 -0.33957413 -0.25979087
000060 81 05 0d 3e 96 d7 51 bd 41 62 8e 3d 4f 92 c6 3e
       0.13771631 -0.05123099 0.06952334 0.387835
000070 e9 06 19 3e 68 51 5b 3c 2c 17 db bd da f1 51 bc
       0.14944042 0.013386108 -0.10697779 -0.01281401
000080 aa b6 de 3d 3f ca 45 bc 36 68 b1 3e 2c 68 48 3d
       0.10874684 -0.012072145 0.3464982 0.04892747
000090 15 ae ed bd 8f 16 bc bd 49 b9 c3 3e 37 61 e9 3d
       -0.11605469 -0.0918399 0.382273 0.113954954
0000a0 ce 34 0d bd 4f 79 50 3f 69 2c 0b 3f 3a e3 8c be
       -0.034474187 0.814351 0.5436464 -0.2751711
0000b0 9e 1a 99 3e a2 c4 ff 3d 34 f0 ae 3e d5 44 02 3e
       0.2990312 0.124886766 0.34167635 0.1272157
0000c0 07 15 f7 3b 56 e2 20 bc 65 2a d4 bc 9c f2 0d be
       0.0075403485 -0.009819588 -0.025899122 -0.1386208
0000d0 9e 61 a7 bd 56 7d 8f be 55 37 db bc 8b 6a c4 be
       -0.08172916 -0.2802531 -0.026759783 -0.38362536
0000e0 23 53 ab bd 19 0c 52 be af c9 4d 3d 0b e4 39 be
       -0.083654664 -0.20512427 0.05024117 -0.18153398
0000f0 d6 93 24 3e c5 4b a4 3e aa ce ea 3e 1a be fe 3e
       0.1607202 0.32089058 0.45860797 0.4975441
000100 61 20 13 3f ff 85 0a 3f 71 2a 38 3f f9 b6 03 3f
       0.5747128 0.5411071 0.7193976 0.5145107
000110 9d 9a 12 3f ed 0c 81 3e 05 b0 95 3e 10 2c b6 3c
       0.5726717 0.25205174 0.29235855 0.022237808
000120 ca 3a 98 3d 9d 2b 6e 3d de 84 b4 3e 05 ce 78 bc
       0.07433088 0.05814706 0.3525762 -0.015185838
000130 a0 02 57 3e e6 6e 3b 3e ee 60 5b 3e 63 d6 7e 3e
       0.20997095 0.18304023 0.21423694 0.2488647
000140 58 bd a8 bc 01 4f 32 3d 80 72 98 be b3 5e d3 3e
       -0.020598099 0.043532375 -0.29774857 0.41283187
000150 8e 44 7f 3d 6a 3b 98 bc 0b 2d f9 bd a8 92 22 3d
       0.06232124 -0.018583018 -0.121667944 0.039690644
000160 75 32 b0 3d c3 81 e8 3c 79 40 f8 3c a5 82 22 bd
       0.08603374 0.028382188 0.03030418 -0.039675374
000170 c6 07 9f 3e db fb a6 bd 4a 90 83 3d eb e7 03 be
       0.31060618 -0.08153506 0.06424005 -0.12881438
000180 32 94 b0 be 52 b9 a7 be 16 38 51 be e4 a2 af be
       -0.34488064 -0.32758576 -0.20431551 -0.34303963
000190 c5 0d bb 3c b8 4b 1e be c4 c2 2b 3e 78 12 96 3d
       0.022833714 -0.15458572 0.16773516 0.073277414
0001a0 03 ce eb bd 9e 51 9b be 9b 51 4c 3b 36 64 cd 3e
       -0.11513903 -0.30335706 0.003117657 0.40115517
0001b0 9b 30 c6 3d eb 80 e4 bd 51 3b a6 3d aa 0b 16 be
       0.096772395 -0.11157402 0.081167825 -0.14652887
0001c0 fd c3 48 3e a2 44 15 be c6 f9 02 3d 4c d3 34 bd
       0.19606014 -0.14576963 0.031976484 -0.04414682
0001d0 80 d4 98 3d 34 12 50 be 37 fc e8 bc 4b 16 80 3c
       0.07462406 -0.20319444 -0.028440578 0.01563563
0001e0 26 cf 8e 3d 98 f6 cf 3d 7e c9 3c be ad 41 e3 be
       0.06973104 0.10154456 -0.18436238 -0.44386044
0001f0 85 c6 7f bd ae 32 2c 3e 21 67 ac bd 11 48 29 3e
       -0.062445182 0.16816208 -0.08418108 0.16531397
000200 ab b8 57 3d 4c 3c c4 bd d5 b9 53 3e 62 48 e0 3d
       0.052666347 -0.09581813 0.20676358 0.10951306
000210 35 ed f2 bd c9 22 df be ff d1 d8 bd e2 1a ac be
       -0.1186165 -0.43581226 -0.105869286 -0.3361426
000220 1d bb cc be f9 b6 cd be bf 46 1b be 52 c3 83 be
       -0.39986506 -0.4017866 -0.15163706 -0.25734955
000230 90 9c 65 be 62 81 d9 be ee 17 b3 bd 8e e4 26 be
       -0.22423005 -0.42481524 -0.087447986 -0.16298124
000240 64 d1 c2 3a 9e 0f b8 be ed e0 66 3d e5 63 e6 3c
       0.0014863429 -0.35949415 0.05636685 0.028123805
000250 61 f3 65 bc 38 fe 2e 3e c6 3f d6 bd 82 05 18 3e
       -0.014035077 0.17089164 -0.104613826 0.14845851
000260 13 ec 85 3d 48 e1 8e 3d 54 2f 78 3d b8 0a 86 be
       0.06539168 0.06976563 0.06059201 -0.26180053
000270 87 e5 cb bd e3 4f 8a ba c1 44 b9 3d 14 84 8d be
       -0.09955888 -0.0010552373 0.09046317 -0.2763983
000280 75 60 c0 bd 33 d5 45 be 5c 44 13 3e 99 d5 37 bd
       -0.09393398 -0.1931961 0.14381546 -0.044881437
000290 e2 3d 72 be 0f 63 55 3e 58 a1 87 3e 40 fa 63 be
       -0.23656419 0.20838569 0.26490283 -0.22263432
0002a0 94 92 a3 3d c4 69 7e bd 15 b0 09 3d ff 29 ea 3d
       0.07986942 -0.062112585 0.03361519 0.11433791
0002b0 9c 7b 9b bc 10 52 48 3e ad 2a 6c 3c 37 49 45 bd
       -0.01897984 0.19562554 0.014414472 -0.048165526
0002c0 47 f2 c0 3c 3f a6 be 3e 9d fe d5 bc 6f 1c 4c 3e
       0.023553027 0.3723621 -0.026122386 0.19932722
0002d0 5e 87 ea 3d 54 d9 8e 3d ad b6 fb 3d 41 5e a6 3e
       0.114516005 0.06975046 0.12290702 0.32493785
0002e0 c4 46 a6 bd 60 0f a4 be c5 49 fe 3d f3 89 07 3c
       -0.08118966 -0.3204298 0.12416414 0.008272636
0002f0 20 d9 87 be 92 c3 d0 bd 99 0d e8 bd 24 ef 5b 3e
       -0.2653284 -0.10193552 -0.113307185 0.21477944
000300 a2 e7 f7 3d 3f a1 ed 3e 61 1c 69 be b8 89 be bd
       0.12104727 0.46412084 -0.22764732 -0.093036115
000310 ee f8 87 3d 87 02 d4 3d 44 33 37 3e 5a be 56 3e
       0.066392764 0.103520446 0.1789065 0.20971051
000320 f7 b5 34 bd 77 1c be 3d 4d a3 95 be ee b5 c4 be
       -0.044118848 0.09282773 -0.2922615 -0.3842005
000330 4d 76 f9 3d f5 b7 36 be ba eb fe bd 51 ca 61 be
       0.12180767 -0.17843612 -0.12447305 -0.22049834
000340 a6 09 82 3d db d5 4d 3e 75 cc 3d 3e fc 43 ba bd
       0.063494965 0.2010111 0.18535025 -0.09094998
000350 4d 82 e2 bb 5f be e0 bd 91 9c a9 bd 1f 7d 1f be
       -0.0069125057 -0.109738104 -0.08281816 -0.15575074
000360 10 a0 35 3e 98 33 14 3d 1d b7 c7 3c 53 6d 35 be
       0.1773684 0.036182016 0.024379307 -0.17717485
000370 0e 05 98 3e ea f6 cf 3e 9b 1d fc 3d 86 28 35 3e
       0.29691356 0.40618068 0.12310334 0.1769124
000380 5d 0a 27 be 9f 3e 32 be 0b 11 b1 3d 4a 53 2e bd
       -0.16312547 -0.174067 0.08645829 -0.0425599
000390 8e f1 86 3d a9 61 73 3e 74 98 c0 3e 57 96 3d 3e
       0.06589042 0.23767723 0.37616313 0.18514381
0003a0 8e b1 98 3e 27 06 73 3e f7 ad 90 3d fc da 4f be
       0.29822963 0.23732816 0.07064431 -0.2029838
0003b0 05 13 27 3d 58 1d 01 3d 74 c4 0d 3e 79 36 03 3e
       0.040789623 0.031522125 0.13844472 0.12813748
0003c0 43 be 87 3c 44 70 3f be 9c d1 50 be 10 1c 6c 3f
       0.016570216 -0.1869517 -0.2039246 0.9223032
0003d0 91 c8 53 3c 58 b6 72 3d 6f 4a 12 3e 94 a3 c9 3d
       0.012926237 0.059255928 0.14286207 0.09845653
0003e0 0b 8a 4f 3e 5c 41 9f 3e 95 ca 94 bc 38 9a 88 bd
       0.20267503 0.31104553 -0.018163005 -0.0667004
0003f0 7c 1f 6b be 61 fd 32 bd 2d d0 59 be ac 82 e4 bd
       -0.22961229 -0.043698672 -0.21270819 -0.11157736

model/hidden_layers/0/b f4 [40]
000000 88 e4 b4 3e fc d7 b4 3c df 31 5c 3c da 44 95 be
       0.35330606 0.022075646 0.013439625 -0.29154092
000010 66 20 bf 3e 9d 61 21 3f 8f 21 82 be 18 4a ba 3e
       0.37329406 0.6303957 -0.25416228 0.36384654
000020 70 b7 d0 be 81 ad 09 3f 8b 84 4e 3c 9a 22 66 3b
       -0.40764952 0.5378037 0.012604843 0.003511584
000030 67 1c 4a be 27 3d 39 3e e3 6f db 3c 3b ce 81 3d
       -0.19737397 0.18089734 0.02678675 0.063381635
000040 bd f7 5e be fb 6a ab be e5 47 85 3e f2 84 97 3d
       -0.21774192 -0.33480057 0.26031414 0.07398404
000050 82 88 cb 3d a6 3f 8a 3e c3 fe 05 be 6f dc 47 3e
       0.09938146 0.27001685 -0.13085465 0.19517682
000060 9d 0f 43 3d bf 86 55 be c5 d9 a0 be 77 12 07 3d
       0.04762231 -0.20852183 -0.31416145 0.032976594
000070 2d 48 80 3d 62 e5 62 bc 74 d3 3d 3d 93 8e 3b 3e
       0.062637664 -0.013848634 0.046344236 0.18316106
000080 09 73 1a bd 0d b1 f6 3e cf f3 d4 be 3d c4 07 3e
       -0.037707362 0.48181954 -0.4159226 0.13258453
000090 9e 8b 2d be 33 08 93 be 04 6d 48 3d 11 11 3e 3e
       -0.16947791 -0.28717193 0.04893209 0.18561198

model/hidden_layers/1/W f4 [40, 40]
000000 f5 3e 4d 3a 6f ff cf 3e e9 b8 bc be 12 cb 44 3e
       0.0007829511 0.40624568 -0.36859825 0.1921809
000010 45 1b 54 3e 16 87 17 3e ba fc 4d 3e fa a2 da 3c
       0.20713528 0.14797625 0.20115939 0.026689041
000020 dc c9 54 be 11 34 b3 3d 8b 6c ac bc 4b 68 a5 bd
       -0.20780128 0.08750165 -0.021047851 -0.08076533
000030 66 47 ad 3e 95 1f d5 3c 6b e7 8d bd e9 1c 03 be
       0.33843535 0.026016036 -0.06928905 -0.12803997
000040 50 66 8e 3d 1b a2 97 3e 0a e8 5d 3d b1 f7 14 bd
       0.06953108 0.29615864 0.054176368 -0.03636903
000050 71 f8 b1 be 47 0a a0 bd 89 ed 8b be fb 65 01 3f
       -0.34759858 -0.0781446 -0.27329662 0.50546235
000060 e6 74 0e 3f fd 21 fb 3c f3 15 cb bc 25 3e 08 bf
       0.5564712 0.030655855 -0.02479074 -0.53219825
000070 f2 30 29 3d e3 44 12 3d 48 9b dc 3d c5 6e 5c 3e
       0.041306444 0.035710227 0.10771805 0.2152663
000080 2a 8c cf 3e e5 b6 40 3c 1d 72 16 3e cb 2f a0 be
       0.40536624 0.011762355 0.14691968 -0.31286463
000090 ab 18 32 3e 0d 1a 62 bd a7 d6 94 3e 32 d4 58 be
       0.17392223 -0.055200625 0.29070017 -0.21174696
0000a0 57 42 c0 3d 56 86 34 3e 8a 0a c4 bd 92 21 f4 bd
       0.09387653 0.1762937 -0.09572323 -0.119204655
0000b0 f4 5c ed 3a 3f 08 13 bf 31 ef b2 3e ae a7 a7 3d
       0.0018109367 -0.5743446 0.34948114 0.08186279
0000c0 32 1e a8 3e 88 aa ea be 5d b8 20 be a0 1a 61 be
       0.32835537 -0.4583323 -0.15695329 -0.21982813
0000d0 85 37 85 3e 9f b6 98 3d f7 9f 51 be 76 90 51 be
       0.2601892 0.07456707 -0.20471178 -0.20465264
0000e0 e1 fe 21 3e 51 7e 23 3e 02 0c 93 be 91 83 7d 3c
       0.15819885 0.15966155 -0.287201 0.015473262
0000f0 32 fc 71 be 88 9a b5 3d 78 83 ea 3d 6d 4c c7 bd
       -0.23631361 0.08867365 0.11450857 -0.09731374
000100 03 5d 27 3e e7 41 68 3e 26 9a 61 3e 24 da c6 bd
       0.16344075 0.2268139 0.22031459 -0.09709576
000110 dc 00 f6 bd b7 53 e0 3e 74 1d a2 be fb 7b 02 bd
       -0.12011883 0.4381387 -0.31663096 -0.03185652
000120 64 d0 c6 3e 87 d8 01 bf 1c a2 7d bc 2d 9b 60 3e
       0.38830864 -0.5072102 -0.015480544 0.21934195
000130 b5 24 e4 3e e2 be b1 bd 36 43 e4 3d 79 7a 81 be
       0.44559255 -0.08678986 0.11145632 -0.25288752
000140 74 06 53 3e fc db b9 be 15 fb 69 bd 17 b8 66 3d
       0.2060793 -0.36300647 -0.057124216 0.056327906
000150 f9 4e 82 be 0d 7a b7 3b a9 91 30 be 38 f0 00 3f
       -0.25450876 0.0055992664 -0.17243065 0.50366545
000160 94 bb 83 3e 57 17 b7 3c ff a9 59 3e 44 f7 b2 3d
       0.25729048 0.022349996 0.21256255 0.087385684
000170 d7 f8 9e be 52 7c 59 3d 16 af 67 3d b3 6f ef bd
       -0.31049225 0.053097077 0.05656346 -0.11691227
000180 52 74 52 be dd 39 35 bf ea b3 04 3e 96 3b 14 be
       -0.20552185 -0.7079142 0.12959257 -0.14475855
000190 5d 8f 07 3e 92 2d 30 3f 57 0a 76 be 98 21 6f 3d
       0.13238283 0.68819535 -0.24027382 0.058381647
0001a0 7c 87 49 be a4 f7 b6 bd 6e 33 1d 3d e9 aa 02 3f
       -0.1968059 -0.089339525 0.038379125 0.5104204
0001b0 a9 77 11 be 9e 97 16 3d 31 c4 b7 be 28 47 45 be
       -0.14205803 0.036765687 -0.3589187 -0.19265425
0001c0 99 3c 86 bf 42 de c6 bc af 03 ae 3e 52 d1 94 be
       -1.0487243 -0.024275903 0.33987185 -0.2906595
0001d0 f5 93 2b bf f0 56 17 bf ce b8 16 3d c9 76 2a 3f
       -0.6702264 -0.5911703 0.036797337 0.665875
0001e0 1b f8 a8 3d e2 9d 21 3e c4 a3 8a bc 51 4e 03 3e
       0.08250447 0.15782884 -0.016923793 0.12822844
0001f0 15 0d b2 be 18 70 76 be d1 75 f7 3e d2 82 9c 3d
       -0.34775606 -0.24066198 0.48332074 0.076421395
000200 2a 83 20 3e 7f 3f fe be 85 98 5e be d1 ff 86 bd
       0.15675035 -0.4965782 -0.21737869 -0.06591762
000210 33 b4 49 3e 6e 9b 28 bd e4 4b 85 bd 9a de 15 3c
       0.19697647 -0.041163854 -0.065086156 0.009147311
000220 06 c6 cc 3d aa d3 de 3d 31 a2 30 be ad 0d 2b bc
       0.099987075 0.108802155 -0.17249371 -0.010440272
000230 5c 05 00 be 88 68 d0 bd 82 04 91 bd 1c 7e e5 be
       -0.12502044 -0.10176188 -0.07080938 -0.44822776
000240 f1 0b 85 be 22 c7 74 3e eb 97 84 3e 47 32 0d 3e
       -0.25985673 0.23904088 0.25897154 0.1378871
000250 c5 e7 db 3d b4 74 6d 3e 67 63 94 3d 31 2c a7 be
       0.10737566 0.2318905 0.07245522 -0.32650903
000260 fc fd 87 bd 09 2b 0b be d2 4f 3f 3e e9 1c f1 3d
       -0.066402406 -0.13590635 0.18682793 0.11773092
000270 ba b1 6d 3e 3d bb 20 3d 7c e9 d2 3d 93 0d 73 3c
       0.23212329 0.039241064 0.1029844 0.014834779
000280 49 08 97 bd 45 d2 33 3f 4d 2f 50 3e 91 1b 11 3d
       -0.07374627 0.7024272 0.20330544 0.03542668
000290 08 ce 15 be 1b f6 dc 3e 24 5b ca bc a1 47 8d bc
       -0.14629376 0.43156514 -0.024701662 -0.01724607
0002a0 d5 a7 19 3e 05 50 d7 ba c1 5a 30 be cc 2b 06 3e
       0.15005429 -0.0016427046 -0.1722212 0.13102645
0002b0 bc 7e 99 3e 1c ca 0d bb 64 45 5a 3d 07 18 e0 bd
       0.29979503 -0.002163536 0.053288832 -0.10942083
0002c0 ae a4 01 bf 3e bc 74 3d 80 00 a5 3e 4d 6c 98 be
       -0.50641906 0.059749834 0.32226944 -0.29770127
0002d0 78 e1 b3 be 54 9d 40 be 4b 22 bf be 9e c5 7a be
       -0.35132957 -0.18810016 -0.3733085 -0.24489447
0002e0 fb 35 db 3e 86 5a fa 3d 2f 01 1e bf ad 03 1a bf
       0.4281462 0.12224297 -0.61720556 -0.6016186
0002f0 4e 1b 12 be 7c e0 14 be b9 9d 44 3e f9 16 54 3c
       -0.14268228 -0.14538759 0.19200791 0.01294493
000300 74 90 52 3e 86 04 23 be 76 b3 4f be 20 ce 24 be
       0.20562917 -0.15919694 -0.20283303 -0.16094255
000310 5b 18 2c 3f ba d9 8a bd 94 6a 78 3e 76 32 90 be
       0.67224663 -0.06779809 0.24259406 -0.281635
000320 f0 d2 a6 be a0 7f ab be 8a 9d 07 3e b9 e2 e8 bc
       -0.32582808 -0.33495808 0.1324369 -0.028428422
000330 64 dd 2c 3e 1b da b4 be 64 b8 91 3e 3c 77 b4 be
       0.16881329 -0.3532265 0.2846099 -0.3524722
000340 ce a9 a8 3e f3 de a7 be dc 2a 23 be 56 97 d4 bd
       0.3294205 -0.32787284 -0.15934318 -0.103804275
000350 0f be 5d 3d 5f b7 64 bd b0 19 1c be 2a 4b 9b 3d
       0.054136332 -0.05583894 -0.15244174 0.07582696
000360 df 89 d2 3e 62 5b a1 3e 62 bc 28 be 2e f0 6b 3c
       0.41120812 0.31515032 -0.16478112 0.014400525
000370 00 2b 20 bd b2 f8 87 3d 27 64 16 be ff 9a 9b 3d
       -0.039103508 0.06639232 -0.14686643 0.075979225
000380 dd b5 5f 3c 19 78 86 3e 01 a1 72 3e d3 fe 65 3d
       0.013654199 0.26263502 0.2369423 0.056151222
000390 4d 31 2d be 82 be 1c be 95 67 eb bb d9 7c 2f be
       -0.16913338 -0.15307048 -0.007183979 -0.1713747
0003a0 9e 2e 28 bc ef 25 ab be 7e 82 b0 3e 33 0e 18 be
       -0.010265021 -0.3342738 0.34474558 -0.14849167
0003b0 b2 29 2e 3e e6 2c 97 3e 14 e2 94 3c 67 06 30 be
       0.17008093 0.29526442 0.018174209 -0.17189942
0003c0 a4 35 22 3e a9 3c 4c be e5 b7 47 3e 2a b3 70 be
       0.15840775 -0.19945015 0.19503744 -0.23505846
0003d0 ca 9e fa 3e 0b e9 07 3e fa a9 ae bd b9 85 23 3e
       0.4894927 0.13272493 -0.08528514 0.1596898
0003e0 15 84 0b 3e b2 8b 6c 3e 38 4d 7e 3c 12 c6 58 be
       0.13624604 0.23100165 0.01552134 -0.21169308
0003f0 23 d6 a7 bb 83 55 c9 3e e4 3b a2 bd c5 d9 f5 3d
       -0.0051219626 0.39323053 -0.079215795 0.12004427

model/hidden_layers/1/b f4 [40]
000000 dc 79 03 3d 64 2d 38 be 1e c6 0d 3e 7f 27 2d be
       0.032098636 -0.17986065 0.13845107 -0.16909598
000010 02 cf 54 3d ef 23 83 be 9a 8c 3b 3d 95 cd c8 bc
       0.05195523 -0.25613353 0.045788385 -0.024512092
000020 52 6e ec bd bf 97 5a bc 37 e0 24 bd e7 3c fe bd
       -0.115444794 -0.013341843 -0.04025289 -0.1241396
000030 46 6d 83 3e f3 78 fa bd 93 98 97 3c 71 f7 f9 bd
       0.25669307 -0.122301005 0.01850537 -0.12205399
000040 cf f8 ef 3d a6 6f c2 bc d1 74 f6 bd 45 6b 79 bc
       0.11717378 -0.023734879 -0.12034 -0.015223329
000050 5c ec e8 bb 98 73 34 3d 9f 1a 85 3d 7b 32 e2 bc
       -0.0071082544 0.04405555 0.06499218 -0.027611962
000060 2b 56 29 bc 0c 7c da bb 89 03 3f 3c 05 49 c9 3d
       -0.010335485 -0.0066676196 0.011658558 0.098283805
000070 a1 4c be 3d a6 89 ce 3d c5 45 1c 3d b5 e0 f9 bc
       0.092919596 0.10084848 0.038152475 -0.030502656
000080 19 d5 77 bc 8a d3 36 3d 9f aa fb 3c 15 72 c7 bd
       -0.01512649 0.044635333 0.030721007 -0.09738556
000090 f5 26 ae bd 87 aa dc 3c 03 e4 2b be 51 be 8b bc
       -0.08503524 0.026936783 -0.16786198 -0.017058523

model/output/W f4 [9, 40]
000000 96 33 ea 3e 45 53 10 3f 41 e3 33 bf 1e d2 54 3e
       0.45742482 0.5637706 -0.70268637 0.20783278
000010 27 45 b4 3e a7 50 05 3f fd 84 94 be 21 70 e0 bc
       0.3520901 0.5207619 -0.29007712 -0.027397217
000020 e8 88 96 3e ef 46 92 3d 95 7f ca 3e 7f e4 69 3e
       0.29401326 0.07142436 0.39550462 0.2284107
000030 67 f1 9f be 31 47 9a 3e f6 33 6f 3e e7 17 66 3e
       -0.31238863 0.3013244 0.23359665 0.22470056
000040 32 b7 1d be ba df 8e 3e 12 84 ae 3d f8 e9 64 be
       -0.15401915 0.27905065 0.08521284 -0.22354877
000050 d6 05 17 3e 5f 17 e5 be b7 5a 7f 3e c1 ce 02 be
       0.1474832 -0.44744393 0.24936949 -0.12774183
000060 07 01 f9 3b 32 bc 90 be 8b ed d5 be 20 d2 83 be
       0.0075989994 -0.28268582 -0.41782793 -0.2574625
000070 bb bc 3b be 56 05 0f be 41 65 07 bf 2a 50 a1 3e
       -0.18333714 -0.13966879 -0.52888876 0.31506473
000080 2b 3a a1 3e 19 e8 e2 bc d0 48 78 3e f1 76 24 3f
       0.3148969 -0.027698563 0.24246526 0.6424399
000090 bd e4 ff bc 8b 2b 87 be 60 36 ab 3e da 7e 80 3e
       -0.031237 -0.26400408 0.33439922 0.2509678
0000a0 90 5a 6a 3d 48 3e d0 3e f2 f4 40 bf 3d 70 a7 3e
       0.057215273 0.40672517 -0.75373757 0.3270282
0000b0 9d 87 c6 3e 9c 5c d6 3e 01 2a 0d be 1b 6d 5e bb
       0.3877534 0.4186753 -0.13785554 -0.0033939544
0000c0 be 34 81 3e 0e 24 89 3c 3c 7d 05 3f b5 df b0 3e
       0.25235552 0.016740825 0.5214422 0.34545675
0000d0 08 97 06 bf 0f 6a 2f 3e 53 07 3f 3e 4c 93 80 3e
       -0.52574205 0.17130302 0.18655138 0.2511238
0000e0 20 eb 45 be cc 33 e8 3e bf fe 88 be f3 e6 05 bf
       -0.19327974 0.45352018 -0.26756856 -0.52305526
0000f0 75 b6 36 bd a5 ae 4f be 9f f9 60 3e ef 8a bc 3d
       -0.0446076 -0.20281465 0.21970223 0.09206187
000100 2a 13 03 3e 2b ef 2b be 08 99 89 be 9b b8 cb be
       0.1280028 -0.16790454 -0.26874566 -0.3978928
000110 ac 01 2c be 0d ed e7 be e0 64 c2 be 5d 52 ec 3e
       -0.16797513 -0.45298043 -0.37967587 0.46156588
000120 26 41 5a 3e b9 23 de bb 86 8d a7 3b 3e 47 10 3f
       0.21313915 -0.006779161 0.0051133065 0.56358707
000130 41 65 48 3d 11 b7 9a be 11 fb d4 3e fd 2d 31 3e
       0.04892469 -0.30217794 0.41597798 0.173027
000140 1d 94 f7 3e 45 ce b6 3e 40 1f 08 bf f9 e2 ca 3e
       0.4835519 0.35704246 -0.53172684 0.3962629
000150 3c 1c 09 3f a6 1f 14 3f 5c a2 a9 be 7d 8f 88 be
       0.5355871 0.5786079 -0.33131683 -0.26671973
000160 ad 5e 2c 3e e7 ab aa 3d 69 bf dc 3e 2f 64 9a 3e
       0.16832991 0.08333569 0.43114784 0.3015456
000170 b8 36 9f be ae 14 59 3e 9b 9d 41 3e 9a 0d 95 3e
       -0.31096435 0.21199295 0.18907778 0.2911194
000180 11 c7 63 be 11 c4 a8 3e b7 bf f9 3d c7 58 32 bd
       -0.22243907 0.32962087 0.1219477 -0.043541696
000190 f9 ee 85 3d 9b 97 81 be 64 5f 70 3e 97 df 10 3c
       0.06539721 -0.25310978 0.23473889 0.0088423705
0001a0 f0 dc 00 3e f9 15 3a be 1f 2b eb be 91 0a c3 be
       0.12584281 -0.18172444 -0.45931336 -0.38094
0001b0 5a 58 0e be 85 d5 78 bd 83 92 00 bf dc b5 c7 3e
       -0.13900891 -0.060750503 -0.5022356 0.39005935
0001c0 8f d4 b2 3e c2 0a a2 bd 62 28 14 3e 09 12 ff 3e
       0.34927794 -0.07912208 0.1446853 0.49818447
0001d0 c6 26 fe 3d 3c 2f f5 be 46 29 9d 3e c7 5d 9a 3e
       0.12409739 -0.478876 0.30695552 0.3014967
0001e0 a0 0a c2 3e 22 81 a5 3e 86 fe be be 3d 87 dd 3e
       0.3789873 0.32325083 -0.3730356 0.4326724
0001f0 43 26 e0 3e d1 ca 8f 3e f2 97 84 be 69 f2 88 3d
       0.4377919 0.28084424 -0.25897175 0.06686861
000200 36 e4 43 3e 09 59 27 3e 63 91 d8 3e a1 cb cd 3e
       0.19130024 0.16342558 0.4229842 0.4019442
000210 d8 d1 1c be df 19 a3 3e 36 12 99 be 24 27 3a 3e
       -0.15314424 0.31855676 -0.29896706 0.18178993
000220 5c b2 57 be 00 d1 e4 3e d3 e8 46 be d3 06 1f bf
       -0.21064132 0.44690704 -0.19424753 -0.6211979
000230 9a bd 58 3e 06 fe b8 be 21 b5 22 3e f0 f4 66 be
       0.21166077 -0.36131305 0.15889408 -0.22554374
000240 55 b5 f1 3d 15 8a 15 be 1a 95 f3 be 20 3e d2 bd
       0.118021645 -0.14603455 -0.47574693 -0.10265756
000250 a2 58 d4 bd 24 50 8c be 20 f9 b2 be 37 f4 bf 3e
       -0.10368468 -0.27404892 -0.34955692 0.3749101
000260 a8 29 8a 3e 8c b4 08 3e 35 6d c6 3e 8b 95 37 3f
       0.26984906 0.13350123 0.38755193 0.7171256
000270 d1 0e 0f be d5 12 ac 3c 32 9d df 3e 61 2d d5 3e
       -0.13970496 0.021005074 0.43674618 0.41636184
000280 49 ee 27 3e 63 7a 04 3f 28 6d 0f bf e0 4d 99 3e
       0.16399492 0.5174925 -0.56025934 0.29942226
000290 18 2a b4 3e 80 22 1e 3f 74 ba 88 be 8a fd 95 be
       0.35188365 0.6177139 -0.26704752 -0.29294997
0002a0 cc 17 40 3e 90 89 00 3e 87 d3 da 3e e1 3f cf 3e
       0.18759078 0.12552476 0.42739508 0.40478423
0002b0 51 06 ad be e4 ea 86 3e df c2 9a bd fb 22 77 3e
       -0.33793882 0.26351082 -0.075567 0.24134438
0002c0 2f 9a a3 be 7c 97 f4 3e e8 08 a5 3b 79 9e a6 be
       -0.3195357 0.47771823 0.005036462 -0.3254278
0002d0 7f 0d 1c 3e ba 65 8b be d3 dc 3f 3e 0f d7 0d bd
       0.15239523 -0.2722605 0.18736582 -0.034628924
0002e0 8d 56 50 3d af bf 02 bf a7 9d 97 be e1 d9 2d be
       0.05086379 -0.51073736 -0.29612467 -0.16977645
0002f0 53 40 2e be 45 0c db bd 97 8c f9 be f5 fc a3 3e
       -0.17016725 -0.106956996 -0.48740074 0.32028928
000300 78 98 e7 3c 30 a5 d8 bc 57 ed 11 3e 7e 3e 35 3f
       0.028270945 -0.026445955 0.14250694 0.7079848
000310 0e 3e 14 be 89 2d e3 be e5 3d a7 3e 1e 7e 59 3e
       -0.14476797 -0.44370678 0.3266441 0.21239516
000320 71 b6 48 3e 93 11 ff 3e 2a 25 5f bf 64 5c 91 3d
       0.19600846 0.49818096 -0.8716608 0.070977
000330 92 de ef 3d b3 9b ac 3e db 38 ac be 10 8d 8e bd
       0.11712374 0.3371254 -0.33637127 -0.06960499
000340 32 46 bc 3e 78 77 bf 3d a9 ce fa 3e d8 ea 3f 3e
       0.36772305 0.09348959 0.48985794 0.1874193
000350 93 81 ee be 9e b6 49 3e 97 e7 0c bd c3 34 67 3e
       -0.46583232 0.19698569 -0.03440055 0.22578721
000360 e2 19 62 be d2 21 4b 3e 6a e3 0a bf 65 8a 4c bf
       -0.22080186 0.1983712 -0.54253256 -0.79898673
000370 46 a9 b6 3d e4 53 ae be c1 8d ed 3e 4e 4e f5 bd
       0.08919005 -0.34048378 0.46397212 -0.11977826
000380 23 fe 51 3e c0 bd 25 bf 17 00 0b be a3 23 bf be
       0.20507102 -0.6474266 -0.13574253 -0.37331876
000390 c2 c1 b9 3c 3e 27 ec be 1a 9c d9 be 92 aa 27 bd
       0.022675399 -0.4612369 -0.4250191 -0.040934153
0003a0 45 0e 44 3e 1a d8 be bd 8e d4 34 3c 0b 1a c1 3e
       0.19146068 -0.09318562 0.011037005 0.37715182
0003b0 48 49 57 3e 72 ae bc be 54 b7 ea 3e 80 6a 01 3e
       0.21024048 -0.3685184 0.45842993 0.12638283
0003c0 50 22 6c 3e 5e 65 1f 3f 15 2a 2b bf 3c 73 b4 3e
       0.23059964 0.6226405 -0.6686109 0.35244167
0003d0 e8 d1 e5 3e 39 7d 0e 3e 96 c4 2c be a7 05 78 3e
       0.44886708 0.13914956 -0.16871867 0.24220906
0003e0 ca b0 0b 3e 5f a7 9f 3d 1a e3 d6 3e b3 e9 04 3f
       0.13641658 0.077955954 0.4197014 0.51919097
0003f0 73 f8 ec be d0 4d 74 3e a0 e2 8d 3c 91 eb 1c 3e
       -0.46283302 0.23857808 0.017319977 0.15324236

model/output/b f4 [9]
000000 4d 4d 01 be 18 db b7 3d 45 3e 9a 3c da fd 1e 3c
       -0.12627144 0.08977336 0.01882852 0.009704078
000010 a6 88 f6 bb d4 0a a6 b8 75 46 d0 bc 6c d4 d2 3d
       -0.007523614 -7.917514e-05 -0.025424222 0.102944225
000020 a9 5a 22 3d
       0.03963724
