python/results/2017_12_22_10_38_44/agent600/target_model.npz (npz, 14906 bytes, 6 tensors)

model/hidden_layers/0/W f4 [40, 40]
000000 f9 49 07 bd 22 9d 6a be a5 8e 4e 3e c2 92 ee be
       -0.03302953 -0.22911504 0.20171602 -0.46596342
000010 e6 15 ce 3d d0 c2 0e 3e 12 da b5 3d a5 25 6f 3d
       0.100627705 0.13941503 0.08879484 0.05838551
000020 2d 3c ba 3d 37 ee f1 3d d9 6c 6d be e6 8c fa 3d
       0.09093509 0.11813014 -0.23186053 0.122339055
000030 d2 14 60 3e c6 2f 38 be e7 7e b4 3e 4c c3 ef 3b
       0.21882942 -0.17986974 0.3525307 0.0073169824
000040 72 4e d5 3c 1c 65 18 3e 85 7b 77 3e 1a 96 92 3d
       0.026038382 0.1488232 0.24168213 0.07157536
000050 76 94 9e be b5 de c0 be 56 ce ad be 99 dd 84 be
       -0.30972642 -0.37669912 -0.33946484 -0.25950316
000060 dc 4c 0d 3e ab d7 50 bd 24 b5 8e 3d fd a0 c6 3e
       0.13798851 -0.050986927 0.069681436 0.387947
000070 9e 22 19 3e 50 2b 5d 3c c3 dc da bd 26 12 50 bc
       0.14954612 0.013499096 -0.10686638 -0.012699639
000080 5f fa de 3d fa a8 43 bc 88 84 b1 3e c8 85 49 3d
       0.10887598 -0.011942143 0.34671426 0.04919985
000090 49 10 ed bd 50 63 bb bd dd ed c3 3e 6c d0 ea 3d
       -0.11575372 -0.09149802 0.38267413 0.114655346
0000a0 14 75 11 bd df 77 50 3f 91 fa 0a 3f bb dc 8c be
       -0.035512045 0.8143291 0.54288584 -0.27512154
0000b0 0e f6 98 3e c5 dc fe 3d d2 ee ae 3e cd 47 02 3e
       0.29875225 0.12444452 0.3416658 0.12722702
0000c0 65 dd f6 3b 63 b7 21 bc e7 99 d4 bc cb 03 0e be
       0.0075337165 -0.009870383 -0.025952293 -0.13868634
0000d0 e5 90 a7 bd e4 78 8f be d6 89 dc bc bd 97 c4 be
       -0.08181933 -0.2802192 -0.026921194 -0.38397017
0000e0 f1 3d ac bd 31 1d 52 be c1 fd 4d 3d b6 e5 39 be
       -0.08410252 -0.20518948 0.050290827 -0.18154034
0000f0 19 91 24 3e cf 46 a4 3e 7e ca ea 3e 26 b6 fe 3e
       0.16070975 0.32085273 0.45857614 0.49748343
000100 87 1d 13 3f cc 83 0a 3f e4 28 38 3f b2 b5 03 3f
       0.5746693 0.54107356 0.71937394 0.5144912
000110 6d 99 12 3f 76 09 81 3e 06 ad 95 3e 64 e9 b5 3c
       0.5726536 0.2520253 0.2923357 0.022206016
000120 6f 23 98 3d 7b e2 6d 3d 99 63 b4 3e c8 d4 7d bc
       0.074286334 0.058077317 0.35232237 -0.015492626
000130 44 d9 56 3e ac 54 3b 3e 3f 4f 5b 3e b9 a9 7e 3e
       0.20981318 0.18294019 0.21416949 0.24869432
000140 cc c8 a5 bc fb c8 31 3d 1a 52 98 be 3a 54 d3 3e
       -0.020237349 0.04340456 -0.2975014 0.41275197
000150 a0 08 80 3d ae e5 96 bc f8 0e f9 bd 3f 68 22 3d
       0.06251645 -0.018420067 -0.12161058 0.039650198
000160 0d 19 b0 3d b5 96 e8 3c 19 39 f8 3c 64 84 22 bd
       0.08598528 0.028392175 0.030300664 -0.03967704
000170 5c 08 9f 3e 4d 09 a7 bd bf 9a 83 3d b0 d5 03 be
       0.31061065 -0.08156071 0.06426 -0.12874484
000180 92 86 b0 be 37 b6 a7 be ad 3f 51 be eb a2 af be
       -0.3447767 -0.32756206 -0.20434447 -0.34303984
000190 3d be ba 3c d5 4a 1e be 17 cd 2b 3e 94 4e 96 3d
       0.02279579 -0.15458234 0.16777454 0.07339206
0001a0 92 ae eb bd e7 46 9b be 6b d2 4d 3b 4a 63 cd 3e
       -0.11507906 -0.30327532 0.0031405936 0.40114814
0001b0 b5 37 c6 3d c9 6b e4 bd d2 4b a6 3d 87 06 16 be
       0.09678594 -0.11153371 0.0811993 -0.14650927
0001c0 9c ca 48 3e 50 3e 15 be 5b 3f 03 3d 87 7c 34 bd
       0.1960854 -0.14574552 0.032042842 -0.04406407
0001d0 40 f8 98 3d ad fb 4f be 2e fb e8 bc 18 0c 81 3c
       0.07469225 -0.2031085 -0.028440084 0.015752837
0001e0 33 28 90 3d 9e f0 d0 3d 2a aa 3c be fc 38 e3 be
       0.070389174 0.10202144 -0.18424287 -0.44379413
0001f0 aa 00 80 bd 17 5f 2c 3e e8 26 ac bd 92 71 29 3e
       -0.06250127 0.16833149 -0.08405858 0.1654723
000200 ff 66 58 3d de 0e c4 bd 87 d5 53 3e 15 80 e0 3d
       0.0528326 -0.09573148 0.20686923 0.1096193
000210 6a bc f2 bd 04 17 df be 57 69 d8 bd f2 00 ac be
       -0.118523434 -0.43572247 -0.10566967 -0.3359447
000220 c2 a7 cc be 22 a3 cd be b7 03 1b be 70 aa 83 be
       -0.3997174 -0.40163523 -0.15138136 -0.2571597
000230 a9 59 65 be b3 73 d9 be 63 2b b3 bd f2 11 27 be
       -0.22397484 -0.42471084 -0.0874851 -0.1631544
000240 2d 97 b4 3a 6a 1c b8 be 04 ff 66 3d 25 3d e7 3c
       0.0013777964 -0.35959178 0.056395546 0.028227398
000250 6c 55 65 bc 1b f3 2e 3e f9 4e d6 bd d7 06 18 3e
       -0.013997417 0.17084925 -0.104642816 0.14846359
000260 87 ee 85 3d d8 fd 8e 3d 74 51 78 3d fa 0a 86 be
       0.06539636 0.069820106 0.060624555 -0.2618025
000270 4e ea cb bd 60 f3 86 ba 9d 81 b9 3d c2 85 8d be
       -0.099567994 -0.001029592 0.09057925 -0.27641112
000280 c3 01 c2 bd 8e 06 46 be 52 1d 13 3e 3e a5 37 bd
       -0.09472992 -0.19338438 0.14366654 -0.04483532
000290 10 29 72 be b8 60 55 3e 80 9c 87 3e 68 16 64 be
       -0.23648477 0.20837677 0.26486588 -0.22274172
0002a0 97 4d a3 3d a5 c7 7e bd 19 42 09 3d 10 fd e9 3d
       0.079737835 -0.062202115 0.0335103 0.11425221
0002b0 28 1c 9c bc 53 3d 48 3e e7 1b 6a 3c 7e d7 45 bd
       -0.019056395 0.19554643 0.014288879 -0.048301212
0002c0 6c 18 c0 3c 61 9d be 3e b0 22 d7 bc 85 10 4c 3e
       0.023449145 0.37229446 -0.026261657 0.19928177
0002d0 e0 47 ea 3d 8c 8f 8e 3d 15 83 fb 3d 9e 5c a6 3e
       0.1143949 0.06960973 0.12280861 0.32492536
0002e0 51 5b a6 bd b8 10 a4 be ff 3b fe 3d 24 7d 06 3c
       -0.08122886 -0.32044005 0.12413787 0.008208547
0002f0 74 db 87 be 5d ad d0 bd 04 ff e7 bd e1 ee 5b 3e
       -0.26534617 -0.101893164 -0.11327937 0.21477844
000300 6c e6 f7 3d 17 9a ed 3e fd 23 69 be 0c 9c be bd
       0.12104496 0.46406624 -0.22767635 -0.09307107
000310 6a ea 87 3d e1 df d3 3d 7e 23 37 3e 96 d6 56 3e
       0.06636508 0.10345436 0.17884633 0.20980296
000320 89 61 2e bd cd 6b bd 3d 1a 41 95 be 6a a8 c4 be
       -0.042573486 0.09249077 -0.2915123 -0.3840974
000330 e5 34 fb 3d 17 f1 35 be 09 4c fe bd f9 d5 61 be
       0.12265948 -0.1776775 -0.12416846 -0.2205428
000340 8a d4 81 3d de db 4d 3e 2f c7 3d 3e 50 37 ba bd
       0.06339367 0.20103404 0.18533014 -0.09092581
000350 8b 25 e0 bb cf 8c e0 bd 9a 39 a9 bd 85 21 1f be
       -0.006840413 -0.10964357 -0.0826294 -0.1554013
000360 ce 32 36 3e aa f3 14 3d 5b 60 c7 3c 48 5b 35 be
       0.17792818 0.03636519 0.024337938 -0.17710602
000370 ca f7 97 3e e9 fe cf 3e 35 5e fc 3d 65 84 35 3e
       0.29681236 0.4062417 0.12322656 0.17726286
000380 ee c3 26 be b7 f3 31 be 24 69 b1 3d 31 02 2e bd
       -0.16285679 -0.17378126 0.08662632 -0.04248256
000390 50 0c 87 3d bd 79 73 3e 0f a6 c0 3e 28 b0 3d 3e
       0.06594145 0.23776908 0.37626693 0.1852423
0003a0 9d bf 98 3e 1f 19 73 3e 83 07 91 3d d9 9c 4f be
       0.2983369 0.23740052 0.07081511 -0.20274676
0003b0 a1 fb 27 3d dc f3 01 3d db fa 0d 3e b5 de 03 3e
       0.041011456 0.031726703 0.13865225 0.12877925
0003c0 c0 f4 6c 3c 7e f7 3f be 02 ed 51 be d0 02 6c 3f
       0.01446265 -0.18746755 -0.20500568 0.9219179
0003d0 6b 1d 45 3c 61 13 6e 3d 44 81 11 3e 99 42 c9 3d
       0.01203094 0.05812395 0.14209467 0.098271556
0003e0 96 70 4f 3e 85 29 9f 3e 05 54 96 bc d1 f2 88 bd
       0.20257792 0.31086364 -0.01835061 -0.066869386
0003f0 dc 5d 6b be f4 1b 34 bd 7b 4c 5a be 3d 20 e6 bd
       -0.22985023 -0.04397197 -0.21318237 -0.11236618

model/hidden_layers/0/b f4 [40]
000000 e7 5d b5 3e 0c 58 b2 3c 69 7c 5e 3c ed 23 95 be
       0.35423204 0.0217705 0.013579466 -0.29128972
000010 0e 04 bf 3e 47 86 21 3f 37 95 82 be 87 72 ba 3e
       0.3730778 0.63095516 -0.25504467 0.36415502
000020 f2 c6 d0 be 13 d1 09 3f b9 c7 50 3c ce 6b 5a 3b
       -0.40776783 0.53834647 0.01274293 0.0033328417
000030 a6 29 4a be 25 7d 39 3e 8c 29 dc 3c 3f 98 81 3d
       -0.1974245 0.18114145 0.02687528 0.06327867
000040 e3 09 5f be 23 20 ac be 7b 6f 85 3e e3 9e 97 3d
       -0.21781115 -0.33618268 0.26061615 0.07403352
000050 f2 aa cb 3d 1f 9d 8a 3e 9d 07 06 be 78 15 48 3e
       0.099447146 0.27073 -0.13088842 0.1953944
000060 f0 c5 42 3d ba d0 55 be a7 f7 a0 be e8 25 0a 3d
       0.04755205 -0.20880404 -0.31438944 0.033727556
000070 8f 25 80 3d c0 19 63 bc b0 89 3d 3d a5 0b 3b 3e
       0.06257164 -0.01386112 0.046273887 0.18266161
000080 3b f8 1d bd d1 a0 f6 3e a8 04 d5 be 3e bc 07 3e
       -0.03856681 0.48169568 -0.41605115 0.13255402
000090 31 a4 2d be 95 5a 93 be 98 aa 48 3d fc 30 3f 3e
       -0.16957165 -0.28780046 0.048990816 0.1867103

model/hidden_layers/1/W f4 [40, 40]
000000 b5 ee 53 3a 1a fa cf 3e 34 b3 bc be de bc 44 3e
       0.00080845813 0.406205 -0.3685547 0.19212672
000010 6d 2a 54 3e b5 95 17 3e 0c 0c 4e 3e 21 d6 da 3c
       0.20719309 0.14803202 0.20121783 0.026713433
000020 ab e0 54 be 40 43 b3 3d a4 26 ac bc ef 52 a5 bd
       -0.20788829 0.08753061 -0.021014519 -0.08072459
000030 77 4e ad 3e 85 68 d5 3c 2b ee 8d bd b9 1c 03 be
       0.33848926 0.026050815 -0.069301926 -0.12803926
000040 fa 5f 8e 3d 60 9e 97 3e 19 11 5e 3d f4 f4 14 bd
       0.069519 0.29613018 0.054215524 -0.036366418
000050 f4 fb b1 be df 03 a0 bd 15 ef 8b be 4e 67 01 3f
       -0.34762537 -0.07813238 -0.27330843 0.50548255
000060 b2 74 0e 3f aa 1a fb 3c f6 b2 cb bc 2b 40 08 bf
       0.5564681 0.030652363 -0.024865609 -0.5322291
000070 81 46 29 3d ec 72 12 3d 7b 94 dc 3d ba 70 5c 3e
       0.041327003 0.03575413 0.10770508 0.21527377
000080 42 91 cf 3e f4 85 41 3c e4 6a 16 3e 07 26 a0 be
       0.4054051 0.011811722 0.14689213 -0.31279013
000090 24 29 32 3e 12 27 62 bd 97 d7 94 3e de dd 58 be
       0.17398506 -0.05521304 0.29070732 -0.21178386
0000a0 25 f0 bf 3d 04 4c 34 3e a8 82 c3 bd b8 13 f4 bd
       0.09371976 0.17607123 -0.09546405 -0.119178236
0000b0 39 b5 02 3b b7 fb 12 bf 9e e7 b2 3e e5 08 a8 3d
       0.0019944443 -0.57415336 0.34942335 0.082048215
0000c0 d3 07 a8 3e 6b b7 ea be 1e 78 20 be 70 d1 60 be
       0.3281847 -0.45843062 -0.15670821 -0.21954894
0000d0 11 53 85 3e 20 18 99 3d 94 7b 51 be 47 9e 51 be
       0.26039937 0.074753046 -0.20457298 -0.20470534
0000e0 a6 35 22 3e 05 98 23 3e 1c ee 92 be 1e 34 80 3c
       0.15840778 0.1597596 -0.28697288 0.015649851
0000f0 9f 41 72 be f3 76 b5 3d 0d d3 ea 3d a8 ec c6 bd
       -0.23657845 0.088605784 0.11466036 -0.09713107
000100 92 3c 27 3e 28 6b 68 3e ae 33 61 3e 4f e3 c6 bd
       0.163317 0.22697127 0.2199237 -0.097113244
000110 b0 6f f6 bd 90 74 e0 3e 4a 07 a2 be 49 52 02 bd
       -0.120330215 0.4383893 -0.31646186 -0.031816754
000120 1b bd c6 3e 41 bf 01 bf 97 b1 80 bc 1c d5 60 3e
       0.3881615 -0.50682455 -0.015709681 0.21956295
000130 76 2e e4 3e 86 e6 b1 bd c3 da e3 3d 07 76 81 be
       0.44566697 -0.08686547 0.1112571 -0.2528536
000140 86 59 53 3e 16 8b b9 be d0 96 6c bd d1 f3 65 3d
       0.20639619 -0.36238927 -0.057761014 0.056140725
000150 90 86 82 be ed 70 ae 3b 6f 89 30 be 0d d9 00 3f
       -0.25493288 0.0053235204 -0.17239927 0.50331193
000160 fb c4 83 3e d8 d1 b7 3c c1 f5 58 3e f3 b0 b1 3d
       0.25736222 0.022438928 0.21187498 0.086763285
000170 08 3c 9f be 0f 37 57 3d 63 4f 66 3d 20 e3 ee bd
       -0.31100488 0.052542742 0.056228053 -0.116644144
000180 10 2b 53 be 19 36 35 bf f9 ee 03 3e f9 cb 14 be
       -0.20621896 -0.7078567 0.1288413 -0.14530934
000190 4c 2a 08 3e 73 35 30 3f f7 67 76 be e8 fa 6c 3d
       0.13297385 0.6883156 -0.24063097 0.05785647
0001a0 81 2a 49 be 35 46 b8 bd 91 44 1f 3d c4 ac 02 3f
       -0.1964512 -0.08997766 0.03888375 0.5104487
0001b0 d0 ea 10 be ef 92 14 3d 78 09 b8 be 57 38 45 be
       -0.14152074 0.03627294 -0.35944724 -0.19259773
0001c0 34 28 86 bf 0a 0e cd bc 5b 2b ae 3e fd fe 94 be
       -1.0481019 -0.025031108 0.34017453 -0.2910079
0001d0 2f ae 2b bf f2 43 17 bf d3 6d 19 3d 93 6e 2a 3f
       -0.6706266 -0.5908805 0.037458252 0.6657497
0001e0 1c d5 a8 3d 3d 76 21 3e 74 37 8a bc 98 54 03 3e
       0.082437724 0.1576776 -0.016872145 0.12825239
0001f0 d9 17 b2 be 09 60 76 be c3 60 f7 3e c1 54 9c 3d
       -0.3478382 -0.24060072 0.4831601 0.07633353
000200 56 74 20 3e 88 50 fe be 57 83 5e be e3 db 86 bd
       0.15669379 -0.49670815 -0.2172979 -0.06584909
000210 cb 9d 49 3e 3b e6 28 bd eb 15 85 bd 06 9f 15 3c
       0.196891 -0.04123519 -0.06498321 0.009132152
000220 7a dc cc 3d 04 f6 de 3d 39 a7 30 be aa fe 2b bc
       0.1000299 0.108867675 -0.1725129 -0.010497728
000230 87 fd ff bd 87 53 d0 bd 36 c1 90 bd b4 94 e5 be
       -0.124995284 -0.101721816 -0.07068102 -0.44840014
000240 de 20 85 be 2a d7 74 3e 8d 89 84 3e fb 5a 0d 3e
       -0.26001638 0.23910204 0.25886193 0.13804238
000250 37 b5 db 3d 08 74 6d 3e 2b 41 94 3d 9a 36 a7 be
       0.10727923 0.23188794 0.07238992 -0.32658845
000260 e1 06 88 bd fd fa 0a be 03 47 3f 3e 33 6d f1 3d
       -0.06641937 -0.13572307 0.18679433 0.11788406
000270 fb 51 6d 3e 65 20 21 3d d7 e0 d2 3d 9f e6 74 3c
       0.23175804 0.039337534 0.10296791 0.0149475625
000280 69 fb 96 bd 16 d4 33 3f 75 20 50 3e e4 d6 10 3d
       -0.073721714 0.7024549 0.20324881 0.035361186
000290 01 da 15 be 1a f3 dc 3e 11 a3 c9 bc aa ff 8d bc
       -0.14633943 0.43154222 -0.024613889 -0.017333824
0002a0 3b 97 19 3e a9 f9 d4 ba c7 68 30 be cf 1a 06 3e
       0.14999096 -0.0016248721 -0.1722747 0.13096164
0002b0 56 77 99 3e 17 99 13 bb 99 fb 59 3d 73 f6 df bd
       0.2997386 -0.0022521669 0.053218458 -0.10935678
0002c0 4a ac 01 bf e2 a0 74 3d da f7 a4 3e f0 7d 98 be
       -0.5065352 0.059723742 0.32220346 -0.29783583
0002d0 8e d3 b3 be 65 a1 40 be 79 26 bf be 44 e4 7a be
       -0.3512234 -0.18811567 -0.3733404 -0.24501139
0002e0 9b 39 db 3e fa 27 fa 3d 22 fe 1d bf 9b 06 1a bf
       0.42817387 0.12214656 -0.617159 -0.6016633
0002f0 ed 00 12 be db f2 14 be 35 77 44 3e 24 5f 54 3c
       -0.14258166 -0.14545767 0.19186099 0.012962136
000300 57 af 52 3e 06 0f 23 be d1 9f 4f be 4e d0 24 be
       0.205747 -0.159237 -0.20275809 -0.16095087
000310 5e 17 2c 3f 3a ae 8a bd 25 89 78 3e b3 3a 90 be
       0.67223155 -0.06771512 0.24271066 -0.28169784
000320 d0 01 a7 be 81 99 ab be e7 e6 07 3e d0 0d ea bc
       -0.3261857 -0.33515552 0.13271676 -0.02857104
000330 b1 1c 2d 3e c7 ba b4 be 60 b8 91 3e e6 62 b4 be
       0.16905476 -0.3529875 0.2846098 -0.35231704
000340 62 7d a8 3e 6b fe a7 be 57 eb 22 be 12 e0 d3 bd
       0.3290816 -0.32811293 -0.15910088 -0.103454724
000350 6a 79 5f 3d 27 aa 63 bd 68 fd 1b be 68 2d 9b 3d
       0.05455915 -0.05558219 -0.15233386 0.0757702
000360 5b a2 d2 3e 95 62 a1 3e 48 7a 28 be f3 10 6f 3c
       0.41139492 0.31520525 -0.16452897 0.014591443
000370 37 50 21 bd 67 d5 87 3d e7 45 16 be 37 fa 9b 3d
       -0.03938314 0.066325 -0.14675103 0.07616084
000380 9e 8f 5d 3c 3f 8b 86 3e 77 3b 72 3e 00 0b 66 3d
       0.013523011 0.2627811 0.23655497 0.056162834
000390 2a 62 2d be e0 71 1c be 99 cf e4 bb 42 7e 2f be
       -0.16931978 -0.15277815 -0.0069827554 -0.17138007
0003a0 58 19 29 bc b4 f4 aa be 0b 62 b0 3e e7 cc 17 be
       -0.010320984 -0.3338982 0.344498 -0.14824258
0003b0 be 44 2e 3e 9f 24 97 3e 5f 52 93 3c ab 01 30 be
       0.1701841 0.29520127 0.017983614 -0.17188136
0003c0 b2 7e 22 3e 05 04 4c be eb 6c 47 3e 6a b8 70 be
       0.15868643 -0.19923408 0.19475143 -0.23507848
0003d0 46 87 fa 3e 13 be 07 3e 86 89 ae bd c9 5c 23 3e
       0.4893133 0.13256101 -0.08522324 0.15953363
0003e0 22 b1 0b 3e c1 c7 6c 3e b3 39 7a 3c 52 1c 59 be
       0.1364179 0.23123075 0.015272546 -0.2120221
0003f0 b8 46 b3 bb 79 37 c9 3e 91 95 a2 bd bb 06 f6 3d
       -0.005471077 0.39300135 -0.07938684 0.120130025

model/hidden_layers/1/b f4 [40]
000000 d3 87 03 3d cf 66 38 be 38 86 0e 3e 63 38 2d be
       0.032111954 -0.18007968 0.13918388 -0.16916041
000010 e3 3f 55 3d e3 3c 83 be b4 a0 3c 3d a6 91 c7 bc
       0.05206288 -0.2563239 0.046051696 -0.024361443
000020 54 e7 ec bd 1b 8b 59 bc 33 94 25 bd 7e 78 fe bd
       -0.1156756 -0.013277794 -0.040424537 -0.12425326
000030 e6 cc 83 3e 63 69 fa bd f3 22 97 3c 7e 60 fa bd
       0.25742263 -0.12227132 0.018449282 -0.12225436
000040 fb 72 f0 3d 82 d5 c2 bc d6 1f f6 bd af 40 72 bc
       0.11740681 -0.02378345 -0.12017791 -0.01478593
000050 15 0b e7 bb 7e 00 34 3d 0b f7 83 3d df 6a e3 bc
       -0.0070508816 0.043945782 0.06443604 -0.027760921
000060 ae 82 2a bc 41 89 c4 bb 87 3c 3b 3c ba b1 c9 3d
       -0.010407133 -0.0059978073 0.011428005 0.09848352
000070 85 ff bd 3d 1e e4 cf 3d 59 d7 1d 3d 06 0b f8 bc
       0.09277252 0.10150932 0.03853545 -0.030278694
000080 29 6c 79 bc ec f3 37 3d 52 75 fc 3c ac e9 c6 bd
       -0.015223541 0.044910356 0.030817661 -0.09712538
000090 dd 39 af bd a0 cb e0 3c ee 4d 2c be 39 83 8b bc
       -0.085559584 0.027440846 -0.16826603 -0.017030345

model/output/W f4 [9, 40]
000000 6a 8a ea 3e 81 71 10 3f 41 10 34 bf 9d fa 54 3e
       0.45808727 0.56423193 -0.703373 0.20798726
000010 2f 9e b4 3e f5 4b 05 3f 7c 81 94 be 31 4c e5 bc
       0.35276935 0.52069026 -0.2900504 -0.027990432
000020 dc c4 96 3e ea 2e 92 3d c0 b4 ca 3e 4f c0 69 3e
       0.29447067 0.071378544 0.39591026 0.22827266
000030 26 23 a0 be 71 91 9a 3e 59 d2 6f 3e 00 a9 66 3e
       -0.31276816 0.30189088 0.23420085 0.22525406
000040 91 47 1e be 63 39 8f 3e 2a 19 ad 3d 12 9a 65 be
       -0.15456988 0.2797347 0.08452065 -0.22422054
000050 a2 4f 17 3e 2e 40 e5 be 57 f1 7f 3e a8 fd 02 be
       0.14776471 -0.44775528 0.24994408 -0.12792075
000060 29 21 07 3c 33 15 91 be 14 46 d6 be fd 05 84 be
       0.008247652 -0.28336486 -0.4185034 -0.2578582
000070 fa a8 3b be d6 5e 0f be 07 92 07 bf 6b a5 a1 3e
       -0.18326178 -0.14001021 -0.52957195 0.31571516
000080 cd 90 a1 3e b1 63 de bc c4 fe 78 3e 63 a4 24 3f
       0.31555787 -0.027147146 0.24315935 0.64313334
000090 1b 27 02 bd e0 85 87 be 6d ff aa 3e 60 65 80 3e
       -0.031775575 -0.26469326 0.33398 0.25077343
0000a0 79 5b 68 3d af 0b d0 3e 3f d7 40 bf c7 91 a7 3e
       0.05672786 0.40633914 -0.7532844 0.32728407
0000b0 ad 47 c6 3e 82 94 d6 3e e0 5b 0d be 69 20 45 bb
       0.3872656 0.41910177 -0.13804579 -0.0030079132
0000c0 2e 66 81 3e b8 1a 8c 3c 9a 5d 05 3f 73 dd b0 3e
       0.2527327 0.017102584 0.5209595 0.34543952
0000d0 eb b2 06 bf d2 87 2f 3e 09 96 3e 3e 10 7a 80 3e
       -0.5261676 0.17141655 0.18611921 0.25093126
0000e0 90 d3 45 be ad f8 e7 3e f4 cb 88 be ec c6 05 bf
       -0.19318986 0.45306912 -0.26718104 -0.52256656
0000f0 b8 2a 37 bd d2 7e 4f be 30 93 60 3e 56 88 bd 3d
       -0.044718474 -0.20263222 0.21931148 0.0925452
000100 41 9f 02 3e 52 73 2b be 78 5d 89 be d8 b4 cb be
       0.12756063 -0.1674321 -0.26829123 -0.3978641
000110 6b c2 2b be 47 00 e8 be 24 29 c2 be 45 15 ec 3e
       -0.16773383 -0.45312712 -0.37922013 0.46109977
000120 37 ce 59 3e b0 e0 ea bb 31 91 9e 3b e9 27 10 3f
       0.21270071 -0.007167898 0.0048390855 0.563109
000130 2f 55 4a 3d b9 7d 9a be 1e 0d d5 3e 88 25 31 3e
       0.049397644 -0.30174044 0.4161157 0.17299473
000140 f8 4c f7 3e 86 9b b6 3e 9a fa 07 bf 01 8d ca 3e
       0.4830091 0.3566553 -0.5311676 0.39560702
000150 a9 f4 08 3f 2e f3 13 3f c6 4d a9 be 20 4f 88 be
       0.5349832 0.5779294 -0.3306715 -0.26622868
000160 53 62 2b 3e b8 1b aa 3d e5 7f dc 3e 21 0d 9a 3e
       0.16736726 0.08306068 0.43066326 0.30088142
000170 cb d5 9e be 84 23 58 3e 3c 19 41 3e 24 a2 94 3e
       -0.31022486 0.21107298 0.18857282 0.29029953
000180 a5 fb 62 be 42 7e a8 3e 8b 91 fa 3d a0 cf 2f bd
       -0.22166307 0.32908827 0.12234791 -0.042922616
000190 49 e1 84 3d 9c 3e 81 be 23 17 70 3e af 36 15 3c
       0.06488282 -0.2524308 0.23446326 0.009107276
0001a0 dd 62 00 3e c9 80 39 be 1a e5 ea be 6b a2 c2 be
       0.12537713 -0.18115534 -0.45877916 -0.3801454
0001b0 6b 01 0e be b9 57 76 bd 11 70 00 bf 39 71 c7 3e
       -0.13867728 -0.060142253 -0.50171 0.3895357
0001c0 db 90 b2 3e 21 eb a2 bd 44 7b 13 3e 55 c9 fe 3e
       0.3487614 -0.079550035 0.14402491 0.4976298
0001d0 90 ac fe 3d e5 ed f4 be a7 df 9c 3e 97 fe 99 3e
       0.124352574 -0.4783775 0.30639383 0.3007705
0001e0 08 19 c2 3e c7 8b a5 3e 78 1f bf be a6 bc dd 3e
       0.37909722 0.32333204 -0.37328696 0.4330799
0001f0 26 3a e0 3e 3f dc 8f 3e 72 ae 84 be 91 2c 88 3d
       0.43794364 0.28097722 -0.2591434 0.06649125
000200 4f 9b 44 3e 66 b4 27 3e ca c9 d8 3e c2 13 ce 3e
       0.1919987 0.1637741 0.42341453 0.4024945
000210 8f 10 1d be 56 66 a3 3e ee d6 98 be 4c ce 3a 3e
       -0.15338348 0.31914014 -0.29851478 0.18242759
000220 99 58 58 be 07 f4 e4 3e 7a 58 47 be 37 1d 1f bf
       -0.21127547 0.44717428 -0.19467345 -0.62153953
000230 c6 26 59 3e 19 3b b9 be d0 7a 22 3e c0 10 67 be
       0.21206197 -0.361779 0.15867162 -0.22564983
000240 dd 93 f2 3d 8a b7 15 be 09 89 f3 be 4c b6 d3 bd
       0.11844609 -0.14620796 -0.47565487 -0.10337505
000250 55 87 d4 bd 69 6f 8c be 92 0e b3 be bf 16 c0 3e
       -0.10377375 -0.2742875 -0.34972054 0.37517354
000260 45 32 8a 3e 55 61 08 3e 40 be c6 3e c6 8c 37 3f
       0.26991478 0.13318379 0.38817024 0.7169918
000270 87 d9 0e be 18 42 ab 3c 60 9e df 3e ed 2c d5 3e
       -0.13950168 0.02090554 0.43675518 0.41635838
000280 b5 18 28 3e 82 87 04 3f 65 7c 0f bf d3 47 99 3e
       0.16415675 0.5176927 -0.56049186 0.2993761
000290 8b 40 b4 3e 23 22 1e 3f c2 a5 88 be 49 13 96 be
       0.35205492 0.6177084 -0.26688963 -0.29311588
0002a0 81 ea 3f 3e eb 66 00 3e e2 05 db 3e 11 43 cf 3e
       0.187418 0.1253926 0.42777926 0.40480855
0002b0 68 f3 ac be 8b d5 86 3e c9 5a 9a bd 71 2a 77 3e
       -0.33779454 0.26334795 -0.07536847 0.24137284
0002c0 1b b6 a3 be c1 b1 f4 3e f1 12 9e 3b 91 b5 a6 be
       -0.31974873 0.47791865 0.0048240353 -0.325604
0002d0 19 2d 1c 3e 0f 80 8b be d6 fa 3f 3e 37 f1 0e bd
       0.15251578 -0.27246138 0.1874803 -0.03489801
0002e0 ac 21 51 3d f3 ca 02 bf 89 b1 97 be 0c 0a 2e be
       0.051057503 -0.51090926 -0.29627636 -0.1699602
0002f0 95 58 2e be 20 f5 da bd 1e a9 f9 be 56 13 a4 3e
       -0.17025979 -0.10691285 -0.4876184 0.32046002
000300 fe dd e8 3c ca 9d d7 bc b9 29 12 3e ac 49 35 3f
       0.028426167 -0.026320357 0.14273728 0.7081554
000310 16 5a 14 be 59 43 e3 be ea 43 a7 3e 5d 71 59 3e
       -0.1448749 -0.4438732 0.32669002 0.21234651
000320 90 47 48 3e 24 bb fe 3e 2e 04 5f bf 48 14 90 3d
       0.19558549 0.49752152 -0.8711575 0.07035118
000330 5f 1e ef 3d c0 78 ac 3e b9 33 ac be 83 b4 8c bd
       0.11675715 0.33685875 -0.3363321 -0.068703674
000340 a2 c2 bb 3e 21 87 be 3d b2 3d fa 3e 43 08 3f 3e
       0.3667193 0.093031175 0.48875195 0.18655495
000350 f7 37 ee be 52 c3 48 3e 7a 1b 11 bd d2 ea 65 3e
       -0.46527073 0.19605759 -0.035426594 0.22452858
000360 0b cd 60 be 51 a5 4a 3e 8b a2 0a bf 84 4a 4c bf
       -0.21953218 0.19789626 -0.5415427 -0.798012
000370 a4 ed b4 3d 0c c8 ad be b0 96 ed 3e 66 2b f4 bd
       0.08834389 -0.33941686 0.46404028 -0.1192234
000380 04 e7 50 3e a7 a6 25 bf a8 0b 0b be 65 7d be be
       0.20400625 -0.64707416 -0.13578665 -0.37205043
000390 cb 55 bc 3c 57 f6 eb be e7 5b d9 be 4f c3 2a bd
       0.022990128 -0.4608638 -0.42452928 -0.041690167
0003a0 7e be 43 3e 25 74 be bd 47 49 20 3c b1 37 c1 3e
       0.19115636 -0.092994966 0.009783096 0.37737802
0003b0 50 32 57 3e fb 95 bc be d6 f2 ea 3e ba af 01 3e
       0.21015286 -0.36833176 0.45888394 0.1266469
0003c0 c0 12 6c 3e e5 5a 1f 3f 5d 23 2b bf c3 31 b4 3e
       0.23054028 0.6224807 -0.66850835 0.35194215
0003d0 72 c8 e5 3e 9b d2 0d 3e 82 75 2c be 0b 1b 78 3e
       0.4487949 0.13849871 -0.168417 0.24229066
0003e0 ea fe 0a 3e 59 df 9e 3d 8c d7 d6 3e 28 de 04 3f
       0.13573804 0.07757444 0.41961324 0.51901484
0003f0 f9 97 ec be 40 d1 73 3e cf 71 8d 3c 17 a7 1c 3e
       -0.46209696 0.23810291 0.017266182 0.15298115

model/output/b f4 [9]
000000 3b 9d 00 be 14 db b6 3d c8 5c 95 3c 36 dd 27 3c
       -0.12559979 0.089285046 0.018232718 0.010245612
000010 34 11 f0 bb b1 9e 9f ba d3 d3 d0 bc e2 9a d1 3d
       -0.0073262695 -0.0012178031 -0.02549163 0.1023462
000020 0c 38 23 3d
       0.039848372
