python/results/2017_12_22_10_38_44/agent900/model.npz (npz, 14919 bytes, 6 tensors)

model/hidden_layers/0/W f4 [40, 40]
00000000: 81e3 f5bc 204d a2be 957b b73e b5b3 11bf
00000010: f5a1 4bbd 2c19 4c3d e9c5 243d a603 a13d
00000020: 1c85 943d 1d3c bb3d f6c3 8dbe fbe0 6f3d
00000030: 9e90 293e 87a0 8dbe fca2 a23e a6a1 973c
00000040: b75d fa3c 06a1 c53d c6c5 533e 44de a03d
00000050: 0386 aabe 1c04 0cbf fe45 1ebf 228c 13bf
00000060: ff84 8cbd de85 c23b 4fc4 a63e a90e 353f
00000070: ae63 dc3e f1c2 843e d6d3 ac3d 347a e93d
00000080: a89f 283e 2779 85bb 2b04 8d3e 9e8f d83d
00000090: 9328 613d de36 223d 7cd7 9d3e 2e04 05bd
000000a0: 981f 4ebd 0feb 5a3f 2528 0b3f bfe5 27bf
000000b0: 345d f03e 60b7 673e 355e 8c3e a589 3f3e
000000c0: 0afc 353e 0012 7d3d 2a3f a03d 519b 78bd
000000d0: f505 e53c 3b7b adbd 838d 52bb 3f47 93be
000000e0: 93b5 93bd 2198 41be 4f21 103d d513 68be
000000f0: d17b 1b3e cfaa e03e be75 2f3f 44b6 4e3f
00000100: 64ec 6d3f 515d 5a3f 3117 643f 2ace 2c3f
00000110: 50ca 2d3f 0cee 913e fb87 933e bba2 9f3c
00000120: a96b b93d b625 bf3d fb78 e73e a5a1 b43d
00000130: 5400 9a3e 7933 853e 0065 b43e ee13 d03e
00000140: ac90 73bd 4fd3 793d c5f7 8dbe 773a de3e
00000150: 9812 973d 91cd 6abb fad9 02be 940f 893b
00000160: d44f 8c3d c732 d8bb eb75 113d 0631 e7bc
00000170: a4dd a13e e7c1 e6bd 7114 4239 1afa 50be
00000180: 75a3 cdbe f775 b1be 37ba 31be 7157 8bbe
00000190: e5f0 2c3d 15e2 15be 71d8 4f3e bf51 073e
000001a0: f3ef 19bd d138 8ebe dac4 14bc a817 cd3e
000001b0: d03e e13d 850a e0bd 8976 8a3d 03c4 28be
000001c0: e33c 2f3e 0813 40be f7cd 01bd 1a17 9cbd
000001d0: d879 5e3d 31e4 71be d5a5 1fbd d2d9 8d3d
000001e0: d214 863d 820d 663e 307d c2be 0134 17bf
000001f0: 1a08 54bd 04ae b83d b303 01be 747a c53d
00000200: 9162 7cbc a76f 96bd 5c7f 783e 0adb fc3d
00000210: 7b2f 1bbe 9fb3 fcbe cb71 42be 642e eabe
00000220: e961 0cbf a3f8 28bf 7808 d4be 4726 e9be
00000230: 1d10 e3be 040b 10bf 0bcd 46be 6240 4ebe
00000240: 8a00 dd3b 7b08 8fbe 02f6 923d f627 6a3d
00000250: 8069 013d 38f5 453e 2782 a5bd 1051 133e
00000260: 7585 3f3d a08b 643d 654e c73d 266c a4be
00000270: 28ab 3fbe e03b 08be 5349 563c 4b53 7bbe
00000280: 61bc e3bd b4ac aebe 3a09 963e 81bd 2abe
00000290: 5efb 42bd 3afc ba3e 222d 6a3e b001 66bd
000002a0: d832 3f3e d75b 01bd 75e1 823d 2769 fd3d
000002b0: 4794 033c 18ab 533e e7d6 9f3c 5233 ccbb
000002c0: 350f 203d 4e01 af3e 60cb 4fbd f6cd 673e
000002d0: 3f6d 0e3e a51c 673e a8d0 973e 65b9 173f
000002e0: 5d31 403e 990d 31be 012f e03d 5ca0 4bbd
000002f0: 4f54 93be 2f6e f0bd cc3f f9bd 13d4 5a3e
00000300: 489b d63d bea7 dd3e f1b5 89be f251 39bd
00000310: 1397 733d 91db 0c3d 8111 0a3e a9c4 713e
00000320: 7869 7dbd 9366 f33d df50 66be eba6 18bf
00000330: c5fe 053e 1c58 2dbe eda5 f2bd 4ecb 78be
00000340: 844f b43d bc58 243e 5e92 0b3e b79c cfbd
00000350: 0ae7 8f3c 62af 0bbe ae67 29be 6d00 36be
00000360: 48a4 df3d 1ed4 903c 40a4 f93d bb6e b93c
00000370: 3558 c53e 97e6 b83e d155 863c cad3 f03d
00000380: c6a8 2cbe 8c81 06bd 2fb2 833e 607a ef3d
00000390: 08ad 7e3e da2a de3e 13ea fc3e 1bde 613e
000003a0: 26cd 813e ed35 083e b84a 00be 1cd8 9bbe
000003b0: bde9 1ebc 8291 aa3d edb6 723e e01d 363e
000003c0: 430b 6bbc db63 cb3d 74d6 aabe bb77 a33f
000003d0: f033 483e cd03 f63d 578a 603e 555d 5f3e
000003e0: 1933 6e3e 996b cb3e 8eb9 5f3e c447 df3d
000003f0: 020b f4bd 039d 903d 1e96 16be eff2 b0bd
-0.030015709 -0.31699467 0.35836473 -0.56914836 -0.049715 0.049828693 0.040227804 0.07862024
0.07251951 0.09142325 -0.2768857 0.058564167 0.16559073 -0.27661535 0.31764972 0.018509697
0.030562265 0.096498534 0.20680913 0.07854894 -0.33305368 -0.5469377 -0.6182555 -0.576357
-0.068613045 0.0059363684 0.32571647 0.70725495 0.430448 0.25929978 0.08438842 0.114002615
0.16467154 -0.0040732804 0.27542242 0.10574268 0.054970335 0.039603107 0.30828464 -0.03247469
-0.0503231 0.8551492 0.5435813 -0.6558494 0.46946108 0.22628546 0.27415624 0.18704851
0.17771927 0.061784744 0.078245476 -0.060694996 0.027956942 -0.0847077 -0.0032127805 -0.28765294
-0.07212367 -0.18905689 0.035188016 -0.22663815 0.15183951 0.43880317 0.68539035 0.80746865
0.9293883 0.8529864 0.8909789 0.6750208 0.6788683 0.28501928 0.28814682 0.019486776
0.09053738 0.09333365 0.45209488 0.08819894 0.30078375 0.26015833 0.35233307 0.40640205
-0.05946414 0.060992535 -0.27728096 0.4340398 0.07376593 -0.0035828094 -0.12778464 0.0041827653
0.068511635 -0.00659785 0.035512846 -0.028221618 0.3161441 -0.11267453 0.00018508897 -0.20407906
-0.4016377 -0.34660313 -0.17356192 -0.2721515 0.042221922 -0.14637025 0.2029741 0.13214777
-0.03758235 -0.27777722 -0.009080136 0.4005711 0.10998309 -0.109395064 0.0676089 -0.16481023
0.1711307 -0.1875726 -0.031690564 -0.07621594 0.054315418 -0.23622204 -0.03897651 0.069263116
0.0654694 0.2246609 -0.37986135 -0.59063727 -0.05176554 0.09017566 -0.12599067 0.09642497
-0.015404359 -0.07345515 0.24267334 0.12346466 -0.15154831 -0.4935579 -0.18988721 -0.45738518
-0.548369 -0.6600439 -0.4141271 -0.45537016 -0.4434823 -0.5626681 -0.19414155 -0.20141748
0.006744449 -0.27936158 0.071758285 0.057167016 0.031594753 0.19331825 -0.08081465 0.14386392
0.046758134 0.05579722 0.097317494 -0.3211376 -0.18717635 -0.1330409 0.013079005 -0.24543492
-0.11119915 -0.34116137 0.29303914 -0.16673853 -0.047603004 0.3652056 0.2286878 -0.056153953
0.18671739 -0.031581726 0.06390659 0.12373572 0.008030958 0.20670736 0.019511653 -0.006231704
0.039077003 0.34180683 -0.050731063 0.22637162 0.13908862 0.22569521 0.2965138 0.59267265
0.1876883 -0.17290343 0.10946465 -0.049713477 -0.2877526 -0.11739766 -0.121703714 0.21369962
0.10478836 0.4329204 -0.26896623 -0.045244165 0.059470247 0.034389082 0.1348324 0.23610176
-0.06186816 0.11884799 -0.22491787 -0.59629697 0.13085468 -0.16928142 -0.11848054 -0.24296305
0.08804229 0.16049474 0.13630053 -0.10137313 0.017566223 -0.13641122 -0.16543457 -0.177736
0.10920006 0.01767927 0.12189531 0.022635808 0.3854386 0.36113426 0.016398342 0.117591456
-0.16861257 -0.03283839 0.2572188 0.11693263 0.24870694 0.43392068 0.49397334 0.22057383
0.25351828 0.13301821 -0.12528503 -0.30438316 -0.009699282 0.08328535 0.23702593 0.17784834
-0.014345947 0.09931155 -0.3336674 1.2770914 0.19551063 0.12012444 0.21927772 0.21812947
0.2326168 0.39730528 0.21848127 0.1090236 -0.11916162 0.070611976 -0.14705703 -0.08640086

model/hidden_layers/0/b f4 [40]
00000000: 3218 1a3f 82a9 903e 4e70 773c 1e08 2cbf
00000010: 44e0 1c3f 7d18 673f d648 e0be 8d56 053f
00000020: ddf5 31bf 9f84 7a3f 60a8 3dbd 3716 883d
00000030: 2212 98be caa0 9d3e eb85 423d 54b4 433d
00000040: 0ce7 1dbe 3269 22bf 8ac9 c53e 117e 0f3e
00000050: a257 613d 6540 bf3e 2c9b 3fbe 1167 4d3e
00000060: 94a4 1a3e 9cff d8be 22bb 29bf cf37 19bd
00000070: 7056 a63d 6562 953d d297 233d 86f3 2f3e
00000080: b492 bc3d 4b7c 233f 13cc 10bf 424b 723e
00000090: a2cb b6bd f4ee 9fbe 78c7 613d 5d6f 413e
0.6019317 0.28254324 0.015102459 -0.67199886 0.612797 0.9027174 -0.4380557 0.5208519
-0.6951578 0.97858614 -0.046303153 0.06644862 -0.29701334 0.30786735 0.047490995 0.047779396
-0.15420169 -0.63441765 0.38630325 0.14012934 0.055015214 0.37353817 -0.18711537 0.20058848
0.15101844 -0.42382514 -0.66301167 -0.03740674 0.081219554 0.07294158 0.03993971 0.1718274
0.09207669 0.6386153 -0.5656139 0.23661521 -0.089255586 -0.31236994 0.05512187 0.18890138

model/hidden_layers/1/W f4 [40, 40]
00000000: a13b 46bc 8278 083f 4a39 b8be b8f9 9a3e
00000010: dedb 783e 517f f23d 99c7 5c3e 70d2 d23c
00000020: 472e 98bd d1b2 fe3d d4cc 17bd 2f39 53bd
00000030: 01f7 ef3e 7e68 1a3d cb6a d1bd 8a31 f3bd
00000040: 3cbc ac3d 61a9 dc3e 024e a83d ab15 73bd
00000050: 4680 ccbe d0a5 1dbe 3312 84be 201a f53e
00000060: ba57 293f 140d 253e bd70 6dbc 8da6 20bf
00000070: 326e db3c 083d 643d 26b0 0b3e bddd 883e
00000080: edf7 f13e b6a8 823d 8585 2e3e 2d00 85be
00000090: 81c7 a23e 0525 aabc 3646 923e 2143 81be
000000a0: 434b 01bc 41fa a13e 0a0c c8bd 655d e2bd
000000b0: d26d 083e d338 06bf b448 0d3f 16ef 903e
000000c0: 58a6 d73e 6458 09bf fe39 7cbe fab0 78be
000000d0: a7d7 ae3e 7fee 0a3e ace4 84be 8e30 4abe
000000e0: e122 363e 513d 983e 1543 b5be 494f 683c
000000f0: c0ce 98be 2a3d 8c3e dc22 d43d e777 51be
00000100: 05e7 093e 68de f23e 8878 6d3e 72cb 25bd
00000110: 2f6a b9bd 8f9e ee3e 464d a7be 8588 f2bc
00000120: 6562 bc3e 8268 1abf 3ca7 9dbc f962 b93e
00000130: c165 163f 102a cbbd bf00 e73d 7155 4ebe
00000140: 1945 cd3e 016e 2abf 9a52 95bd f47a 713d
00000150: dfd0 9abe 5e49 ac3d 198b 94be 7e24 f13e
00000160: 581c 563e 849c dc3d b0cf 623e eab0 223d
00000170: bab9 16bf 4649 1a3d 16be 983d 8d73 d4bd
00000180: 8973 4cbe 44b9 1bbf 55bd 143e a339 cbbd
00000190: ce4e 943e d187 303f 0af1 28be 235a fc3d
000001a0: a8da c6be 94f3 9cbd a0e0 793c 6998 223f
000001b0: dff8 09be 0ac2 51bc c5dd d9be 3b36 a9be
000001c0: 12ff 9bbf 4306 96bd 376b cd3e 579f 8dbe
000001d0: ffb9 5fbf 553c 12bf 7885 1c3d 132a 3b3f
000001e0: 08c8 61bd 5dd3 183e 0dfb d7bc 2b68 253e
000001f0: 264a e1be 183a 9dbe ea72 043f 7d31 4a3d
00000200: e80e 5b3e cabe 19bf f8d8 78be 82ee 9cbd
00000210: c644 2c3e 9665 96bd 63d4 bcbd 511d 323d
00000220: 839f 0c3e 18c8 ac3d c1cf 6cbe 0b4a c9bc
00000230: eec6 8bbd 742d 99bd d0f5 ba3c cbed 02bf
00000240: 2d96 aebe 5705 993e 3ef8 933e 7aae 263e
00000250: 46a7 a53d 7b7f 693e 923c 193e a479 b3be
00000260: 152a d7bd 3bf7 31be b6c9 403e 9257 2d3e
00000270: 8c5c 2f3e cf3d ae3d de41 ac3d 556c c13d
00000280: 5da0 90bd f165 523f f904 493e 599b ee3d
00000290: a6d2 efbd 9a70 e73e 2717 98bb 2bb4 02bc
000002a0: afd6 723e 63c0 813d c4db 56be 8381 0e3e
000002b0: abd5 cc3e 6bfc ad3b a9ea ed3c cdd9 b7bd
000002c0: f0b7 08bf 0886 0c3e 6505 a83e 8f96 a2be
000002d0: a1ba acbe 438a 61be 8649 c4be cdd6 88be
000002e0: 6626 073f e89a 1e3e 9c96 23bf cd1b 2dbf
000002f0: 3392 18be 3844 f8bd d386 3c3e 1a9d 963d
00000300: e1ab 7b3e 5114 f4bd 5e10 52be 4519 25be
00000310: 4156 403f 9f0e 37bd 52ac 8a3e 2c54 b5be
00000320: 91c8 c1be 92e0 abbe 990b 193e dc8b 443d
00000330: 336e 173e 5fff afbe bd47 983e 1b44 dabe
00000340: c1bb b53e 8392 01bf 6416 59be fa4d a5bd
00000350: 6a51 e13d fb7b d9bc b94c d8bd 07dd 223e
00000360: e3e9 013f ffe3 973e 6807 69be 8cdc 3e3d
00000370: 809d 05bd 1c53 a13c 8192 19bd 2ab7 e53d
00000380: c98d 1ebc c0e9 ac3e d6c2 a13e 469f 2d3d
00000390: c660 11be 7168 fabd 2948 763c c8fd 3cbe
000003a0: 0c05 36be 1052 e4be 415f 6e3e 033f 15be
000003b0: 2d07 8a3c 3c40 ab3e 1816 81bd bf75 13be
000003c0: 4583 133e 2e37 8cbe 88dd 753e a4c9 c2be
000003d0: ccdf 073f e4a3 be3d 754a a53c f29b 383e
000003e0: d1ef ccbc 3912 b83e d935 fa3d 5e2f 40be
000003f0: 0f2a d63d b527 e03e 8afd f7bd 0ed7 c53d
-0.012099178 0.5330888 -0.35981208 0.30268645 0.24302623 0.1184069 0.21560515 0.02573511
-0.07430702 0.1243645 -0.037060574 -0.051568206 0.46868137 0.037697308 -0.10225447 -0.11874683
0.0843434 0.43097976 0.08218004 -0.059346836 -0.39941615 -0.15395284 -0.25795135 0.47871494
0.66149485 0.1611827 -0.014492211 -0.62754136 0.026785944 0.055722266 0.13641414 0.26731673
0.47259465 0.06379835 0.17043121 -0.25976697 0.31792834 -0.020769605 0.28569192 -0.25246528
-0.007891479 0.3163624 -0.09767921 -0.1105297 0.13323143 -0.52430457 0.5518906 0.28307408
0.42119098 -0.536505 -0.24631497 -0.24286261 0.34148905 0.13567542 -0.25955713 -0.19745085
0.17786743 0.2973428 -0.35402742 0.014179059 -0.29845238 0.27390414 0.103582114 -0.20455895
0.13467033 0.47435308 0.2319051 -0.040477224 -0.09053456 0.46605346 -0.32676142 -0.029606113
0.3679382 -0.60315716 -0.019244783 0.36208323 0.58749014 -0.09920132 0.11279439 -0.20149781
0.4009178 -0.665741 -0.072911456 0.058955148 -0.3023748 0.08412431 -0.29012373 0.47098154
0.2090925 0.107720405 0.22149539 0.0397195 -0.58877146 0.037667535 0.07458131 -0.10373602
-0.19965948 -0.6082957 0.1452535 -0.09923103 0.28966373 0.6895724 -0.16498199 0.1232188
-0.38838696 -0.07663646 0.015251309 0.6351381 -0.13473843 -0.01280261 -0.4255201 -0.33049187
-1.2187216 -0.07325413 0.4012086 -0.2766063 -0.8739318 -0.5712331 0.038213223 0.73111075
-0.055122405 0.14924379 -0.026364828 0.16153018 -0.44001883 -0.30708385 0.51737845 0.049363602
0.21392405 -0.60056746 -0.24301517 -0.07662679 0.1682311 -0.07343595 -0.09220197 0.04348499
0.13732724 0.08436602 -0.23126127 -0.02457144 -0.06825052 -0.074793726 0.02282229 -0.51144093
-0.3409895 0.29886886 0.2890033 0.16277495 0.080885455 0.22802536 0.14964512 -0.35053742
-0.105060734 -0.17379467 0.18826947 0.16927937 0.17125148 0.08507883 0.08411001 0.09444491
-0.07061837 0.821868 0.19630803 0.11650724 -0.117101 0.45203096 -0.004641432 -0.007977526
0.23714708 0.06335523 -0.20982271 0.13916592 0.40006766 0.0053096316 0.029042559 -0.08977089
-0.53405666 0.13723004 0.32816616 -0.31755492 -0.33736137 -0.22025399 -0.38337344 -0.2672638
0.52792966 0.1548878 -0.63901687 -0.67620546 -0.1489952 -0.12122387 0.18410806 0.073541835
0.24577285 -0.119179375 -0.20514056 -0.16122921 0.75131613 -0.044691678 0.27084595 -0.3541578
-0.37848333 -0.3356977 0.1494583 0.047984943 0.14788131 -0.3437452 0.29742232 -0.42630085
0.35494807 -0.50614184 -0.21199948 -0.080715135 0.110018566 -0.026548376 -0.10561509 0.15904628
0.5074751 0.29666135 -0.22756732 0.04659705 -0.032620907 0.01969295 -0.037493233 0.112165764
-0.009677359 0.33772087 0.3159396 0.042388223 -0.14197072 -0.12226952 0.015031853 -0.18456185
-0.17775363 -0.4459386 0.23278524 -0.14574818 0.016849125 0.33447444 -0.06303042 -0.14400385
0.14405544 -0.2738585 0.24010289 -0.38044465 0.5307586 0.093086034 0.020177105 0.18028238
-0.025016697 0.35951403 0.12217302 -0.18768069 0.10457241 0.43780294 -0.121089056 0.09660159

model/hidden_layers/1/b f4 [40]
00000000: b73d c63c ca3d ffbd 06f2 ef3d d409 35be
00000010: bd03 ae3d 8048 b3be 42d7 693d 67b9 fdbc
00000020: 1a9c 2cbe 3dc9 babc 01a2 af3c 5282 20be
00000030: cddf 8d3e 148f d8bd df06 c03b 32ce 14be
00000040: 68cf 223e fb08 2bbd 8cf0 e1bd 9443 2cbd
00000050: dcfc fdbc e41c 813d 3864 d93d 1955 7abd
00000060: 02ba 973c 7c59 55bd 7a67 beb9 b042 103e
00000070: 4bc2 c23d b7cf ee3d 3563 613c afc9 84bc
00000080: 61e0 12ba c80c ba3d 4266 bc3d 2bd2 97bd
00000090: 98a4 e6bd 3dbd 103d a859 55be 933d 31bc
0.02419935 -0.12462957 0.11716084 -0.1767953 0.08496807 -0.3501625 0.05709005 -0.030972196
-0.16856423 -0.022801036 0.021439554 -0.15674713 0.2770981 -0.10574165 0.005860194 -0.14531782
0.15899432 -0.04175661 -0.11032209 -0.042056635 -0.031004362 0.063043386 0.10614818 -0.06111631
0.018521313 -0.052087292 -0.0003631672 0.1408794 0.09509715 0.11660712 0.013756563 -0.016209451
-0.0005602893 0.09084469 0.09199192 -0.07413133 -0.112618625 0.03533672 -0.20834982 -0.010817903

model/output/W f4 [9, 40]
00000000: 8965 123f 268b 2a3f ffe0 5bbf 78d6 9d3e
00000010: 775f e63e 66f5 163f 8498 d0be 9e2d a1bd
00000020: 7112 cb3e d400 223e 47f0 ec3e 8a5a dd3e
00000030: e6e9 e9be b76d cc3e 6516 a53e 4c86 8d3e
00000040: 3a25 1ebe 00aa d03e 80ae cf3d 01d8 afbe
00000050: 8fa7 623e c021 08bf 27c3 ad3e b2fb 0ebe
00000060: 9053 8c3d f660 dbbe df73 11bf 32c2 9ebe
00000070: 0655 55be bcca 6fbe a458 27bf f7e0 d63e
00000080: c686 da3e e1c4 6abd e52d a13e 1067 533f
00000090: c13c 573d 17d2 ccbe 565a e33e 4cac 993e
000000a0: 61b9 d53d 1bd9 033f e47c 78bf acfc d73e
000000b0: ed73 e93e 6462 063f dcbf 9abe b796 31bd
000000c0: b378 b53e 66a4 e93c 7f53 0e3f 16d5 ed3e
000000d0: c046 16bf 1e3b 503e 63c1 633e dcf6 ac3e
000000e0: 691c 8bbe 48c2 163f ef1f cbbe 9e29 28bf
000000f0: 9e49 b53c d2fa a4be e7b6 bc3e c281 d43d
00000100: 4ed8 4d3e bd7d b2be 49e0 a4be 5756 06bf
00000110: 4ec5 54be c3a6 08bf 0065 0abf 6c8b 0e3f
00000120: b439 a13e 6d38 26bd 98d4 c43d fc75 303f
00000130: 751d 083e 9c83 06bf 760f 143f 0c46 633e
00000140: e640 193f 741e fd3e 39c7 38bf 5a3f 013f
00000150: 7162 2d3f c444 2c3f 0784 e0be 6f0e 96be
00000160: 6eb9 9c3e 331c fa3d 765c f23e aa7f c93e
00000170: 76e5 ebbe 433e a33e d661 623e d678 c73e
00000180: fc4b 92be 674e e83e 7641 a93d 9be4 3cbe
00000190: a4b8 c43d 3c3a b1be 3a2d 863e 28bb 17bd
000001a0: 4f04 213e f942 a8be d408 19bf 15d8 ddbe
000001b0: bf83 22be 9fa6 29be 0e5d 2dbf 7076 003f
000001c0: aff6 d53e 162a bebd 6a9a 443e 897a 2b3f
000001d0: 35ba ea3d 28fa 10bf 0051 e83e ba5d c23e
000001e0: 1e4f 0f3f 54fe 053f 56c6 0dbf a497 043f
000001f0: 2b4c 1b3f 8d97 bf3e b85a 99be 31a0 8e3d
00000200: e996 823e 5235 733e a2cc ea3e 3587 233f
00000210: c779 afbe 046d b03e d2c0 98be 3b74 963e
00000220: 2a28 94be 46ce 143f 341d 0ebd 2f09 35bf
00000230: 2a56 913e 51cb b7be 5afa 0c3e e0bb 9cbe
00000240: ae10 173e 267a 5bbe 8c71 49bf 811d 4dbe
00000250: e08a 38be 0aaf b2be 5833 09bf e2d5 0b3f
00000260: ccc2 d43e 3642 923e cf4e cc3e 9ff5 833f
00000270: 20b0 2dbe ef50 403e b80e 0d3f 1ba8 fe3e
00000280: 9c8a 8e3e 9e2e 223f 46cb 3fbf c75f ca3e
00000290: cdd6 e33e 197c 2a3f 6484 cebe 7e52 a0be
000002a0: 7999 ba3e 977f 3a3e e6b4 f13e cf40 ea3e
000002b0: fe92 d8be 3a6e b13e 1b1e 0bbd 0d88 a33e
000002c0: e399 a9be db2f 1e3f 10a8 5fbd bef8 ccbe
000002d0: 8bba 633e 0c70 c7be 2b24 7e3e b6c1 97bd
000002e0: 8c04 d03d 49af 1fbf 792a f2be 6035 9abe
000002f0: 2304 57be 194b 5ebe 72c4 2abf f62c d33e
00000300: f820 ed3d 8e88 07bd 71af 713e 26ac 623f
00000310: 8e95 e4bd e736 0cbf b509 e23e ad67 9b3e
00000320: 234f 983e b3b6 0e3f d413 93bf 97b6 113e
00000330: 1d02 883e c8b4 093f 959d ecbe 88e5 f3bd
00000340: 1afd ea3e c795 f73d 4769 053f 8f27 bc3e
00000350: 865c 06bf 9c26 7b3e fd5e 2bbd dd28 9d3e
00000360: 74dd 8bbe b072 b63e 3a7f 20bf 761b 88bf
00000370: 4327 f13d 6c8a e9be 6950 123f 776b 32bd
00000380: e0d8 833e 5184 68bf 5dc8 f0bd 5d16 f2be
00000390: 7942 a1bb f48c f8be de29 23bf 15b6 49bd
000003a0: 7bc3 a53e a870 38be ba4d d83d a12e d23e
000003b0: bd78 af3e 7fbf 27bf 0cf3 273f ac33 2e3e
000003c0: e9b5 bd3e 9aa9 363f 8bcd 4cbf eac4 df3e
000003d0: 56f3 1c3f 3950 993e 642c 4dbe 55f5 653e
000003e0: e013 943e 696c 0a3e 96bb 013f b06a 173f
000003f0: 5731 02bf ccf6 a43e ba5a ef3b 943a 663e
0.5718618 0.66618574 -0.8589019 0.3082769 0.4499471 0.589682 -0.4074136 -0.07870029
0.39662507 0.15820628 0.46277067 0.43233138 -0.45686263 0.39927456 0.32243648 0.27641523
-0.15443888 0.407547 0.10140705 -0.34344485 0.22134231 -0.531765 0.33937952 -0.13963202
0.06851876 -0.42847413 -0.5681743 -0.31007534 -0.20833215 -0.23417181 -0.6536963 0.4196851
0.4268095 -0.057316665 0.31480327 0.82579136 0.052548174 -0.40004036 0.44404858 0.30014265
0.10435749 0.5150315 -0.9706557 0.4218496 0.45596257 0.5249388 -0.30224502 -0.043356624
0.3544365 0.028520774 0.55596155 0.46451634 -0.58701706 0.20335051 0.2224174 0.3378209
-0.27170113 0.588902 -0.396728 -0.656885 0.02212983 -0.3222261 0.36858293 0.10376312
0.20102045 -0.34861556 -0.32202366 -0.52475494 -0.20778391 -0.5337946 -0.54060364 0.5568149
0.31489336 -0.040581156 0.096108615 0.6893003 0.13292487 -0.5254457 0.5783609 0.2219469
0.5986465 0.49437296 -0.7217899 0.5048729 0.67728335 0.6729243 -0.4385073 -0.29307887
0.30610222 0.1221241 0.47336167 0.39355212 -0.46073502 0.3188344 0.22107634 0.38959378
-0.28573596 0.45372316 0.08264439 -0.18446581 0.0960553 -0.34614742 0.2620638 -0.03704372
0.157243 -0.32863596 -0.59779096 -0.4332892 -0.1587057 -0.16567467 -0.67720115 0.5018072
0.41789767 -0.09285371 0.1919953 0.6698385 0.114612974 -0.5663171 0.45374298 0.37962133
0.559801 0.523412 -0.5538076 0.51793885 0.606631 0.37420312 -0.29952025 0.06964148
0.2550576 0.23750809 0.45859247 0.63878185 -0.34272596 0.34458172 -0.2983461 0.29385552
-0.28936893 0.5812725 -0.03469582 -0.7071714 0.2838605 -0.35897306 0.13767377 -0.30612087
0.14752457 -0.21433315 -0.78688884 -0.20030786 -0.18021727 -0.3489917 -0.5359397 0.54623234
0.41554868 0.2856614 0.39903876 1.0309333 -0.16961718 0.18780874 0.55100584 0.4973763
0.27840126 0.6335238 -0.74919546 0.39526197 0.44499817 0.6659561 -0.4033538 -0.31312937
0.36445215 0.18212734 0.47208327 0.4575257 -0.42299646 0.3465441 -0.033964258 0.31939736
-0.3312522 0.6179177 -0.054603636 -0.40033525 0.22239129 -0.38952672 0.24818484 -0.07409994
0.10157117 -0.6237684 -0.4729803 -0.30118847 -0.20997672 -0.21708335 -0.66706 0.4124524
0.11578554 -0.033089213 0.23602082 0.8854393 -0.11161338 -0.54771274 0.4414803 0.30352536
0.29747877 0.55747527 -1.1490426 0.14229809 0.26564112 0.53791475 -0.46213976 -0.11909014
0.45896226 0.12089115 0.52113765 0.3674893 -0.5248493 0.24526447 -0.041838635 0.3069524
-0.27317393 0.35634375 -0.6269413 -1.063338 0.11775067 -0.4561342 0.57153946 -0.043559518
0.257514 -0.908269 -0.11756966 -0.47282687 -0.0049212542 -0.4854504 -0.6373576 -0.049245913
0.32375702 -0.18011725 0.105617 0.410512 0.34271803 -0.65526575 0.65605235 0.17011899
0.3705285 0.7135254 -0.80001134 0.4370492 0.613088 0.29944018 -0.20036465 0.22456868
0.28921413 0.13517918 0.5067686 0.5914717 -0.50856537 0.3221954 0.0073045166 0.22483283

model/output/b f4 [9]
00000000: 55ad c2bc 953a e03d 3dfa 393d 6683 da3c
00000010: 3c46 d53c 1e45 523b 2dbc 8abb ae5c 0f3e
00000020: 5a55 8c3d
-0.023764292 0.10948674 0.04540466 0.026673984 0.026034467 0.0032084654 -0.004233858 0.14000198
0.06852217
