python/results/2017_12_22_10_38_44/agent900/target_model.npz (npz, 14928 bytes, 6 tensors)

model/hidden_layers/0/W f4 [40, 40]
000000 d8 4f ee bc d2 9b a2 be 25 bf b7 3e 23 a5 11 bf
       -0.029090807 -0.31759506 0.3588802 -0.56892604
000010 55 76 47 bd 44 ad 50 3d e2 7d 28 3d cb 13 a2 3d
       -0.048696835 0.05094649 0.041135676 0.079139315
000020 32 e3 95 3d 1b d2 bc 3d 23 9c 8d be 23 bf 71 3d
       0.07318725 0.09219762 -0.27658185 0.059020173
000030 9b 12 2a 3e 55 61 8d be 39 f5 a2 3e 87 1d a7 3c
       0.1660866 -0.2761332 0.31827715 0.020399822
000040 8f d2 00 3d 32 da c6 3d 0b 56 54 3e 02 46 a4 3d
       0.031450804 0.09709586 0.20735948 0.080211654
000050 e5 47 aa be 03 2a 0c bf 0d 5e 1e bf 78 9b 13 bf
       -0.33257976 -0.54751605 -0.6186226 -0.576591
000060 96 88 8d bd 61 fe c4 3b 6c 93 a6 3e 86 db 34 3f
       -0.06910817 0.0060117696 0.3253435 0.70647466
000070 82 06 dc 3e fa 78 84 3e 85 e9 ab 3d 8b 97 e8 3d
       0.42973715 0.25873548 0.0839415 0.113570295
000080 78 43 28 3e 13 26 8f bb f7 f6 8c 3e bd 27 d7 3d
       0.16431987 -0.0043685525 0.2753217 0.10505626
000090 1c 4f 5b 3d cf d6 20 3d 68 8b 9d 3e 59 38 03 bd
       0.05354224 0.039267357 0.3077042 -0.03203616
0000a0 87 3c 60 bd c6 83 5b 3f 8a 94 0a 3f 69 4a 28 bf
       -0.054745223 0.85747945 0.541329 -0.6573854
0000b0 ed 07 ef 3e 8d 3c 66 3e c3 8f 8b 3e f0 ef 3d 3e
       0.46685734 0.22484036 0.2725812 0.1854856
0000c0 67 36 35 3e d2 ed 79 3d f3 90 9e 3d 0b 12 7c bd
       0.17696534 0.06101782 0.077424906 -0.061540645
0000d0 98 ba dd 3c 00 35 af bd fa 8a 92 bb 6d fa 94 be
       0.027066514 -0.08555031 -0.0044721337 -0.2909731
0000e0 52 21 97 bd 50 88 42 be 3c bf 0c 3d 48 db 68 be
       -0.07379402 -0.18997312 0.034362063 -0.22739899
0000f0 80 d9 1a 3e 30 57 e0 3e da 44 2f 3f fe 7f 4e 3f
       0.15122032 0.4381652 0.68464434 0.8066405
000100 a5 c3 6d 3f a3 32 5a 3f 89 ec 63 3f 7e b3 2c 3f
       0.92876655 0.85233516 0.890328 0.67461383
000110 e6 ba 2d 3f 16 cf 91 3e 13 67 93 3e 31 ca 9d 3c
       0.6786331 0.28478307 0.28789577 0.019261451
000120 1c e1 b8 3d 72 87 be 3d 83 47 e7 3e 85 81 b3 3d
       0.09027311 0.09303178 0.45171747 0.08764938
000130 37 ae 99 3e 38 ce 84 3e f9 cc b3 3e df 02 cf 3e
       0.30015728 0.25938582 0.3511732 0.40431878
000140 54 36 7b bd af 43 78 3d af 05 8e be 7c fa dd 3e
       -0.06133111 0.060611423 -0.2773871 0.43355167
000150 9f 81 96 3d 97 82 7f bb aa 1f 03 be 27 9b 7f 3b
       0.07348942 -0.003898775 -0.12805048 0.003900239
000160 80 17 8c 3d 05 a9 db bb 01 06 11 3d 64 d6 e7 bc
       0.0684042 -0.0067034983 0.035406116 -0.028300472
000170 ef d6 a1 3e 4a e5 e6 bd 73 3b 0e 39 9b fd 50 be
       0.31609294 -0.11274202 0.00013564322 -0.20409243
000180 98 b1 cd be 85 8b b1 be b8 f3 31 be a2 70 8b be
       -0.40174556 -0.34676757 -0.17378128 -0.2723437
000190 ed 10 2c 3d ea 2f 16 be 06 81 4f 3e bf 05 07 3e
       0.04200833 -0.14666715 0.20264062 0.13185786
0001a0 0a e6 1a bd 11 4a 8e be 61 45 16 bc 26 08 cd 3e
       -0.03781704 -0.27790883 -0.009171815 0.4004528
0001b0 d4 09 e1 3d a1 25 e0 bd ca 44 8a 3d e4 e6 28 be
       0.10988203 -0.10944677 0.06751402 -0.16494328
0001c0 c6 1e 2f 3e f4 2f 40 be b4 34 02 bd 46 48 9c bd
       0.17101583 -0.18768293 -0.031788543 -0.076309726
0001d0 1f 1a 5e 3d 8e 0b 72 be 30 fb 20 bd de 2d 8d 3d
       0.05422413 -0.2363722 -0.03930205 0.06893514
0001e0 7d 64 8a 3d b7 5e 65 3e 50 2b c2 be 63 fc 16 bf
       0.06757448 0.22399412 -0.3792367 -0.5897886
0001f0 17 ec 53 bd 2c f2 b8 3d 04 14 01 be 46 0e c6 3d
       -0.051738825 0.090305656 -0.12605292 0.09670691
000200 be 1f 80 bc 0e cf 96 bd 35 98 78 3e 39 e1 fc 3d
       -0.015640136 -0.07363711 0.24276812 0.12347645
000210 b7 21 1b be c4 ac fc be 75 58 42 be a1 1b ea be
       -0.1514958 -0.4935056 -0.18979056 -0.45724204
000220 7d 51 0c bf 89 db 28 bf 45 ce d3 be 33 5d e9 be
       -0.5481184 -0.65959984 -0.4136831 -0.45578918
000230 dc e1 e2 be 80 bf 0f bf 03 57 46 be 35 e7 4d be
       -0.44312942 -0.5615158 -0.1936913 -0.2010773
000240 57 ea e4 3b b6 53 8f be 6a f8 92 3d 24 66 6d 3d
       0.0069859433 -0.27993554 0.071762875 0.057958737
000250 fc 00 03 3d cf 18 46 3e 57 f4 a4 bd e2 cc 13 3e
       0.03198336 0.19345401 -0.080544166 0.14433625
000260 56 f7 40 3d f5 ec 65 3d 06 a0 c7 3d ac 08 a4 be
       0.047110878 0.056134183 0.09747319 -0.32037866
000270 bd a1 3d be 93 14 07 be da 1d 68 3c e4 f5 7a be
       -0.1851873 -0.13191442 0.014167273 -0.24507862
000280 ea 84 e0 bd 53 fb ad be c9 b1 96 3e 96 d2 29 be
       -0.10962851 -0.33980808 0.29432514 -0.16584238
000290 ef 51 42 bd 6a 5b bb 3e 4d 0a 6b 3e 0f 66 64 bd
       -0.04744142 0.3659318 0.22953148 -0.055761393
0002a0 cd 57 3f 3e 00 db ff bc 9f 0a 83 3d 62 a4 fd 3d
       0.18685837 -0.031232357 0.0639851 0.12384869
0002b0 75 68 05 3c 76 c3 53 3e 9d 99 a0 3c 1b 53 cb bb
       0.00814258 0.20680031 0.019604499 -0.0062049753
0002c0 61 70 20 3d 09 3e af 3e a1 00 4c bd 2f bc 68 3e
       0.039169673 0.34227017 -0.049805287 0.22728036
0002d0 b0 df 0e 3e f5 46 67 3e 23 fa 97 3e 90 b7 17 3f
       0.13952518 0.22585662 0.29683027 0.5926447
0002e0 f3 d7 3f 3e 73 0d 31 be 24 34 e0 3d 60 cb 4b bd
       0.18734722 -0.17290287 0.10947445 -0.0497545
0002f0 a8 49 93 be 10 2e f0 bd 3a 2b f9 bd 1b e8 5a 3e
       -0.28767133 -0.11727536 -0.12166448 0.21377604
000300 c6 b2 d6 3d 9d af dd 3e 73 a6 89 be cb 63 39 bd
       0.10483317 0.43298045 -0.26884803 -0.045261186
000310 34 19 73 3d 3f b3 0d 3d cc 3b 0a 3e c6 ab 71 3e
       0.059350207 0.03459477 0.13499373 0.23600683
000320 7c f1 7a bd 5e b4 f2 3d 0d 24 65 be d1 b6 18 bf
       -0.061265454 0.118508086 -0.22377034 -0.59653956
000330 9e 48 06 3e e4 06 2d be 49 20 f2 bd 1d f5 78 be
       0.13113639 -0.1689716 -0.11822564 -0.24312253
000340 05 06 b5 3d b3 b8 24 3e bd 99 0b 3e 6c 53 cf bd
       0.08839039 0.16086082 0.13632865 -0.10123333
000350 84 f2 90 3c d8 94 0b be fb 33 29 be ba 9c 35 be
       0.017693765 -0.13630998 -0.16523735 -0.17735568
000360 9c 01 e0 3d 09 d1 92 3c 8b ca f9 3d 2c 59 bf 3c
       0.10937807 0.017921941 0.12196835 0.02335795
000370 8a 44 c5 3e 41 ac b8 3e 20 4b 88 3c a3 ee f0 3d
       0.38528854 0.3606892 0.016637385 0.11764266
000380 98 0e 2d be 18 49 05 bd fd 96 83 3e 0e 73 ed 3d
       -0.16900098 -0.03254041 0.25701132 0.115942106
000390 85 fc 7d 3e 63 f1 dd 3e b8 c7 fc 3e fd 94 61 3e
       0.2480336 0.43348226 0.49371123 0.22029491
0003a0 a6 af 81 3e 8e 03 08 3e ea 62 00 be 1e 14 9c be
       0.25329322 0.13282606 -0.12537733 -0.30484098
0003b0 23 c4 34 bc 92 83 a9 3d 8a 36 72 3e 68 28 36 3e
       -0.011033091 0.08277048 0.23653618 0.17788851
0003c0 37 18 88 bc f1 37 cb 3d fa a8 ab be 6f 5f a3 3f
       -0.016613109 0.09922779 -0.33527356 1.2763499
0003d0 13 d2 45 3e ca 2f f2 3d 8a 3a 5f 3e c4 00 5e 3e
       0.19318418 0.11825521 0.21799675 0.2167998
0003e0 da 09 6d 3e f0 d9 ca 3e 11 2d 5f 3e 84 a9 dd 3d
       0.2314829 0.39619398 0.21794535 0.10823348
0003f0 ae bd f5 bd 96 c9 8e 3d c2 a7 17 be cf e4 b4 bd
       -0.11999069 0.06972043 -0.14810088 -0.08832704

model/hidden_layers/0/b f4 [40]
000000 28 24 1a 3f 32 41 8f 3e 99 a0 6c 3c f0 b2 2b bf
       0.6021142 0.27979428 0.014442586 -0.6706991
000010 f6 fd 1c 3f 9f f9 66 3f 02 0e e1 be ff 71 05 3f
       0.61325014 0.9022464 -0.43956 0.5212707
000020 c3 ec 31 bf e6 a0 7a 3f 2b 9a 3c bd a9 23 87 3d
       -0.69501895 0.9790176 -0.046045464 0.065985985
000030 57 bf 98 be 41 76 9d 3e 97 27 41 3d ce 04 41 3d
       -0.2983348 0.30754283 0.047156896 0.047123723
000040 7a cf 1d be 31 88 22 bf fb 58 c5 3e ec 2e 0f 3e
       -0.15411177 -0.6348906 0.3854445 0.13982743
000050 24 13 62 3d 1c f5 bf 3e 53 a2 3f be 00 9e 4d 3e
       0.055194035 0.3749169 -0.18714266 0.20079803
000060 d5 e6 19 3e 75 cb d8 be d3 b5 29 bf b8 e6 0f bd
       0.15029462 -0.42342725 -0.66293067 -0.03513214
000070 7a 1d a7 3d 75 c6 96 3d b3 d1 22 3d 37 be 2e 3e
       0.08159919 0.073620714 0.039750766 0.17064749
000080 6b be bc 3d 9a 7a 23 3f ec 9e 10 bf 18 91 72 3e
       0.09216007 0.6385895 -0.56492496 0.23688161
000090 4d 86 b9 bd a1 b9 9f be 98 96 61 3d ec 66 43 3e
       -0.09058819 -0.3119631 0.055075258 0.1908223

model/hidden_layers/1/W f4 [40, 40]
000000 21 33 4d bc c2 82 08 3f d9 37 b8 be 41 ee 9a 3e
       -0.012524397 0.5332452 -0.35980108 0.30259898
000010 69 8a 78 3e 71 65 f2 3d 45 1b 5d 3e b9 c3 d1 3c
       0.2427155 0.11835755 0.21592434 0.025606023
000020 3a 73 98 bd d3 98 fe 3d f5 f1 17 bd 0e 25 53 bd
       -0.07443853 0.12431493 -0.037095983 -0.05154901
000030 c8 ec ef 3e 71 16 1a 3d f7 65 d1 bd 33 19 f3 bd
       0.46860337 0.037619058 -0.102245264 -0.11870041
000040 dd cf ac 3d ba 6e dc 3e 74 49 a8 3d fa b7 72 bd
       0.08438084 0.43053228 0.08217135 -0.059257485
000050 08 71 cc be 93 f4 1d be ac f1 83 be d9 1a f5 3e
       -0.39929986 -0.15425329 -0.25770319 0.47872046
000060 8f 62 29 3f d5 87 24 3e 80 7e 71 bc 57 b6 20 bf
       0.66166013 0.16067441 -0.014739633 -0.6277823
000070 d1 07 da 3c 2c dd 63 3d 32 b9 0b 3e cb f8 88 3e
       0.026615055 0.055630848 0.13644865 0.26752314
000080 2a db f1 3e c5 aa 82 3d 06 84 2e 3e 84 34 85 be
       0.4723752 0.06380228 0.1704255 -0.2601663
000090 2c c7 a2 3e 75 1b aa bc fa 3f 92 3e 5e 63 81 be
       0.3179258 -0.020765046 0.28564435 -0.25271124
0000a0 c4 4d 05 bc 9f a0 a2 3e ec 0e c9 bd 6a d7 e4 bd
       -0.008136217 0.3176317 -0.09817299 -0.111738995
0000b0 74 50 08 3e 99 16 06 bf 1d 9a 0d 3f d0 ea 90 3e
       0.1331194 -0.5237823 0.55313283 0.28304148
0000c0 b1 51 d7 3e d5 1b 09 bf 30 f2 7c be 11 f1 78 be
       0.42054513 -0.53558093 -0.24701762 -0.2431071
0000d0 ab eb ae 3e a5 a7 0a 3e 2d 3c 85 be 0a 98 49 be
       0.34164175 0.13540514 -0.26022473 -0.19686905
0000e0 88 31 35 3e e9 4c 97 3e 6e 2a b5 be 41 ac 5b 3c
       0.17694676 0.29550865 -0.35383934 0.013407768
0000f0 c1 8a 98 be 20 e5 8b 3e 4b b9 d4 3d 05 34 52 be
       -0.2979336 0.27323246 0.10386904 -0.20527656
000100 99 19 0b 3e 15 19 f2 3e 94 34 6c 3e e5 08 2b bd
       0.13583983 0.4728476 0.23066932 -0.04175653
000110 45 c4 b7 bd 4b 83 ee 3e 21 bf a7 be 45 ed e9 bc
       -0.08972982 0.46584544 -0.32763007 -0.028555522
000120 b3 d3 bc 3e 12 5a 1a bf 40 2a 9e bc fc 0c b9 3e
       0.36880264 -0.60293686 -0.019307256 0.3614272
000130 d3 b3 16 3f b5 4e ca bd f6 d4 e8 3d a0 83 4f be
       0.5886814 -0.098782934 0.11368744 -0.20265055
000140 9a ef cc 3e 29 81 2a bf 61 8a 97 bd ef 87 6c 3d
       0.4002655 -0.6660333 -0.073994406 0.057746824
000150 d3 2a 9b be 5f b4 a9 3d be e3 93 be 21 c0 f0 3e
       -0.3030611 0.08286356 -0.2888469 0.47021583
000160 cc b8 54 3e ae b4 dc 3d 3a 66 62 3e eb 38 1e 3d
       0.2077362 0.107766494 0.22109309 0.0386285
000170 7f cb 16 bf 3c e8 16 3d fa 5b 96 3d 92 98 d2 bd
       -0.5890426 0.03684257 0.07341762 -0.10283007
000180 7f 9a 4d be fd fb 1b bf c5 fb 13 3e 9a 94 cd bd
       -0.20078467 -0.6093138 0.14451511 -0.10038109
000190 d7 d2 94 3e 45 a4 30 3f e3 1a 28 be fc 20 fa 3d
       0.29067108 0.69000655 -0.16416506 0.122133225
0001a0 cf 5d c7 be ab f0 9e bd 4c b5 80 3c be 87 22 3f
       -0.38938758 -0.077607475 0.01571145 0.63488376
0001b0 78 e2 08 be 94 18 60 bc 1e 6e da be b9 66 a9 be
       -0.13367641 -0.013677735 -0.42662138 -0.33086184
0001c0 99 cc 9b bf d5 f2 96 bd 6e 01 ce 3e fb e4 8d be
       -1.2171813 -0.07370535 0.40235466 -0.2771376
0001d0 3a f3 5f bf 3f f2 11 bf 64 26 21 3d c6 12 3b 3f
       -0.8748051 -0.57010263 0.039343253 0.7307552
0001e0 bc 86 62 bd 36 40 18 3e b6 66 d1 bc 22 f1 25 3e
       -0.055304274 0.14868245 -0.025561672 0.16205266
0001f0 b8 26 e1 be 70 f6 9c be c7 52 04 3f 6f 5b 4b 3d
       -0.43974853 -0.30656767 0.5168881 0.049647745
000200 ee 56 5b 3e a1 c7 19 bf bf 08 78 be 82 4e 9b bd
       0.2141988 -0.60070235 -0.24222086 -0.075833336
000210 72 fc 2b 3e 4b e1 94 bd 96 b2 bb bd 87 b1 2f 3d
       0.16795519 -0.07269534 -0.09164922 0.042893913
000220 0c 50 0d 3e bb 80 aa 3d eb d4 6b be ce 3d c3 bc
       0.13800067 0.08325335 -0.2303044 -0.023833182
000230 79 f0 8d bd d1 14 99 bd 85 07 ba 3c 58 c0 02 bf
       -0.06930632 -0.074746735 0.022708664 -0.51074743
000240 d5 db ae be 0d 4b 99 3e e1 08 94 3e 3d 1e 27 3e
       -0.34152094 0.29940072 0.28913024 0.16320129
000250 94 3e a5 3d 52 17 6a 3e b4 ee 19 3e a2 9a b3 be
       0.080685765 0.22860458 0.15032464 -0.35078913
000260 4b 9d d8 bd 8f f5 30 be dd 71 40 3e 64 07 2e 3e
       -0.10576876 -0.17281173 0.18793435 0.16995007
000270 0d ee 2f 3e f3 ec ac 3d 31 d7 aa 3d 48 0e c2 3d
       0.17180653 0.08443632 0.08341826 0.0947538
000280 bc 66 91 bd 39 6f 52 3f 7c 02 49 3e d2 31 ee 3d
       -0.07099673 0.8220096 0.19629854 0.11630596
000290 b0 5d f0 bd 8c 5f e7 3e 1a bb 8f bb be 6d 03 bc
       -0.117366195 0.45190084 -0.004386318 -0.00802177
0002a0 c7 84 72 3e d1 5e 81 3d 72 ec 56 be 94 87 0e 3e
       0.23683463 0.06316913 -0.20988634 0.13918906
0002b0 2a ea cc 3e 32 2b aa 3b 0b 3d ee 3c b2 c8 b7 bd
       0.40022403 0.0051931376 0.029081842 -0.089738265
0002c0 ca b7 08 bf 03 51 0c 3e c5 fe a7 3e 3e 92 a2 be
       -0.5340544 0.13702779 0.3281156 -0.317522
0002d0 ce b2 ac be 10 a4 61 be 02 32 c4 be c9 da 88 be
       -0.33730167 -0.22035241 -0.38319403 -0.2672942
0002e0 2f 2b 07 3f 35 48 1e 3e 73 ac 23 bf df 24 2d bf
       0.5280027 0.15457232 -0.6393501 -0.67634386
0002f0 6a b0 18 be 2c 65 f8 bd 25 87 3c 3e a4 06 97 3d
       -0.14911047 -0.12128672 0.18410929 0.073743135
000300 00 a4 7b 3e 8d fc f3 bd 12 1c 52 be b6 67 25 be
       0.2457428 -0.119134046 -0.2051852 -0.16152844
000310 64 49 40 3f 74 e6 36 bd 13 ab 8a 3e 86 64 b5 be
       0.75111985 -0.04465337 0.27083644 -0.35428256
000320 f1 b8 c1 be 19 0d ac be 32 d4 19 3e e4 ee 45 3d
       -0.37836412 -0.33603743 0.15022352 0.048323527
000330 30 c7 17 3e ba ae af be 8b 24 98 3e 97 f9 d9 be
       0.14822078 -0.34312993 0.2971538 -0.42573234
000340 86 d7 b5 3e c6 9c 01 bf af 87 58 be 40 d0 a3 bd
       0.35515994 -0.5062984 -0.21145509 -0.07998705
000350 b7 44 e1 3d 99 04 d4 bc c2 c0 d6 bd e6 18 22 3e
       0.109994344 -0.025881099 -0.104859844 0.1582981
000360 e8 1a 02 3f d9 1f 97 3e 68 59 68 be 27 07 42 3d
       0.50822306 0.29516485 -0.22690356 0.047370102
000370 38 a2 09 bd 2e b7 a2 3c 4d 20 1b bd f3 30 e7 3d
       -0.03360197 0.019862738 -0.0378726 0.11288633
000380 d6 e8 20 bc b0 23 ad 3e 5a c4 a1 3e 3a 69 2f 3d
       -0.009821137 0.3381629 0.31595117 0.04282496
000390 21 d1 11 be 74 31 f9 bd 61 6c 81 3c a6 20 3d be
       -0.14239933 -0.121676356 0.01579875 -0.18469486
0003a0 91 b7 36 be 2e 1d e4 be 29 b5 6d 3e 18 87 14 be
       -0.17843463 -0.44553512 0.23213638 -0.14504659
0003b0 78 06 92 3c 6b cf aa 3e 0a a0 82 bd 19 fe 12 be
       0.01782535 0.33361372 -0.06378181 -0.14354743
0003c0 bf 66 13 3e b7 41 8c be 99 80 75 3e a9 21 c3 be
       0.14394663 -0.27393886 0.23974837 -0.38111618
0003d0 76 d8 07 3f e6 0d be 3d e3 42 a6 3c 5d 54 38 3e
       0.5306467 0.09279995 0.020295566 0.18000932
0003e0 1a 77 d7 bc 9b ba b7 3e 94 10 fa 3d bc 75 40 be
       -0.02630191 0.35884556 0.12210193 -0.18794912
0003f0 17 14 d8 3d d2 06 e0 3e e7 9b f8 bd 8a 57 c6 3d
       0.10550707 0.43755203 -0.12139111 0.096846655

model/hidden_layers/1/b f4 [40]
000000 20 f3 c5 3c 7b 55 fd bd e5 3d f2 3d 98 bb 35 be
       0.024163783 -0.1236982 0.11828212 -0.17747343
000010 55 03 ae 3d 32 aa b3 be d8 0e 6b 3d 5d 73 fc bc
       0.08496729 -0.35090786 0.057387203 -0.030816728
000020 c1 76 2c be 54 e0 bb bc d4 99 b6 3c c7 5c 20 be
       -0.16842176 -0.022934116 0.022290148 -0.15660392
000030 15 71 8d 3e c4 ff d7 bd 43 3e be 3b 6d 0e 14 be
       0.27625337 -0.1054683 0.005805762 -0.14458628
000040 49 23 22 3e 63 ac 2d bd 60 ac e1 bd d1 d1 26 bd
       0.15833773 -0.04240073 -0.11019206 -0.04072744
000050 ce ba ff bc ab 59 81 3d 39 43 d8 3d 44 7f 79 bd
       -0.031217005 0.06315931 0.10559697 -0.060912386
000060 07 ff 97 3c e5 af 51 bd a1 e7 3a ba a2 51 10 3e
       0.018554224 -0.051193137 -0.00071298523 0.1409364
000070 b3 86 c2 3d a9 0f ee 3d 9d 74 66 3c a1 0d 88 bc
       0.09498348 0.11624081 0.014065889 -0.016608061
000080 df 4d 55 ba e0 7e bb 3d c9 91 bc 3d fd 0d 98 bd
       -0.0008136909 0.09155059 0.09207494 -0.07424543
000090 4a 92 e7 bd 90 40 13 3d ba 58 55 be b4 b2 2f bc
       -0.11307199 0.035950243 -0.20834628 -0.0107237585

model/output/W f4 [9, 40]
000000 6c e7 11 3f 80 ff 29 3f 5e 6d 5b bf e1 ab 9d 3e
       0.56993747 0.6640549 -0.85713756 0.30795196
000010 61 77 e5 3e 8d fe 16 3f e3 65 d0 be 8b 99 9d bd
       0.4481764 0.58982164 -0.40702733 -0.076953016
000020 74 cc ca 3e fb 07 21 3e 67 04 ec 3e 4e 13 dd 3e
       0.3960911 0.157257 0.4609711 0.4317879
000030 2b b2 e8 be ae 6a cb 3e 1e 3b a4 3e 46 5a 8c 3e
       -0.4544843 0.39729828 0.32076353 0.27412623
000040 12 4f 1c be c2 c2 cf 3e f8 30 d3 3d 48 f3 ae be
       -0.15264538 0.40578276 0.103120744 -0.34169984
000050 c8 b6 61 3e b9 a3 07 bf 00 56 ac 3e 7c ba 0d be
       0.22042382 -0.52984196 0.33659363 -0.1384067
000060 22 d3 88 3d ed 7b da be 34 ff 10 bf 5a 58 9e be
       0.066808954 -0.42672673 -0.5663941 -0.30926782
000070 39 e9 54 be c8 9e 6e be 6f e4 26 bf a2 00 d6 3e
       -0.20792092 -0.23302758 -0.6519231 0.41797358
000080 b5 9c d9 3e f7 60 72 bd 6d 46 a0 3e 0b f4 52 3f
       0.4250237 -0.059174504 0.3130373 0.8240363
000090 c2 01 5f 3d 26 f1 cb be 03 d3 e3 3e 94 4e 99 3e
       0.054445036 -0.3983242 0.44496927 0.29942763
0000a0 a8 19 d7 3d 89 19 04 3f 8c 97 78 bf b1 b4 d7 3e
       0.105029404 0.51601464 -0.9710624 0.42130044
0000b0 8f cc e9 3e c4 2a 06 3f cf 53 9a be 2f 77 34 bd
       0.45663878 0.52409005 -0.30142066 -0.044058975
0000c0 39 17 b5 3e a6 ed e6 3c e7 8f 0e 3f 07 7a ed 3e
       0.3536928 0.028189491 0.5568833 0.46382162
0000d0 d0 3e 16 bf 77 59 50 3e f3 82 64 3e 67 4d ad 3e
       -0.58689594 0.20346628 0.22315578 0.33848116
0000e0 27 32 8b be e7 e6 16 3f 8a 76 cb be 9e 54 28 bf
       -0.271867 0.5894608 -0.39738876 -0.65754116
0000f0 34 65 b3 3c 12 04 a5 be 2f 07 bd 3e b0 63 d3 3d
       0.021898843 -0.32229668 0.36919543 0.10321748
000100 3d a1 4e 3e 3a cb b2 be cf 2b a5 be 3f 4a 06 bf
       0.20178695 -0.34920675 -0.32259986 -0.5245704
000110 85 04 54 be 6d 8d 08 bf 32 84 0a bf cc b6 0e 3f
       -0.20704849 -0.533408 -0.54107964 0.55747676
000120 12 7c a1 3e e9 7d 23 bd 63 73 c6 3d 71 95 30 3f
       0.3153997 -0.039915 0.09689977 0.6897803
000130 ab 30 07 3e 32 a1 06 bf 34 cb 13 3f 66 bb 62 3e
       0.13202159 -0.52589715 0.5773194 0.221418
000140 95 47 19 3f 45 25 fd 3e 58 ce 38 bf d9 21 01 3f
       0.5987485 0.49442497 -0.72189856 0.5044227
000150 1d 68 2d 3f 29 31 2c 3f 0f 1f e0 be 0b 20 96 be
       0.6773699 0.6726251 -0.43773696 -0.29321322
000160 7f 46 9c 3e b0 28 f9 3d 64 62 f2 3e 72 39 c9 3e
       0.30522534 0.12165964 0.4734069 0.3930164
000170 44 9a eb be 3c e3 a2 3e 14 84 62 3e d7 44 c7 3e
       -0.46016133 0.3181399 0.22120696 0.38919708
000180 11 1b 92 be 47 60 e8 3e d3 e3 a8 3d b2 f8 3c be
       -0.28536275 0.45385954 0.08246579 -0.18454245
000190 28 bf c3 3d 02 fd b0 be d3 5a 86 3e de 4c 17 bd
       0.095579445 -0.3456803 0.26241168 -0.03693854
0001a0 84 25 21 3e 45 50 a8 be ba 0f 19 bf 99 86 dd be
       0.15736967 -0.3287374 -0.5978962 -0.43266752
0001b0 15 e7 21 be 33 ff 28 be 8d 63 2d bf 1b 7f 00 3f
       -0.15810807 -0.16503601 -0.6773003 0.5019395
0001c0 3f 06 d6 3e ec ea bd bd 10 a0 44 3e 4a 81 2b 3f
       0.4180164 -0.092733234 0.19201684 0.66994154
0001d0 84 45 ea 3d 64 05 11 bf 95 23 e8 3e be 23 c2 3e
       0.1143904 -0.5664885 0.45339647 0.37917894
0001e0 7b ae 0f 3f 98 f1 05 3f 91 06 0e bf 24 35 04 3f
       0.5612561 0.5232177 -0.5547877 0.51643586
0001f0 df a6 1b 3f ea 29 bf 3e 24 ce 99 be c0 06 8d 3d
       0.608015 0.37336665 -0.30040085 0.06886053
000200 69 52 82 3e c2 6b 71 3e 7b 01 eb 3e 17 83 23 3f
       0.254535 0.23576263 0.45899567 0.638719
000210 cc e1 ae be e7 97 b0 3e 43 5e 98 be dc a9 95 3e
       -0.34156644 0.34490892 -0.29759416 0.29231155
000220 2a 2b 94 be ef 11 15 3f 17 32 11 bd e2 6b 35 bf
       -0.28939182 0.5823049 -0.03544816 -0.7086774
000230 10 67 91 3e 06 e6 b7 be 40 de 0c 3e 22 51 9d be
       0.28398943 -0.3591768 0.13756657 -0.30725962
000240 8a 86 17 3e 52 a9 5c be 3f c6 49 bf 43 1a 4d be
       0.14797416 -0.21548966 -0.78818125 -0.2002955
000250 cd 97 39 be ac 4a b2 be 87 80 09 bf bb 07 0c 3f
       -0.18124314 -0.34822595 -0.5371174 0.54699296
000260 e0 51 d5 3e fb 09 93 3e 6a 82 cc 3e a3 1a 84 3f
       0.41664028 0.28718552 0.39943248 1.0320629
000270 07 0f 2f be bb ed 3e 3e 58 0d 0d 3f 19 d6 fe 3e
       -0.17095576 0.18645374 0.55098486 0.4977272
000280 cf e9 8e 3e 66 73 22 3f 83 ef 3f bf c8 9c ca 3e
       0.27912757 0.63457334 -0.7497484 0.3957274
000290 fd 22 e4 3e 09 7a 2a 3f dd a7 ce be 52 9c a0 be
       0.44557944 0.6659246 -0.40362445 -0.31369263
0002a0 0a ae ba 3e 15 bf 3a 3e ba 00 f2 3e 81 18 ea 3e
       0.36460906 0.18236955 0.4726618 0.4572182
0002b0 5b f4 d8 be 01 fc b1 3e fb 0b 09 bd 19 1f a4 3e
       -0.42373928 0.34762576 -0.03345869 0.32054976
0002c0 b7 0e aa be a6 57 1e 3f 60 91 61 bd 05 43 cd be
       -0.33214352 0.6185249 -0.05507028 -0.40090194
0002d0 22 6a 64 3e 37 d9 c7 be 53 6b 7f 3e 95 31 99 bd
       0.22306111 -0.3903291 0.24943285 -0.0748016
0002e0 34 22 d1 3d ef d4 1f bf 91 8f f2 be 19 a6 9a be
       0.10211602 -0.62434286 -0.47375157 -0.30204847
0002f0 69 7a 57 be 77 ea 5e be 48 ed 2a bf d0 7a d3 3e
       -0.2104279 -0.21769129 -0.6676831 0.41304636
000300 7d 8d ee 3d 9b 1f 04 bd 1a 71 72 3e 92 d8 62 3f
       0.116480805 -0.032256704 0.23675957 0.8861171
000310 54 72 e6 bd da 60 0c bf c0 12 e2 3e 98 dd 9b 3e
       -0.11252275 -0.54835284 0.4415493 0.304425
000320 8c 54 99 3e 1d e9 0e 3f 76 37 93 bf 81 d8 0f 3e
       0.29947317 0.5582445 -1.15013 0.14047433
000330 dd 0c 89 3e 9a 2b 09 3f 16 9e ec be 78 6d f5 bd
       0.26767626 0.53582156 -0.4621436 -0.1198377
000340 98 98 ea 3e cd 2b f6 3d aa 78 05 3f e5 34 bc 3e
       0.45819545 0.12020073 0.52137244 0.36759105
000350 df 6b 06 bf c2 e9 7b 3e cc b1 28 bd b6 05 9d 3e
       -0.5250835 0.2460089 -0.041185185 0.3066842
000360 42 cb 8b be 9a 29 b7 3e 5a 94 20 bf e2 48 88 bf
       -0.2730351 0.35773927 -0.62726367 -1.0647242
000370 9a 74 f0 3d 21 70 e9 be 9f b2 12 3f 7d 30 33 bd
       0.1174099 -0.4559336 0.57303804 -0.043747414
000380 27 3c 84 3e 40 d4 68 bf 46 8c f4 bd 49 98 f1 be
       0.25827143 -0.9094887 -0.119408175 -0.47186497
000390 f2 f3 85 bb 3a 4d f8 be 87 8d 23 bf 4a 2f 43 bd
       -0.0040879184 -0.4849642 -0.6388783 -0.04765252
0003a0 41 7a a6 3e a0 d1 35 be 50 32 d9 3d 59 06 d3 3e
       0.32515147 -0.17755747 0.106052995 0.4121578
0003b0 53 d9 ad 3e 2f 00 28 bf 22 7b 27 3f 4d 13 2e 3e
       0.33954868 -0.6562528 0.6542226 0.1699955
0003c0 57 7c bd 3e 53 3e 36 3f c0 cf 4c bf a6 1b e0 3e
       0.37008926 0.7118885 -0.800045 0.43771094
0003d0 43 01 1d 3f 50 3f 99 3e c9 57 4c be 03 8d 65 3e
       0.6133005 0.29931116 -0.19955362 0.22417073
0003e0 91 98 94 3e b1 dc 0b 3e 4b d2 01 3f 9e 5f 17 3f
       0.2902265 0.13658406 0.50711507 0.59130275
0003f0 9d 4a 02 bf 7e 1d a5 3e 12 85 fd 3b be 53 66 3e
       -0.508951 0.32249063 0.0077368105 0.22492883

model/output/b f4 [9]
000000 2d e9 d0 bc 98 d9 e1 3d 64 ca 3a 3d 9f 3c e0 3c
       -0.025501812 0.11027831 0.04560317 0.027372656
000010 d7 de d9 3c 59 1f 75 3b 2b 71 6c bb 70 20 10 3e
       0.026595516 0.0037402718 -0.0036078196 0.14074874
000020 2a 40 8a 3d
       0.067505196
