python/results/2017_12_22_10_38_44/agent100/model.npz (npz, 14884 bytes, 6 tensors)

model/hidden_layers/0/W f4 [40, 40]
00000000: d024 59be 704c 67be db6b 0c3d ac04 4ebe
00000010: 611a 493d 3924 233e 3bf0 943d 752a 423d
00000020: 9bc0 813d 4459 6cbb 67cb 89be 96fc 973d
00000030: d91d 343e 5023 1bbe 35af 923e f685 83bd
00000040: 12bb 8f3c df51 f03d 88bd 7e3e defe 963d
00000050: fd78 abbe 530d aebe ad02 a6be 5ecf 18be
00000060: 628d 5a3e 74b2 94bb cced 263a 65e6 b53e
00000070: 6c00 813d e2ed 48bd f8e4 20be 0fe0 65bd
00000080: 6181 843d 980b 25bd bcf3 a13e 3a10 003c
00000090: bf7a 41be f965 71be 115e 933e 727a bd3c
000000a0: 954b 04bd 0e18 343f 465e 0b3c 299a 83be
000000b0: aca0 a23e 7f88 88bd 066b 8b3e edbe 83b9
000000c0: 015f f2bd e479 e63c f407 253d 458c 60bd
000000d0: 192a a33c 71d7 a2be 59e6 563e decc 1fbe
000000e0: c044 b13d 1299 0dbe 1445 983d 671d f5bd
000000f0: a81f 183e d830 8d3e 4417 a13e 88c6 8f3e
00000100: 603e 923e ecd6 533e 9abc e33e a403 893e
00000110: 0757 c33e 7e56 a93d d77f 493e 9285 96bd
00000120: 0aec 813c c2f8 543d 0003 be3e be53 743d
00000130: 7e63 4e3e a2f2 773d 14ae 9f3c 3315 ee3d
00000140: e93d d43c 2f0b c53d ee97 61bd cd1f 7d3e
00000150: d3a8 aa3d df81 eb3c c19b b4bd aae1 c23d
00000160: cc50 b23d d918 153c 470f 5e3d b119 d5bc
00000170: 82d3 ab3e 7c1e cabc 229c aa3d 9dd8 91bd
00000180: d237 98be 08c4 88be 8a4c 2ebe 08e6 89be
00000190: 7db6 073e 3851 5dbd 4491 2b3e 7bde 473d
000001a0: 9d82 52be d103 bebe 57e7 adbc 903f d73e
000001b0: 50ea 153e 67fa cbbd a09e 503d 01ad 29be
000001c0: c133 343e c5ec 22be d221 4e3d 3de8 09bc
000001d0: 6052 cf3d a900 2fbe c1c7 a93a fe1f f63c
000001e0: 4bf5 8a3e 0dfb ba3d 9d4c 72be d049 8abe
000001f0: 3e25 8e3d 5b6c 633e 32a6 d7bd 38e3 ce3d
00000200: f198 28bd 31f4 3bbe 94e1 353e a72e ae3d
00000210: f73b 08be 4de5 e5be 1029 b5bd 788e acbe
00000220: 9843 b3be b0d7 97be ed99 d8bb da48 0bbe
00000230: 6963 0dbe 314c b1be 7ac4 84bd 5624 6ebe
00000240: 7804 893b ff01 c6be c6b7 a13b e5d0 d6bc
00000250: 0dd7 33be f187 4c3d 59d3 edbd 671f 023e
00000260: af09 7d3d 31d9 6d3d 0406 b13c a71a aabe
00000270: c6b7 b8bd d93b 913d 9520 6d3e 4182 75be
00000280: 8097 f7bc bdf3 a9bd c11b 2f3e 969e b13c
00000290: 9722 b5be 7579 313e cde0 8f3e 4dfb 60be
000002a0: 3e70 173e f86b 8ebc 817c 5f3d 72d8 ef3d
000002b0: b627 bcbc 45a0 5b3e 3a33 5dbb 4e3c a4bd
000002c0: 003a 67bd 0a6b 9a3e 19d6 fdbd a432 b03d
000002d0: 5b77 a03c b1eb 6ebc 7c1b de3d a753 bc3e
000002e0: 175a 69bd 906d aebe 887e 213e 4387 143d
000002f0: d08b 5cbe c81e 51bd 2195 08be 55b3 573e
00000300: 95c4 e23d 75f9 ed3e e22a 64be b490 a7bd
00000310: 7094 3e3d 1974 a43d 4ce3 bb3d 8da5 523e
00000320: 29f2 57bd e202 df3d 9a3e 6f3e 4612 c1bd
00000330: c7e8 133b 3c62 f5bc a500 82bd dcf1 9fbd
00000340: 48d1 323e 89a4 a43d 3680 2b3e 95f0 0bbe
00000350: 4efe 18bd 04f9 4abd 40c8 ebbd eeef 53be
00000360: c0f7 ab3d 0618 53bd 42bd c1bd dd6a 95be
00000370: 3ee5 463e 568b c63e 85ff f23d 595a 9b3e
00000380: 8087 c4bd 0ca9 cfbd 9b23 303d a2e1 98bd
00000390: 25fe 01bd 234f 0c3e 3d8d 7d3e 9b1d c93d
000003a0: a30b 633e 4317 493e 9ebe 893d bbe6 06be
000003b0: ba4a 743d ddd1 12bd 12a6 483d a019 d73c
000003c0: c2de c53d ea89 40be 8ac5 0cbe dc50 a13e
000003d0: 0542 88bc 3855 123c 9034 ae3c 252a 94bc
000003e0: 9086 a53d 6977 9c3e d0b5 8dbd 074d a7bd
000003f0: 205b 56be 5aa1 01be c0af 61be c5fe 64bd
-0.21205449 -0.22587752 0.034282546 -0.2011897 0.049097423 0.15931787 0.07272383 0.04740377
0.06335565 -0.0036063949 -0.26912996 0.07421224 0.17589511 -0.1515019 0.28649297 -0.064220354
0.017545257 0.11734366 0.24876988 0.07372831 -0.33490744 -0.3399454 -0.32423916 -0.14922854
0.21342996 -0.004537875 0.0006367832 0.3552734 0.062989086 -0.049054988 -0.15712345 -0.056121882
0.064699896 -0.04029426 0.31631267 0.007816369 -0.1889448 -0.23574056 0.28782704 0.023129676
-0.032298643 0.70349205 0.008506363 -0.25703552 0.31763208 -0.066666596 0.2723009 -0.00025128518
-0.11834527 0.028134294 0.040290788 -0.05482127 0.019917535 -0.31804994 0.20986308 -0.15605494
0.08655691 -0.13827923 0.074350506 -0.11968499 0.14855826 0.27576327 0.31463063 0.28081155
0.28563213 0.20687455 0.4447983 0.2676059 0.38152334 0.0826845 0.19677673 -0.07349695
0.015859623 0.051995046 0.37111664 0.059650175 0.20155141 0.060534127 0.019492187 0.11625137
0.025908427 0.09621274 -0.055076532 0.24719162 0.08332982 0.02874845 -0.0881877 0.09515698
0.08706817 0.009100162 0.05421379 -0.026013227 0.33559805 -0.02467274 0.08330561 -0.07121394
-0.29730088 -0.2671206 -0.17021385 -0.26933312 0.13253208 -0.054032534 0.16754633 0.04879616
-0.20557638 -0.37112287 -0.021228475 0.42040682 0.14640164 -0.0995987 0.050932527 -0.16569902
0.17597868 -0.15910633 0.050325222 -0.008417186 0.10123134 -0.17090096 0.0012953208 0.030044552
0.2714027 0.091299154 -0.23662038 -0.2700944 0.06940697 0.22209303 -0.10529746 0.10101932
-0.04116148 -0.1835487 0.17761832 0.08504992 -0.13304125 -0.44901505 -0.08845723 -0.33702445
-0.35012507 -0.29656744 -0.0066101463 -0.1360201 -0.13807453 -0.34628442 -0.064827874 -0.23256049
0.004181441 -0.38673398 0.0049352376 -0.026222656 -0.17562504 0.04993433 -0.11612577 0.12707292
0.061776813 0.058068458 0.021609314 -0.3322346 -0.09019427 0.07091493 0.2315696 -0.23975469
-0.030223608 -0.082984425 0.17100431 0.021682065 -0.35377952 0.17331488 0.28101197 -0.21970864
0.14788911 -0.017385468 0.054562096 0.117112055 -0.022968154 0.21447857 -0.0033752457 -0.08019315
-0.056451797 0.3015979 -0.123943515 0.08603409 0.019588163 -0.01458256 0.10845086 0.36782572
-0.056970682 -0.34067965 0.15770924 0.036261808 -0.21537709 -0.051054746 -0.13338138 0.21064503
0.11072651 0.46479383 -0.22281983 -0.08181897 0.04652828 0.08029956 0.09174213 0.20570965
-0.052721176 0.10889222 0.23363724 -0.094273135 0.0022569166 -0.029954068 -0.06347779 -0.07809803
0.17462647 0.08039195 0.16748127 -0.13665994 -0.0373519 -0.049553886 -0.11512804 -0.20696995
0.08396864 -0.051536582 -0.09459926 -0.29183093 0.19423386 0.3877818 0.11865143 0.30342367
-0.09596157 -0.10139665 0.043002706 -0.07464911 -0.03173651 0.13702063 0.2476091 0.098201
0.22172408 0.1963778 0.067258105 -0.13173954 0.059641577 -0.035844672 0.048986502 0.026257336
0.09661628 -0.1880261 -0.1374723 0.31507003 -0.016633043 0.008931451 0.021265298 -0.018086502
0.080823064 0.30559853 -0.069194436 -0.08168989 -0.20933199 -0.12659207 -0.220397 -0.05590703

model/hidden_layers/0/b f4 [40]
00000000: 4e9d 8b3d 7531 803d 1565 35bc cfd8 debd
00000010: 961b 213e b956 3a3e 7de7 c8bd e240 883d
00000020: 5100 aabc 16d7 623d a03d 80bd 9081 50bd
00000030: 1e82 7fbd 15cd 0b3d f93e b1bc 41ee 113d
00000040: 32a5 03be e8a2 a2bd 7ded 7f3d 3555 523c
00000050: c595 bbbc 326c 733d 75c6 babd ce33 813d
00000060: 2a13 30bc 099a eabd d101 8c3c c3c6 30bd
00000070: 5be0 fe3c 0322 48bd 5f0f c7bb 2737 943d
00000080: 4af6 7abd 7da1 043e cede d3bd 48ed 5dbc
00000090: 8393 90bd 6077 bebd c715 b43c 2289 2e3d
0.06817113 0.06259433 -0.011071463 -0.10881197 0.1573318 0.18197145 -0.09809778 0.066530004
-0.020752104 0.055380903 -0.06261754 -0.05090481 -0.06237995 0.03413113 -0.021636473 0.035627607
-0.12855986 -0.07941228 0.062482346 0.012837698 -0.022898564 0.059429355 -0.09119884 0.06308709
-0.010746757 -0.11455161 0.01709071 -0.043158304 0.03111284 -0.04886056 -0.0060748304 0.07237082
-0.061270036 0.12952228 -0.10345231 -0.013545342 -0.07059386 -0.09300113 0.02198304 0.04261125

model/hidden_layers/1/W f4 [40, 40]
00000000: e71d 4cbd 7507 893e 58f7 afbe 2b6f 783e
00000010: 33d0 473e 1f40 043e aa2b 003e d1fb 563c
00000020: f56e 5cbe e73b 7b3d 3e86 e53c e22d b8bd
00000030: 07e6 803e 4dd0 b23c 82cb 4fbd 0b54 09be
00000040: adc9 1a3d ee2d 793e 2b98 513d c178 06bd
00000050: b134 9abe 8325 fbbc 323a 85be bee1 f93e
00000060: 7eab e73e e2fe dabb 4f7d 42bc 4763 dfbe
00000070: 5cb2 2a3d 076c 7d3d 9db9 4b3d 9b39 253e
00000080: 7ceb b53e b09f ee3c b695 113e 04a6 a1be
00000090: 9309 133d 7797 70bd be36 9e3e a448 25be
000000a0: f3ba 69bd f3a1 ee3d fc62 94bc ff2b 283d
000000b0: 54fe 26be f415 05bf 6651 263e e982 3a3d
000000c0: d907 7b3e d161 b7be a8ac 673d 5348 17be
000000d0: 8cfe 333e 767b 353d abb5 07be 5a7d e0bd
000000e0: ee5e b03d 547b 953d 7044 24be 4817 a53b
000000f0: 0390 10be 6953 e63c 55b1 0c3e 23c9 18be
00000100: d53e 5a3e 8acd c53d 1aa6 633e 38f8 64be
00000110: f39c 67be afec b73e c8f1 52be 2452 62bd
00000120: 081c 493e 17e9 98be a190 933c bd21 de3d
00000130: abfc a53e 8952 83bb 3a1d 113e 5051 a7be
00000140: 5aec e13d ea14 e3bd 1e0d 0dbe 9a09 863d
00000150: b95b 81be e65b 6abb d425 32be e0c5 823e
00000160: a794 953e 879e 82bd 7b9f 263e 5471 543d
00000170: ae23 6bbe 8541 053c d04a 963c e2ee 88bd
00000180: d531 2bbe 909b 0cbf 1eeb 363d 463a 06be
00000190: df5b a03d 0d36 013f c611 8dbe 0ef2 243d
000001a0: a49d bcbd 469e afbd 3b26 073e 86c0 d23e
000001b0: 7331 86bd e209 d63d 392e 87be 7a6f 30be
000001c0: d929 17bf ed80 b4bc b636 9b3e 3509 74be
000001d0: 80e6 1fbf 4478 c1be 1364 923c d38e ff3e
000001e0: 27b2 583e c530 e13d 6d3b 803c 2ced 143e
000001f0: be93 a9be 6a82 06be ab16 aa3e 4bc3 b93d
00000200: 3d73 0d3e ccb1 85be 25d5 c0bd d98d 9bbd
00000210: 2d03 9b3d b8c6 183d 2702 8cbc 9041 0b3d
00000220: 299a 103d 2c25 f23a 1567 b3bd 888b ba3d
00000230: 19b7 31be 6e1a 62bd b27e d0bc bc71 d1be
00000240: 0ba7 87be f7c8 1b3e e5bf 613e b459 843d
00000250: 80c3 e03d 65e4 9c3e 5a88 443d d5ab d8be
00000260: 7f14 c1bc 6a0d 33bd e8dd 403d 9b05 423e
00000270: 6dc0 3a3e 7520 c13c 8d8d f93d 58c0 a9bd
00000280: c28d 0cbc 5daa fe3e be77 583e 2ddf 4c3d
00000290: e64a 09be 0d2a c93e 0926 c5bd 29a1 abbc
000002a0: e76c 133e 999b 25bc b4e9 0abe 3348 ba3d
000002b0: 9122 753e 8471 fd37 878c 6d3d b270 10be
000002c0: 35a2 04bf d082 e13c 37e5 953e 72b0 7fbe
000002d0: b18c a6be 4603 bebd 46ec aebe b77b 3abe
000002e0: ee4b 893e 1602 fb3d ba5d 1bbf aaa0 e9be
000002f0: 154d 0cbe 55d7 e9bd 0307 173e 978e 95bd
00000300: f748 323e 83f1 22be 8f40 45be 659d 98bd
00000310: 8ec5 f33e 3572 3dbd 904b 7c3e 1b34 12be
00000320: f594 03be c797 49be d7de db3d 10a8 1bbd
00000330: 5558 333e 985b 95be 64db 6bbb f1bd 79be
00000340: dc91 933e 646b c6bd 11da 2fbc 4704 bebd
00000350: d1f8 163d 2969 cdbc e684 91bd a801 f13c
00000360: 33b7 863e 86b4 5d3e db16 61be 800e b53d
00000370: 6066 06be a6c4 233e 56b5 08be 3ae6 ab3d
00000380: aae0 633d 3e30 463e ba67 193e 200f db3c
00000390: b1ed 75be 4aea 1dbe 669f 703d 8403 96be
000003a0: 762f 443d 4f55 63be 19bf 133e ad6f 14be
000003b0: bf64 9e3d 6e93 8b3e fa56 893d aa6b 83be
000003c0: ed4a c33d f61b 1ebe d25e 0c3e 93b7 0dbe
000003d0: 4cbe cb3e 23ea 803d a3dd 2b3d b37f 0f3e
000003e0: 6ae1 8b3e a0b5 f33d 91c9 a7bd c06f 86be
000003f0: b4f5 9cbd b1b7 943e 0655 fdbd 65a7 0a3e
-0.049833205 0.26763502 -0.34368396 0.24261157 0.19513015 0.12915085 0.12516657 0.013121561
-0.21526702 0.061336424 0.028018113 -0.089931265 0.25175497 0.021827841 -0.05073119 -0.13410966
0.03778999 0.24333927 0.05117051 -0.032830004 -0.30118325 -0.030657535 -0.26020962 0.4880504
0.45248026 -0.0066832164 -0.011870696 -0.4363043 0.041674003 0.0618706 0.04973756 0.16135256
0.35531223 0.02912888 0.14217266 -0.31571972 0.035897803 -0.058738198 0.3090114 -0.16140991
-0.057063054 0.11651983 -0.018113606 0.041057583 -0.16307956 -0.5198662 0.16241989 0.045535002
0.24514712 -0.35816815 0.056561142 -0.14773683 0.1757757 0.044307195 -0.13252895 -0.10961409
0.086118564 0.072989136 -0.16041732 0.0050381757 -0.14117436 0.028115945 0.13739522 -0.14920478
0.21313031 0.09658344 0.22231331 -0.22360313 -0.22618465 0.35922763 -0.20600045 -0.055254117
0.196396 -0.29865333 0.0180133 0.10846279 0.32419333 -0.0040076417 0.14171305 -0.32679224
0.110314086 -0.110879734 -0.13774535 0.065448 -0.2526529 -0.0035760342 -0.17397243 0.25541592
0.29214975 -0.06377893 0.16271774 0.05186589 -0.2296283 0.008133297 0.01834622 -0.06686188
-0.16718228 -0.5492487 0.04465782 -0.13108167 0.07830023 0.504731 -0.27552623 0.040269904
-0.09209755 -0.0857511 0.13198178 0.4116251 -0.065524004 0.10451104 -0.26402453 -0.17230025
-0.5904823 -0.022034133 0.3031518 -0.23831637 -0.6246109 -0.37787068 0.017869985 0.49913654
0.2116171 0.1099563 0.015653336 0.14543599 -0.3312053 -0.13135687 0.3322042 0.09070452
0.13813491 -0.2611221 -0.09415654 -0.07595415 0.07568965 0.037298888 -0.01709087 0.033998072
0.03530327 0.0018474213 -0.08759896 0.09108645 -0.17355002 -0.055200987 -0.025451038 -0.40907085
-0.2649463 0.15213381 0.22045858 0.06462422 0.10974789 0.30643 0.047981597 -0.42318597
-0.023569344 -0.043713965 0.047086626 0.18947451 0.18237467 0.023575047 0.12185202 -0.0828864
-0.00857872 0.49739352 0.21139428 0.050017525 -0.13407478 0.39289895 -0.09626395 -0.02095087
0.14397012 -0.010107898 -0.13565713 0.09095802 0.23938967 3.021281e-05 0.057995345 -0.1410549
-0.5181001 0.027528197 0.2927644 -0.24969652 -0.32529214 -0.09277968 -0.34164637 -0.18211256
0.26815742 0.12256257 -0.6068989 -0.4563039 -0.1370128 -0.114180245 0.14748769 -0.073025875
0.17410646 -0.15912442 -0.19262908 -0.074518956 0.4761166 -0.046251494 0.246382 -0.14277689
-0.12849791 -0.19686805 0.10735863 -0.038002074 0.17514165 -0.29171443 -0.0035988921 -0.24388863
0.2882222 -0.09688452 -0.010733143 -0.092781596 0.036858384 -0.025074558 -0.071054265 0.029419735
0.26311645 0.21650895 -0.21981375 0.08840656 -0.1312499 0.15992984 -0.13350424 0.083935216
0.05563418 0.1935434 0.14980975 0.02674061 -0.24016453 -0.15421405 0.058745764 -0.29299557
0.047896825 -0.22200511 0.14428367 -0.14495726 0.077340595 0.27260917 0.067060426 -0.2566808
0.09535775 -0.15440354 0.13708046 -0.1383956 0.39793622 0.06294658 0.041959416 0.14013557
0.27320415 0.118998766 -0.081927426 -0.26257133 -0.07664052 0.29046395 -0.123697326 0.13540418

model/hidden_layers/1/b f4 [40]
00000000: 82df 6e3d 58d4 ccbd 03a3 d13d 4b04 9cbd
00000010: 5f59 813d ecfa 64bd 0509 893d d3ae ab3b
00000020: 862c 77bd b072 d23c f9a9 8dbd b52e 75bd
00000030: 2845 c13d 8004 26bd c7ad c53c 4a52 c5bd
00000040: c9eb 1d3d 5bce 71bc f3c5 fbbc a064 2f3c
00000050: 8e75 bebb 1d56 b5ba e9c3 853d 41dd 29bc
00000060: 3935 b1bc cafa 8fbc e531 1bbd 5efa 443d
00000070: 53fa 573d abd9 b83c 3f27 6cbc 0924 a6bc
00000080: 0998 483b 2ec9 1a3d bab9 b1bb a2e7 e6bb
00000090: a7bd 8fbd 4ae1 353b 0c4a 92bd 9598 063d
0.058318622 -0.10001439 0.1023617 -0.07618006 0.06315874 -0.05590336 0.066911735 0.0052393465
-0.060345195 0.025689453 -0.06917185 -0.059858996 0.09437019 -0.040531635 0.024130715 -0.09634836
0.03855494 -0.014758672 -0.030734038 0.010705143 -0.0058123535 -0.0013834868 0.065315075 -0.010367692
-0.021631824 -0.01757564 -0.03788938 0.04809033 0.052728962 0.02256473 -0.014413654 -0.020280855
0.0030608198 0.037789516 -0.0054237517 -0.0070466558 -0.07018595 0.002775269 -0.071430296 0.032860357

model/output/W f4 [9, 40]
00000000: 6891 9d3e f387 7f3e 18a9 f8be 10c1 09bd
00000010: b3ee 8a3e c5a7 703e 8242 19be 6aa6 5a3b
00000020: 0194 a13d 7593 1c3c da4e 183e 1389 053d
00000030: 96ac a9bd a669 cf3d fcd2 203e fc5f 5b3e
00000040: 2266 6dbd dea7 f83d bc1a bb3d 23ad edbd
00000050: d383 c33d 076c 81be e0f0 883d a1bd 12bc
00000060: daa1 a53c 78e7 fcbd dc99 5bbe cb51 05be
00000070: d4c1 0abe 480b 6fbd ffd4 b4be 3120 333e
00000080: 7d28 423e b9dd d23c cdf4 443e c6e3 bf3e
00000090: 3be0 19bc 0ef7 a5bd 5b1a bd3d 6295 e53c
000000a0: ff9d 07bd 55a4 403e c40b cebe 36e7 213e
000000b0: 1970 8e3e 856b 583e a937 833d ef9d 903d
000000c0: 01cc de3d 412d 6e3d e250 ab3e 4220 ac3d
000000d0: 8444 9ebe 4d51 833d e773 f03d 5c85 a43d
000000e0: c09a 013d b582 893e 017a 93bd 73d7 b8be
000000f0: 3ccf 2ebe 452a 9bbb cb27 4f3d a179 223e
00000100: a2bf bfbc aeb1 3dbd 1bd9 36be 7d87 4ebe
00000110: 40e0 bebd b3df 7abe 0fd7 2bbe 8495 bc3e
00000120: 9e91 083e c537 663d adea 1fbe 9a5c d13e
00000130: ea2e 3cbd 5af7 d8bd c890 2f3e 3543 ae3b
00000140: cb6b b23e 7c22 383d 7ff7 6fbe 663d 923e
00000150: 3752 a33e f105 7e3e 9b2b 43be 1700 89be
00000160: 9d1c 95bc f195 153d 12ae 3d3e 7652 1e3e
00000170: b0e2 553d bece 8f3c 4eeb 2f3e afed 373e
00000180: ca16 42bd 5f7b 4c3e 9d31 ce3d aa00 433e
00000190: ecba 82bd 9902 95bd 9032 503e 9616 983d
000001a0: d369 b1bc fc0c 3fbc a37a a9be 133c 82be
000001b0: b503 2dbd c9b6 553d 5e07 b9be 3c93 6b3e
000001c0: 4144 943e 173b 8cbd 96d5 233e e2fe 7b3e
000001d0: c907 c93d fc10 c2be b773 e03c d21a 463e
000001e0: e925 923e 8a61 473e 4b2c 01be 5aff 6f3e
000001f0: 029c 693e 5c34 1a3d 01c1 bfbd a79f aa3d
00000200: 120e 0f3e e1a4 fd3d c99e 8f3a 7bd6 6e3e
00000210: fb2c 5a3e aeee 9b3e fca5 a3be d789 3b3b
00000220: c922 0fbd b7f2 953e 2c1e 45be f3dc e5be
00000230: 274b 3b3e 1246 91be 345b 99bd 0243 58be
00000240: d5d8 f93c 1665 02bd 736c b2be 9960 493d
00000250: 483a 07bd 07b0 d4bd 6b78 3dbe 5f20 a33e
00000260: feb5 263e 7b9d aabb 30a7 d23e 2e53 df3e
00000270: 69a7 c4bd 694c 0c3e 0c50 573e d841 5e3e
00000280: c4be 153d 6b52 7a3e a0e6 6bbe c1a7 0c3e
00000290: 24d2 a33e 3d7f ea3e 417c 00be e9e9 9cbe
000002a0: 74a5 aa3d e234 fd3d db41 563e 5ab2 713e
000002b0: 07a6 80bd 0164 0e3e 8459 b3bd 107a 113e
000002c0: 3a8f 27be e13a 973e dedf b3bc 66f3 79be
000002d0: 3324 bd3d f78d 3b3c 986d 213d 3348 aa3d
000002e0: 0bd8 53bd a8a9 b3be d5ad bfbd 53e2 973b
000002f0: 2c93 01be cd6e 6c3d 559a 68be c510 0e3e
00000300: f9a0 21bd 4738 05bc 4d6a 0b3c 925f f53e
00000310: 42b4 11be 7614 9cbe 7d7d 5c3d 2bce b3bd
00000320: 4863 003e 4b3b 9d3e d005 07bf cf0a d0bd
00000330: 84f3 b93d 926f bb3d fdb9 97be 411d a1bc
00000340: dbd2 af3e a0cf c03d 2373 403e ca30 1abb
00000350: ce6d 88be 3607 693b bf8c bebd b2b1 eb3c
00000360: 1062 98bd 4d98 a73c fb85 ccbe 670f 1dbf
00000370: 68ae 7bbc 3b3b 44be 50ac b73e 4285 03be
00000380: 664f d13d 1777 0cbf 7dfe d4bc fa0e 0ebe
00000390: 4bb3 45bd d81f b8be e801 50be f006 dcbd
000003a0: 200e 0e3e 4ccb ccbd fe6f 8dbd 759c 7f3e
000003b0: df4b 643e 661d 2abe 62d2 533e cd32 cbbc
000003c0: 7438 b23c 41bf 103f 61ab fbbe 57e3 123e
000003d0: 5bf9 393e 6e97 dabd abe8 f13d 051a 8d3e
000003e0: cffd 79bd 654d 5e3d 481b 433e 1f13 663e
000003f0: 5596 b5be 279e 5a3d da19 913d ed73 b1bd
0.30775 0.24954204 -0.48566508 -0.033631384 0.27135238 0.23501499 -0.14966777 0.003336335
0.07889558 0.009556641 0.1487383 0.032601427 -0.08284871 0.10127573 0.15705484 0.21423334
-0.05795873 0.12141393 0.091359586 -0.11605289 0.09546628 -0.2527773 0.06686568 -0.008956344
0.020218778 -0.12348837 -0.21445411 -0.13019483 -0.13550502 -0.058360368 -0.35318753 0.17492749
0.18960758 0.025740491 0.19234009 0.37478465 -0.00939184 -0.081037626 0.092335425 0.028025333
-0.03310966 0.18812688 -0.4024335 0.15810856 0.278199 0.21134765 0.06407101 0.070613734
0.108787544 0.058148626 0.33460146 0.0840459 -0.30911648 0.06411991 0.117408566 0.08033249
0.03164172 0.26857534 -0.07201005 -0.36101875 -0.17071241 -0.0047352635 0.05057506 0.1586671
-0.023406807 -0.046312027 -0.17856257 -0.20168872 -0.09320116 -0.24499397 -0.16781257 0.3683282
0.13336799 0.05620553 -0.15616865 0.40890962 -0.04594318 -0.105940536 0.17145073 0.0053180703
0.34847865 0.044954762 -0.23434256 0.28562468 0.31898662 0.24806954 -0.19059603 -0.2675788
-0.01820212 0.03651995 0.18523434 0.15461144 0.05221814 0.017554637 0.17179605 0.17961763
-0.047385015 0.19968937 0.10068057 0.19043222 -0.06383309 -0.07275886 0.20331788 0.07426183
-0.021656906 -0.011660811 -0.33101377 -0.25436458 -0.042239863 0.05217627 -0.36138433 0.23005384
0.28958324 -0.06847208 0.15999445 0.24608949 0.09815938 -0.37903583 0.027398927 0.19346169
0.28544548 0.19470802 -0.12614553 0.23437253 0.22813419 0.03764759 -0.093629844 0.083312325
0.13970211 0.12384964 0.0010957356 0.23324005 0.21306221 0.30455536 -0.31962574 0.0028616094
-0.034945283 0.2928674 -0.19249791 -0.44895133 0.18290387 -0.28373772 -0.07488099 -0.21119311
0.030498901 -0.031834684 -0.34848365 0.04916439 -0.033014566 -0.10385137 -0.18502967 0.31860635
0.16280362 -0.0052067614 0.4114318 0.4361815 -0.096022435 0.13701023 0.21026629 0.21704805
0.03655888 0.24445502 -0.23037195 0.13735868 0.31996262 0.458002 -0.12547399 -0.3064721
0.08332339 0.12363602 0.2092356 0.23603192 -0.06281667 0.13905336 -0.08757308 0.1420672
-0.1636323 0.2953711 -0.021957334 -0.24409255 0.0923542 0.011447421 0.039411157 0.08314552
-0.051719707 -0.35090375 -0.09359328 0.0046351342 -0.12653798 0.057722855 -0.22715123 0.13873585
-0.039460156 -0.008131093 0.008509231 0.47924477 -0.14228919 -0.3048436 0.053830612 -0.08779558
0.12537873 0.307093 -0.52743244 -0.101583116 0.0907965 0.0915214 -0.29634085 -0.01966727
0.34340557 0.09414601 0.18793921 -0.0023527616 -0.26646274 0.0035557277 -0.09304189 0.028771255
-0.07440579 0.020458365 -0.3994597 -0.6135163 -0.015361406 -0.1916322 0.35873652 -0.12843803
0.10220222 -0.54869217 -0.026000256 -0.138729 -0.04826669 -0.35961795 -0.20313227 -0.10743511
0.13872576 -0.09999713 -0.069061264 0.24962027 0.22294568 -0.16612777 0.20685723 -0.024804497
0.021755435 0.5654183 -0.4915419 0.14344536 0.18161528 -0.10673414 0.11811956 0.27558914
-0.061033066 0.054273028 0.19053376 0.22468232 -0.35466257 0.053373482 0.07085009 -0.08664689

model/output/b f4 [9]
00000000: 428b 24be 02ec a33c 0d1b 083d 8949 663c
00000010: bcfe 4f3c 2cf6 22bd 07ca 953c 1201 213c
00000020: c62d e43c
-0.16068748 0.020009998 0.033228923 0.014055618 0.012695011 -0.03978555 0.01828481 0.009826915
0.027853858
