python/results/2017_12_22_10_38_44/agent100/target_model.npz (npz, 14887 bytes, 6 tensors)

model/hidden_layers/0/W f4 [40, 40]
00000000: eb56 58be 1652 67be ff3e 0e3d ee3e 4ebe
00000010: 8340 4a3d d6be 233e 1443 963d 5d69 423d
00000020: d49c 813d 73cc 66bb e0ba 89be 973e 983d
00000030: fe32 343e 5f0a 1bbe 74be 923e fa82 83bd
00000040: d5d7 8f3c 673d f03d ecba 7e3e a028 973d
00000050: ba65 abbe de01 aebe dcff a5be 78d0 18be
00000060: 8a84 5a3e c7bd 96bb 931c 143a 8a39 b63e
00000070: ad0a 823d 2d0a 47bd 1393 20be ac04 65bd
00000080: 11ce 843d bd7f 24bd 2703 a23e 6b0b 013c
00000090: 8972 41be f463 71be a15c 933e 98c6 bd3c
000000a0: 8665 00bd f618 343f a2b7 133c 7d4a 83be
000000b0: c0ba a23e 3c9b 88bd 1c6a 8b3e 0675 08b9
000000c0: 7f03 f2bd 3105 e83c eec9 253d 7d0d 60bd
000000d0: b370 a43c cfcd a2be cbee 563e e663 1fbe
000000e0: c1ef b13d 4422 0dbe 0f0e 993d 0199 f4bd
000000f0: 3545 183e fe48 8d3e ff28 a13e c1d5 8f3e
00000100: bd47 923e 52e2 533e 6fbb e33e 4de8 883e
00000110: 474d c33e 0226 a93d 4967 493e 589d 96bd
00000120: 88e4 813c aa07 553d b809 be3e d962 753d
00000130: 7dbd 4e3e 3f02 793d d0a7 a33c 79f7 ee3d
00000140: 86bf d23c fb1b c53d 8d24 62bd a4a8 7c3e
00000150: 5fa2 aa3d 782d ec3c d93e b4bd edd8 c23d
00000160: de23 b23d 855c 143c d5c9 5d3d e864 d5bc
00000170: 3fcf ab3e ab77 cabc 1184 aa3d a426 92bd
00000180: c946 98be 6fd7 88be 938c 2ebe 8303 8abe
00000190: 1789 073e 8106 5ebd 6473 2b3e df81 473d
000001a0: 4688 52be 9002 bebe 3ef3 adbc 5061 d73e
000001b0: 5e28 163e ce99 cbbd a80a 513d fd9e 29be
000001c0: 273a 343e 8eec 22be 2d12 4e3d a405 0bbc
000001d0: a517 cf3d fa2f 2fbe 43b6 8a3a fee6 f43c
000001e0: c631 8b3e 9dc0 ba3d 459f 71be 8429 8abe
000001f0: a4e5 8e3d fff0 633e 9f9f d6bd 6531 cf3d
00000200: 4d78 28bd d5b1 3bbe 6739 363e 5393 ae3d
00000210: e115 08be efd3 e5be 19dc b4bd a573 acbe
00000220: f328 b3be 78be 97be 2580 d0bb 230a 0bbe
00000230: 9523 0dbe f32f b1be b66c 84bd 6609 6ebe
00000240: c94e 893b 5208 c6be e9eb 9d3b dad9 d4bc
00000250: 987c 33be 2af1 4d3d 3457 edbd e14a 023e
00000260: a492 7d3d f058 6e3d f005 b23c c806 aabe
00000270: f659 b8bd 729e 913d 8d60 6d3e d742 75be
00000280: 2605 f4bc 6db7 a9bd d476 2e3e 8348 b03c
00000290: f641 b5be e112 313e 13a0 8f3e 5552 61be
000002a0: ef56 173e 32f1 8fbc 9181 5e3d 108b ef3d
000002b0: fa35 bdbc e182 5b3e 2706 64bb 4da8 a4bd
000002c0: 80e1 67bd 9f58 9a3e dc3b febd aab9 af3d
000002d0: 0562 9e3c af60 73bc bebf dd3d 3a46 bc3e
000002e0: 656e 69bd 6f6b aebe e593 213e dce8 133d
000002f0: 1ef3 5cbe 88af 52bd 91d4 08be c987 573e
00000300: 967b e23d 7ce6 ed3e 7c59 64be 7708 a8bd
00000310: a8db 3d3d e032 a43d 5e7b bb3d f17a 523e
00000320: 3007 58bd 11ed de3d 7bf9 6e3e 8114 c2bd
00000330: 5361 0e3b 7011 f5bc 03d4 81bd 4938 a0bd
00000340: a4b5 323e d781 a43d 6772 2b3e 0ef0 0bbe
00000350: 860d 19bd 89fe 4abd 7dc0 ebbd dcff 53be
00000360: 15bf ab3d 5c76 53bd 4e5a c2bd 8f8c 95be
00000370: 75b1 463e e066 c63e cf9e f23d 7743 9b3e
00000380: ecb7 c4bd 04c6 cfbd 7bbd 2f3d 5f2f 98bd
00000390: b66e 01bd 0568 0c3e fe99 7d3e 6521 c93d
000003a0: 4e04 633e f509 493e ab96 893d ef0e 07be
000003b0: 407b 733d e4b4 13bd 3d10 483d d891 d63c
000003c0: afe9 c23d e1ae 40be 31ce 0cbe 5099 a13e
000003d0: 6202 89bc 5c5a 0c3c 2f14 ab3c b1e2 92bc
000003e0: e7aa a53d bd80 9c3e 7076 8dbd 8459 a7bd
000003f0: 2856 56be bca6 01be 10b5 61be d90b 64bd
-0.21126907 -0.22589907 0.034728047 -0.20141193 0.04937793 0.15990767 0.07337013 0.047463764
0.06328741 -0.0035217076 -0.26900387 0.07433813 0.17597577 -0.15140675 0.2866093 -0.06421466
0.017558971 0.117304616 0.24875993 0.073807955 -0.3347605 -0.339858 -0.32421768 -0.14923275
0.21339622 -0.00460026 0.000565001 0.35590774 0.063496925 -0.04859369 -0.15681104 -0.05591266
0.064846165 -0.040160883 0.3164303 0.007876257 -0.18891348 -0.23573285 0.28781608 0.023165986
-0.03134682 0.7035059 0.009015949 -0.25642768 0.31783104 -0.066702336 0.27229393 -0.00013013565
-0.11817073 0.028322788 0.04047578 -0.054700363 0.02007327 -0.31797644 0.2098953 -0.15565452
0.086883076 -0.13782603 0.074733846 -0.11943246 0.1487015 0.2759475 0.3147659 0.2809277
0.28570357 0.20691803 0.44478938 0.2673973 0.38144895 0.082592025 0.19668306 -0.0735423
0.015856043 0.052009262 0.3711679 0.05990872 0.20189472 0.060793158 0.01997748 0.116682954
0.025726091 0.096244775 -0.05521064 0.24673706 0.08331751 0.028830275 -0.0880105 0.095140316
0.086982474 0.0090552615 0.05414756 -0.026049092 0.33556554 -0.024715265 0.08325971 -0.07136276
-0.29741505 -0.26726863 -0.17045812 -0.26955804 0.1323589 -0.05420542 0.16743237 0.04870784
-0.20559797 -0.3711133 -0.021234151 0.4206643 0.14663836 -0.09941445 0.051035553 -0.16564555
0.17600308 -0.15910551 0.050310303 -0.008485232 0.10111932 -0.17108145 0.0010582883 0.029895302
0.27186412 0.09118769 -0.23595913 -0.269848 0.06977394 0.22259901 -0.10479664 0.10116843
-0.041130353 -0.18329556 0.17795335 0.085241936 -0.13289596 -0.44888255 -0.08831043 -0.3368198
-0.3499218 -0.29637504 -0.0063629323 -0.13578086 -0.13783105 -0.34606895 -0.064660475 -0.23245773
0.0041903 -0.38678223 0.0048193824 -0.025982786 -0.17527997 0.05027882 -0.11588898 0.12723877
0.061907426 0.058190286 0.021731347 -0.332083 -0.09001534 0.07110299 0.23181362 -0.23951279
-0.029787611 -0.08286939 0.17037517 0.021518951 -0.35401887 0.17292358 0.28051814 -0.22004063
0.14779256 -0.017571066 0.054322783 0.11696446 -0.023097027 0.21436645 -0.0034793706 -0.08039913
-0.056611538 0.30145738 -0.12413761 0.085803345 0.019333849 -0.014854594 0.108275875 0.3677233
-0.056990046 -0.3406634 0.15779074 0.036110744 -0.21577117 -0.05143693 -0.13362338 0.21047892
0.110587284 0.46464908 -0.2229976 -0.082047395 0.04635206 0.08017516 0.0915439 0.20554711
-0.05274123 0.108850606 0.23337357 -0.09476567 0.002172549 -0.029915541 -0.06339266 -0.078232355
0.17452103 0.080325775 0.1674286 -0.13665792 -0.037366413 -0.04955915 -0.115113236 -0.20703071
0.083860554 -0.05162655 -0.094898805 -0.292088 0.19403632 0.38750362 0.118466966 0.3032491
-0.09605393 -0.1014519 0.042905312 -0.0743091 -0.031599723 0.13711555 0.24765775 0.098208226
0.22169611 0.19632705 0.06718191 -0.1318929 0.059443712 -0.036061183 0.04884361 0.02619259
0.09517228 -0.18816711 -0.13750531 0.3156228 -0.016724769 0.008566465 0.020883648 -0.01793036
0.08089238 0.3056697 -0.06907356 -0.081713706 -0.20931304 -0.1266126 -0.22041726 -0.05567536

model/hidden_layers/0/b f4 [40]
00000000: ae94 8c3d e45e 813d 716a 38bc 4a4b ddbd
00000010: 1f60 203e 8a07 3a3e 92da c8bd 2ad0 883d
00000020: 16ef a3bc fa58 613d 6209 80bd 0271 52bd
00000030: f267 80bd 960a 0a3d 019e b0bc 83d5 0f3d
00000040: 5589 03be fdec a3bd 1d57 7d3d 2685 543c
00000050: 4224 bbbc 3cc0 763d 6dee babd 4ef0 803d
00000060: 648d 31bc 91e9 e9bd 2e72 913c ec04 2dbd
00000070: 3206 fe3c 303b 47bd 48c4 d4bb a295 933d
00000080: 8b44 80bd 375d 043e 4168 d3bd a617 5bbc
00000090: 7e57 93bd 14d6 bebd 2fe0 b13c e959 323d
0.06864296 0.06316927 -0.011255846 -0.10805376 0.15661667 0.18166938 -0.09807314 0.06680329
-0.020011466 0.055016495 -0.0625179 -0.051377304 -0.06269826 0.0337015 -0.021559717 0.03511573
-0.12845357 -0.08004186 0.061850656 0.012971198 -0.022844438 0.060241923 -0.09127507 0.062958345
-0.010836933 -0.114215024 0.01775464 -0.042241022 0.031008814 -0.04864043 -0.006493125 0.072062746
-0.062630735 0.12926184 -0.10322619 -0.013372337 -0.07194422 -0.09318176 0.021713344 0.043542776

model/hidden_layers/1/W f4 [40, 40]
00000000: f57d 4cbd 2ffd 883e 90f9 afbe f24d 783e
00000010: f7d5 473e cc29 043e 942f 003e 0be0 553c
00000020: 0174 5cbe 3ec3 7a3d 07f9 e53c 754e b8bd
00000030: c2e7 803e 5628 b33c 732d 50bd 334e 09be
00000040: 11cc 1a3d db23 793e d979 513d 1669 06bd
00000050: 9831 9abe 77cf fabc 9f3d 85be 8cd8 f93e
00000060: ac9a e73e de74 dcbb a991 40bc 7c55 dfbe
00000070: 89f5 2a3d 5489 7d3d de76 4b3d 5820 253e
00000080: 30f2 b53e 7951 ee3c 22ac 113e 5fa8 a1be
00000090: 22a6 123d 3a4e 70bd 613b 9e3e 1630 25be
000000a0: 18c0 69bd e398 ef3d 1664 96bc ba4a 243d
000000b0: 0f8b 26be 68f7 04bf 8a8d 263e 07a5 3b3d
000000c0: e130 7a3e fc22 b7be a07f 653d f731 17be
000000d0: 32d4 343e a806 373d d425 08be 38ac dfbd
000000e0: 6df7 ae3d e4fe 963d 4c25 24be f54c aa3b
000000f0: 01d5 10be 9c7c e63c 7050 0c3e 1974 18be
00000100: 33d1 5a3e 28d1 c43d 3b5c 633e 7f99 65be
00000110: ce12 67be 0705 b83e 34a5 52be 8a63 60bd
00000120: 1e00 4a3e 3dbc 98be 5308 913c 61bc dd3d
00000130: 1e55 a63e cd65 7dbb ea5d 113e b3a6 a7be
00000140: 1385 e23d 1eb9 e1bd 04b6 0cbe 7b23 863d
00000150: 6d2d 81be 1339 4fbb f033 32be f6bc 823e
00000160: 0a87 953e 78d0 81bd f136 263e 52cb 533d
00000170: ac41 6bbe 4365 013c 6102 973c 129c 89bd
00000180: 88b6 2bbe 27b7 0cbf ca74 353d cf46 06be
00000190: 3da6 9f3d 8246 013f ba22 8dbe 23b7 263d
000001a0: 48a7 bbbd 7520 b0bd fe96 063e e79b d23e
000001b0: f594 85bd f1e0 d53d e057 87be 0d06 30be
000001c0: 3733 17bf 0f27 b7bc b7f3 9a3e f2ca 73be
000001d0: e1e1 1fbf ef7f c1be 4931 963c c456 ff3e
000001e0: a098 583e 747b e13d ebf1 7f3c bda3 143e
000001f0: ea80 a9be c159 06be bf29 aa3e 6cc5 b93d
00000200: c344 0d3e a6a4 85be 7522 c1bd 5a85 9bbd
00000210: 115a 9b3d fe4b 193d 6510 8dbc 09af 0b3d
00000220: c2d3 0f3d 7dc3 f63a f368 b3bd 2480 ba3d
00000230: 18c9 31be bc09 62bd 887f d1bc 3374 d1be
00000240: e692 87be b2a0 1b3e ff8c 613e 48ea 833d
00000250: 662e e13d ebeb 9c3e 3757 443d 3c9c d8be
00000260: 763f bfbc e049 33bd c67b 403d 0dfd 413e
00000270: 0ef9 3a3e a9fe c13c 4dde f93d 3a26 aabd
00000280: 2f38 0dbc 22a5 fe3e a375 583e 1db1 4c3d
00000290: 234c 09be 5526 c93e e42e c5bd 5894 abbc
000002a0: 7872 133e 0083 26bc 42e4 0abe ae22 ba3d
000002b0: 1214 753e 79df 2a38 5b6a 6d3d 4172 10be
000002c0: 7fa2 04bf 5b8e e13c d3dc 953e 7eb5 7fbe
000002d0: da86 a6be 5ff4 bdbd b6ef aebe 6283 3abe
000002e0: c940 893e 50f3 fa3d d05c 1bbf 1897 e9be
000002f0: 8f47 0cbe 22d6 e9bd 54fc 163e 8ba0 95bd
00000300: 9f3c 323e f4fd 22be c934 45be 59af 98bd
00000310: fabb f33e 314a 3dbd e754 7c3e 6517 12be
00000320: c0b0 03be aa8b 49be 32bf db3d 9e61 1cbd
00000330: 643a 333e 7255 95be 367f 69bb 867e 79be
00000340: 2680 933e a337 c6bd 85fa 2cbc 7bc2 bdbd
00000350: 388e 173d c3bf cbbc bf76 91bd 5571 f13c
00000360: b1c7 863e d3d9 5d3e b9f1 60be a340 b53d
00000370: 7469 06be 77a4 233e 1f90 08be 97b9 ab3d
00000380: 361e 643d a152 463e f046 193e 83cb d93c
00000390: aefe 75be a3db 1dbe 82bd 713d a611 96be
000003a0: c139 443d c013 63be 1bca 133e 368c 14be
000003b0: 0ed4 9e3d 1a90 8b3e 5afc 883d 9e7c 83be
000003c0: 41bf c33d e20c 1ebe fd7c 0c3e 24a9 0dbe
000003d0: 32bc cb3e bbe8 803d 3b40 2b3d ff84 0f3e
000003e0: 3fe4 8b3e e9a6 f33d e9d6 a7bd bc7c 86be
000003f0: 6d24 9dbd 5eab 943e 7012 fdbd 0e81 0a3e
-0.04992481 0.26755664 -0.3437009 0.24248484 0.19515215 0.12906569 0.1251815 0.013053904
-0.21528627 0.061221354 0.028072847 -0.089993395 0.25176817 0.02186982 -0.050824594 -0.13408737
0.03779227 0.24330084 0.051141594 -0.03281506 -0.30115962 -0.030616505 -0.26023576 0.48798025
0.45235193 -0.006727799 -0.011753478 -0.43619907 0.041738067 0.061898544 0.049673907 0.1612562
0.35536337 0.029091584 0.1422582 -0.3157377 0.035802968 -0.058668353 0.30904678 -0.16131625
-0.05706796 0.11699083 -0.018358272 0.040110327 -0.16263984 -0.5194001 0.1626493 0.04581168
0.24432708 -0.35768878 0.056029916 -0.14765154 0.17659071 0.044684082 -0.1329568 -0.1092152
0.085432865 0.07372835 -0.16029853 0.0051971623 -0.14143755 0.02813559 0.1370256 -0.14888038
0.21368866 0.09610206 0.22203152 -0.22421835 -0.22565767 0.35941336 -0.20570832 -0.054782428
0.19726607 -0.29831114 0.017704165 0.10826946 0.32486814 -0.0038665414 0.14195982 -0.3274437
0.11060538 -0.110216364 -0.13741308 0.06549736 -0.2522997 -0.0031619712 -0.17402625 0.2553479
0.2920459 -0.063385904 0.16231896 0.051707573 -0.2297427 0.007897678 0.018433752 -0.06719221
-0.16768849 -0.5496697 0.04430083 -0.13112949 0.07795379 0.5049821 -0.27565557 0.040701997
-0.09162766 -0.08599941 0.13143536 0.4113457 -0.06522552 0.10443295 -0.2643423 -0.17189808
-0.5906252 -0.022357492 0.30264065 -0.23807886 -0.6245404 -0.37792918 0.018334048 0.49870884
0.21151972 0.11009875 0.015621643 0.14515586 -0.33106166 -0.13120176 0.33234975 0.09070858
0.13795762 -0.2610218 -0.094304 -0.07593794 0.07585538 0.037425987 -0.017219732 0.034102473
0.035114057 0.0018826571 -0.08760252 0.09106472 -0.17361867 -0.055185065 -0.025573507 -0.40908965
-0.26479262 0.15198019 0.22026442 0.0644117 0.10995178 0.3064874 0.047934737 -0.42306697
-0.02334569 -0.043771625 0.04699304 0.18944187 0.1825907 0.023681002 0.12200604 -0.083080724
-0.008619352 0.4973536 0.21138625 0.049973596 -0.1340795 0.39287058 -0.09628084 -0.02094476
0.14399135 -0.010163069 -0.13563636 0.09088646 0.23933437 4.0739284e-05 0.057962757 -0.14106084
-0.5181045 0.0275337 0.29270038 -0.24971578 -0.3252476 -0.09275126 -0.3416726 -0.18214181
0.2680724 0.122534394 -0.60688496 -0.45623088 -0.13699172 -0.11417796 0.14744693 -0.07306012
0.17405938 -0.15917188 -0.19258417 -0.0745532 0.47604352 -0.046213333 0.24641763 -0.14266737
-0.12860394 -0.19682184 0.10729827 -0.038179033 0.17502743 -0.29166752 -0.0035628802 -0.24364671
0.28808707 -0.096785806 -0.010557775 -0.0926561 0.037000865 -0.024871713 -0.07102727 0.029472986
0.26324227 0.21665125 -0.2196721 0.08850219 -0.13126165 0.15980707 -0.13336228 0.08385008
0.055692874 0.19367458 0.14968467 0.0265863 -0.24022934 -0.15415816 0.05901862 -0.2931034
0.04790664 -0.22175503 0.14432566 -0.14506611 0.0775529 0.27258378 0.06688757 -0.25681013
0.09557963 -0.15434602 0.13719554 -0.13834053 0.3979202 0.0629439 0.0418093 0.14015578
0.27322575 0.1189707 -0.08195288 -0.2626704 -0.07672963 0.29036993 -0.12357032 0.13525793

model/hidden_layers/1/b f4 [40]
00000000: 560e 6f3d 8724 cbbd 37d7 d23d 4f73 9bbd
00000010: 2361 813d e2a0 65bd 4e22 893d 3c76 b83b
00000020: 1567 78bd fd4e d23c fe07 8dbd 967e 73bd
00000030: 39cd c03d 4ee6 24bd 76ac c63c 942b c5bd
00000040: bc89 1c3d fdfa 73bc a440 f4bc 57b7 333c
00000050: e094 bcbb c443 c6ba 18b1 843d feac 31bc
00000060: ea07 b1bc dddc 8cbc 5aba 1bbd df41 453d
00000070: 6093 563d a5a0 b83c 21ff 68bc 1b44 a7bc
00000080: 9dae 493b 1df5 1c3d 1846 9abb 278e fdbb
00000090: 05d5 8fbd 5501 423b 28eb 91bd 3b61 093d
0.05836328 -0.099190764 0.10294955 -0.07590353 0.063173555 -0.056061633 0.06695996 0.005629329
-0.06064518 0.02567243 -0.0688629 -0.059446894 0.09414143 -0.0402587 0.024252158 -0.096274525
0.03821729 -0.014891383 -0.02981598 0.010969005 -0.005755052 -0.0015126397 0.064790905 -0.010844467
-0.021610219 -0.01719516 -0.038019516 0.048158523 0.05238664 0.022537539 -0.014220984 -0.020418217
0.0030774244 0.038319696 -0.004708063 -0.007737893 -0.07023052 0.0029602845 -0.071249306 0.03353999

model/output/W f4 [9, 40]
00000000: 4fbc 9d3e 9593 7f3e 6fc8 f8be b40d 0bbd
00000010: b326 8b3e 7a70 703e 7dce 18be 4654 413b
00000020: 29b0 a03d b99c 163c 2c5f 183e 1f4a 043d
00000030: 7f1c a9bd 9cd7 cf3d 4142 213e a50d 5b3e
00000040: 980f 6ebd 7c40 f93d 51e3 b93d 4da9 eebd
00000050: b12d c33d ac5c 81be bdcd 893d dee3 18bc
00000060: 095d a93c ced4 fdbd 56f1 5bbe 2cfc 04be
00000070: 2b0a 0bbe 2c08 70bd de05 b5be 4691 333e
00000080: cf9f 423e af9c d63c 6016 453e b707 c03e
00000090: 3265 20bc 31af a6bd 1a7c bc3d 9e9e e33c
000000a0: b3c7 0abd cc4c 403e d6bb cdbe f076 223e
000000b0: 370b 8e3e 2298 583e 83ca 813d 94f2 913d
000000c0: a9d2 df3d ed8a 703d 726f ab3e 34c2 ac3d
000000d0: b47d 9ebe 58c4 823d 0508 ef3d 2d1f a53d
000000e0: c15a 033d 582c 893e 6b50 92bd 6378 b8be
000000f0: ef52 2ebe cae0 98bb 1425 4d3d abef 223e
00000100: f2b7 c4bc 2e37 3bbd 012e 36be b8e2 4ebe
00000110: 96cb bebd ebba 7abe 534e 2bbe 4046 bc3e
00000120: ebef 073e c0b4 633d e12f 20be 6b22 d13e
00000130: 5b3c 39bd 0eaa d7bd 26ea 2f3e f59f b33b
00000140: 667b b23e ff63 373d 8316 70be 693c 923e
00000150: 7e60 a33e 0fe8 7d3e 3718 43be da06 89be
00000160: 97bb 95bc 9d11 153d 696a 3d3e ce3a 1e3e
00000170: 7a66 563d 6449 8f3c 5105 303e 7fe3 373e
00000180: e7c8 41bd 5e8b 4c3e 0123 ce3d 8cd1 423e
00000190: f2f3 82bd e1be 94bd 5a40 503e 0eeb 973d
000001a0: be1b b1bc bdb5 41bc 1685 a9be 7136 82be
000001b0: ccf7 2cbd 74cc 553d 990c b9be a094 6b3e
000001c0: 984c 943e af08 8cbd ccb9 233e 3e24 7c3e
000001d0: d6cc c83d 491c c2be a173 df3c 2320 463e
000001e0: 266a 923e d3d8 473e 45db 01be 14d2 6f3e
000001f0: 6bcf 693e c556 1a3d 1dad bebd 8f9b a93d
00000200: fc98 0e3e ebe8 fd3d 6b3c a23a 582b 6e3e
00000210: e5e1 593e 542a 9c3e d756 a3be 5a75 343b
00000220: 57b0 10bd 6646 963e 162e 46be e705 e6be
00000230: 5e1f 3b3e 9052 91be 7d54 98bd c221 58be
00000240: ca78 fe3c 432e 04bd 81b0 b2be f754 4a3d
00000250: 7d9d 05bd d32b d5bd e527 3ebe 5261 a33e
00000260: e344 273e 626d a0bb 9e11 d33e 4b90 df3e
00000270: e539 c5bd 9299 0b3e fbe1 563e ede6 5d3e
00000280: 942f 173d 27e1 793e 304d 6cbe 9923 0c3e
00000290: 740d a43e 482d ea3e 3e61 00be 690a 9dbe
000002a0: 2ce0 a93d a676 fc3d 70e7 553e 632f 713e
000002b0: e61d 7fbd fac5 0e3e 10de b2bd c318 113e
000002c0: 3d7c 27be b662 973e a8ea b5bc d966 7abe
000002d0: c075 bc3d f9b9 413c 3a02 223d ff83 a93d
000002e0: 03ed 51bd d4d1 b3be 682e c0bd 9052 a73b
000002f0: 543f 02be e415 6d3d a8db 68be 813f 0e3e
00000300: 5ad7 1fbd b164 f8bb 617b 023c e19a f53e
00000310: 2d43 12be ae52 9cbe 8adf 593d ee55 b4bd
00000320: b3ec ff3d efae 9d3e d70a 07bf 0305 cfbd
00000330: 72de b83d a193 bc3d c5ef 97be 6042 a1bc
00000340: 0ce9 af3e 7925 c23d 4f6b 413e 7076 1cbb
00000350: 9ed6 88be c0bc 8e3b a618 bfbd c7f1 eb3c
00000360: a89a 99bd 97d4 a63c deb2 ccbe 54fa 1cbf
00000370: 4ddb 79bc 6596 44be f3c0 b73e d604 03be
00000380: e8fa d03d 2c73 0cbf c02a d4bc 6e8c 0ebe
00000390: 30ee 44bd ee6f b8be 2fc0 50be 95fb dbbd
000003a0: 416b 0e3e 95b3 ccbd 1dd9 8bbd 38fa 7f3e
000003b0: d5a9 643e 4fea 29be 311f 543e 493a cdbc
000003c0: ad79 be3c fc88 103f c945 fcbe 4291 113e
000003d0: ae53 3b3e 11e9 dcbd ac41 f43d 4bd0 8c3e
000003e0: 88c1 7dbd fa92 5b3d a161 423e 8eaf 643e
000003f0: 1428 b5be b51a 5a3d 76d6 933d f4d3 b2bd
0.3080773 0.24958642 -0.4859042 -0.033948615 0.27177963 0.23480406 -0.14922519 0.0029499694
0.078461 0.009192639 0.14880055 0.03229725 -0.08257388 0.10148546 0.1574793 0.21391924
-0.05812034 0.121705025 0.0907656 -0.11653385 0.09530199 -0.25266016 0.067286946 -0.0093316715
0.020674245 -0.12394105 -0.21478781 -0.12986821 -0.13578098 -0.058601543 -0.3535604 0.17535886
0.19006275 0.02619776 0.19246817 0.37505886 -0.009789752 -0.08138884 0.09203358 0.027785596
-0.033881854 0.18779296 -0.4018237 0.15865684 0.2774293 0.21151784 0.06337454 0.07126346
0.10928852 0.05872624 0.33483464 0.08435479 -0.3095528 0.06385106 0.116714515 0.08062587
0.03206897 0.26791644 -0.07144245 -0.36029348 -0.17023824 -0.004665469 0.05008419 0.15911739
-0.024013493 -0.04570692 -0.17790987 -0.20203674 -0.09316175 -0.24485366 -0.16729097 0.36772346
0.13275115 0.0555923 -0.15643264 0.4084657 -0.045223575 -0.10530482 0.17179164 0.005481715
0.3485977 0.044773098 -0.23446088 0.28561714 0.31909555 0.24795555 -0.19052206 -0.2676304
-0.018277926 0.03639375 0.18497624 0.1545212 0.052343823 0.01749105 0.17189528 0.17957877
-0.047310736 0.1997504 0.1006527 0.19025248 -0.06394185 -0.0726297 0.20337048 0.0741788
-0.021619674 -0.011823115 -0.3310935 -0.2543216 -0.042228505 0.052196935 -0.36142424 0.23005915
0.28964686 -0.06837594 0.15988845 0.246232 0.09804694 -0.37912205 0.027276816 0.19348197
0.2859661 0.19516306 -0.12681301 0.23419982 0.2283303 0.037680406 -0.093103625 0.082816236
0.13925546 0.12397941 0.0012377625 0.23258722 0.21277578 0.30501044 -0.3190219 0.0027535767
-0.03532442 0.29350585 -0.19353518 -0.44926378 0.18273684 -0.28383303 -0.0743799 -0.21106628
0.031063456 -0.03227068 -0.34900287 0.049397435 -0.032620896 -0.104087494 -0.18569906 0.31910187
0.16334872 -0.004895852 0.41224378 0.43664774 -0.09630183 0.13632801 0.20984642 0.21670122
0.03691061 0.24402295 -0.2307632 0.13685454 0.32041514 0.45737672 -0.12537095 -0.30672005
0.082947105 0.12327318 0.20889068 0.23553233 -0.062284373 0.1394271 -0.08733761 0.14169602
-0.16355987 0.29567498 -0.02220662 -0.24453296 0.092021465 0.0118241245 0.039552905 0.082771294
-0.051251423 -0.35121024 -0.09383851 0.0051062778 -0.1271947 0.057882205 -0.22740042 0.13891412
-0.039023735 -0.0075803627 0.007963986 0.47969726 -0.14283438 -0.3053183 0.0531917 -0.08805452
0.12496319 0.30797526 -0.52750915 -0.10108378 0.09026803 0.092078455 -0.29675117 -0.01968497
0.34357488 0.094798036 0.18888591 -0.0023874305 -0.2672624 0.004355997 -0.09330873 0.028801812
-0.075002015 0.020365043 -0.39980215 -0.6131947 -0.015250039 -0.19197996 0.35889396 -0.12794814
0.102041066 -0.5486324 -0.025899291 -0.13920757 -0.048078716 -0.36022896 -0.20385812 -0.10741345
0.13908102 -0.0999519 -0.068285204 0.24997795 0.22330411 -0.16593288 0.20715024 -0.025052207
0.023251379 0.5645902 -0.49271992 0.14215568 0.1829364 -0.107866414 0.119265884 0.27502665
-0.061952144 0.053606965 0.18982555 0.22332594 -0.3538214 0.053248126 0.072186396 -0.08731833

model/output/b f4 [9]
00000000: 51f5 23be 459c 9d3c 8dcf 083d a7a9 6f3c
00000010: d6a0 533c e9fa 24bd 773f a33c c072 283c
00000020: 82d9 e53c
-0.1601155 0.019239554 0.03340106 0.014627851 0.012916764 -0.04027835 0.019927723 0.010281265
0.028057817
