python/results/2017_12_22_10_38_44/agent300/model.npz (npz, 14911 bytes, 6 tensors)

model/hidden_layers/0/W f4 [40, 40]
0	0xbdd02895	-0.101639904
1	0xbe65d47c	-0.22444338
2	0x3e06d5f0	0.13167548
3	0xbe8f6137	-0.28003857
4	0x3d80b9a9	0.06285412
5	0x3df12949	0.11775453
6	0x3d7e6de9	0.062116537
7	0x3d7a97fe	0.061180107
8	0x3dd135eb	0.10215362
9	0x3d73a576	0.059483968
10	0xbe804328	-0.25051236
11	0x3dc79974	0.09746066
12	0x3e48d15f	0.19611119
13	0xbe17ce6b	-0.14824836
14	0x3e9e9fb7	0.30981228
15	0xbcc48150	-0.023987442
16	0xbc59baa8	-0.013289131
17	0x3def3c71	0.1168145
18	0x3e7cdcb3	0.24693565
19	0x3db136f6	0.08653061
20	0xbeac52ae	-0.3365683
21	0xbeb643a9	-0.35598496
22	0xbe98edc0	-0.2986889
23	0xbe2c89f6	-0.16849503
24	0x3e5533d8	0.20820558
25	0xbce39af0	-0.02778384
26	0x3bc51005	0.0060138726
27	0x3e922a2b	0.28547797
28	0x3d22bc79	0.039730523
29	0xbd9901ff	-0.07471084
30	0xbe4802c7	-0.1953231
31	0xbda5f0bc	-0.08102557
32	0x3d7d772a	0.06188122
33	0xbd41789e	-0.04723417
34	0x3ea76ad1	0.32698682
35	0x3cac70c8	0.021049872
36	0xbe42f28c	-0.19037837
37	0xbe495873	-0.19662647
38	0x3ea4c9f9	0.32185343
39	0x3db54c80	0.08852482
40	0xbd446d2b	-0.047955673
41	0x3f525c71	0.82172304
42	0x3e8ef06e	0.27917808
43	0xbe71ea6f	-0.23624586
44	0x3e9222f7	0.285423
45	0x3c9ba506	0.018999588
46	0x3ea15fc4	0.31518376
47	0x3d90bf75	0.070677675
48	0xbde11c53	-0.109917305
49	0xbc3a6265	-0.011375998
50	0xbcd8624a	-0.026414055
51	0xbdd5bfe6	-0.10436992
52	0xbce3c6b8	-0.027804717
53	0xbeb39f43	-0.35082445
54	0x3e090053	0.1337903
55	0xbe89be8f	-0.26903197
56	0x3ccc18b9	0.024914132
57	0xbe2b6cf2	-0.16740778
58	0x3d65d2a6	0.056109093
59	0xbe3350a9	-0.17511238
60	0x3e55f10f	0.20892738
61	0x3ea8aef9	0.32945994
62	0x3ec29e8f	0.38011596
63	0x3eb81ee9	0.35961083
64	0x3ebcc526	0.36869162
65	0x3e9974bc	0.29971874
66	0x3f0a07e1	0.5391827
67	0x3eba111d	0.3634118
68	0x3ee50d77	0.44736835
69	0x3e169e13	0.14708738
70	0x3e825747	0.25457212
71	0xbc2d1f1e	-0.010566501
72	0x3d65740c	0.056018874
73	0x3d942b6e	0.07234846
74	0x3ec33453	0.38125858
75	0x3d2abf1e	0.04168617
76	0x3e880bd2	0.26571518
77	0x3e01f61f	0.12691544
78	0x3d8dbd9d	0.069209315
79	0x3e0f1d0b	0.13975923
80	0xbd260922	-0.040536053
81	0x3da79019	0.08181781
82	0xbe5b03d7	-0.21388184
83	0x3e97c1db	0.29640087
84	0x3d900080	0.07031345
85	0x3c5a2a22	0.013315709
86	0xbda7082a	-0.08155854
87	0x3d61c1d1	0.05511648
88	0x3d8eeda6	0.069789216
89	0x3c618147	0.013763732
90	0x3d0c7c1b	0.034298044
91	0xbd23f9c4	-0.040033117
92	0x3ea26c0f	0.31723067
93	0xbd18bd92	-0.037290163
94	0x3da52720	0.08064103
95	0xbda98403	-0.08277132
96	0xbe9c1e15	-0.304917
97	0xbe9613a3	-0.29311857
98	0xbe1db33a	-0.15400401
99	0xbe8de8c1	-0.2771664
100	0x3db5a36d	0.088690616
101	0xbe018d80	-0.12651634
102	0x3e0a5e50	0.1351254
103	0x3ccd5026	0.025062632
104	0xbe3dcba5	-0.18534715
105	0xbebbb0c9	-0.36658314
106	0xbbb4cc00	-0.0055174828
107	0x3edb4e42	0.42833143
108	0x3e16e278	0.14734828
109	0xbda5a21d	-0.08087561
110	0x3d930686	0.071789786
111	0xbe1c0dcd	-0.1523964
112	0x3e43fd36	0.19139561
113	0xbe16a8c0	-0.1471281
114	0x3d4af11e	0.049546354
115	0xbc8d7388	-0.017267004
116	0x3dd38241	0.10327578
117	0xbe11a320	-0.14222383
118	0x3c0a3d3f	0.008437454
119	0x3cbdea77	0.02318309
120	0x3e33a9b1	0.17545201
121	0x3db88268	0.09009248
122	0xbd5710db	-0.05250631
123	0xbe8d53de	-0.27603048
124	0xbc2e9275	-0.010655035
125	0x3e37db73	0.17954807
126	0xbd70cd2a	-0.05878941
127	0x3e3f634c	0.18690223
128	0x3d232046	0.0398257
129	0xbe15cdb8	-0.14629257
130	0x3e2234af	0.1584041
131	0x3dab1c97	0.083550625
132	0xbe118bf9	-0.14213552
133	0xbeee3c8c	-0.4653057
134	0xbdea6003	-0.11444094
135	0xbeb3d01e	-0.35119718
136	0xbec097dc	-0.3761586
137	0xbe9d87a9	-0.30767563
138	0xbcbc7acd	-0.023007775
139	0xbde12895	-0.109940685
140	0xbe0c56c7	-0.13704978
141	0xbec0a548	-0.376261
142	0xbe07c46e	-0.13258526
143	0xbe75b9b1	-0.23996617
144	0xbcdc5c91	-0.026899608
145	0xbec6b958	-0.3881328
146	0x3d203f6b	0.03912298
147	0xbbbb66e7	-0.005719054
148	0xbe01ba6b	-0.12668769
149	0x3d98a096	0.07452504
150	0xbdfa54dd	-0.12223218
151	0x3e123f30	0.14281917
152	0x3d8f6b82	0.07002927
153	0x3d5e4852	0.05426819
154	0x3cf04c2b	0.029333195
155	0xbea5a4d8	-0.32352328
156	0xbdc90307	-0.098150305
157	0x3d70ef2c	0.058821842
158	0x3e71598a	0.23569313
159	0xbe4cc07b	-0.199953
160	0xbdddbdb4	-0.108271986
161	0xbe0dab5e	-0.13834903
162	0x3ced5174	0.028969504
163	0x3d28cc6d	0.04121058
164	0xbe8c85fb	-0.2744597
165	0x3e5ab170	0.2135675
166	0x3e875741	0.26433757
167	0xbe7fa18f	-0.24963973
168	0x3dcbae8b	0.09945401
169	0xbd30abb0	-0.043132484
170	0x3d903731	0.07041777
171	0x3e065201	0.1311722
172	0xbb0c2af2	-0.0021387902
173	0x3e756278	0.23963344
174	0x3cad5936	0.021160703
175	0xbd3b4b75	-0.04572626
176	0x3c9d61da	0.019211698
177	0x3eb190e1	0.34680846
178	0xbd68d9ae	-0.05684822
179	0x3e170a6d	0.14750071
180	0x3d8197a6	0.06327753
181	0xbb212af3	-0.002459225
182	0x3dfca8d3	0.12336888
183	0x3eb36812	0.35040337
184	0xbd8b2532	-0.06794204
185	0xbea086a1	-0.31352714
186	0x3e1e3cd0	0.15452886
187	0x3d50c7f7	0.05097195
188	0xbe3db2e9	-0.1852528
189	0xbd023bcd	-0.03179531
190	0xbdece107	-0.11566358
191	0x3e55d402	0.20881656
192	0x3debd074	0.11514369
193	0x3ef36e26	0.47544974
194	0xbe544183	-0.20728116
195	0xbd7ce9ab	-0.06174628
196	0x3d574ca1	0.052563313
197	0x3dab2c56	0.08358066
198	0x3dde9dc4	0.10869935
199	0x3e4f9d34	0.20274812
200	0xbd6794c4	-0.05653836
201	0x3dfcc1a2	0.1234162
202	0xbe612ced	-0.21989794
203	0xbdfab920	-0.12242341
204	0x3dca132c	0.09866938
205	0xbdd9a0fd	-0.10626409
206	0xbe05357e	-0.13008687
207	0xbe55b867	-0.20871125
208	0x3daf972f	0.08573758
209	0x3e0bf3a5	0.13667162
210	0x3e3d3362	0.18476632
211	0xbdeb8f38	-0.11501926
212	0xbcc72085	-0.024307499
213	0xbd805123	-0.062654756
214	0xbdc1d6c0	-0.094647884
215	0xbe1f66a3	-0.15566497
216	0x3e0d676d	0.13808985
217	0xbda88207	-0.08227926
218	0xbd5d3401	-0.054004673
219	0xbe84f550	-0.2596841
220	0x3e85d7ef	0.26141307
221	0x3ee9e602	0.45683295
222	0x3e762e16	0.24041018
223	0x3ea4627f	0.32106397
224	0xbd823aa8	-0.06358844
225	0xbdf003f6	-0.117195055
226	0x3d81dd9c	0.06341097
227	0xbdde4a17	-0.10853975
228	0xb9fb2ac2	-0.00047906308
229	0x3e38c267	0.18042909
230	0x3e8d5754	0.2760569
231	0x3df53178	0.11972326
232	0x3e847a82	0.25874716
233	0x3e723548	0.23653138
234	0x3de47494	0.11155048
235	0xbdf97820	-0.12181115
236	0x3cceca42	0.025242928
237	0xbd2e31ef	-0.04252809
238	0xbcb333e2	-0.021875326
239	0x3d591329	0.05299679
240	0x3d3db924	0.046319142
241	0xbe22d7d9	-0.15902652
242	0xbd802a17	-0.06258028
243	0x3f0d9a59	0.5531364
244	0xbd2460de	-0.040131442
245	0xbc0da120	-0.008644372
246	0x3c3074a9	0.010770001
247	0xbd2087b7	-0.039191928
248	0x3d8e2da3	0.06942298
249	0x3e859f67	0.26098177
250	0xbdcdef64	-0.10055426
251	0xbd8ce233	-0.068790816
252	0xbe51cad7	-0.20487534
253	0xbde05e77	-0.10955518
254	0xbe580290	-0.21094728
255	0xbdc0f03f	-0.09420823

model/hidden_layers/0/b f4 [40]
0	0x3e2bd649	0.16780962
1	0xbcd91e3e	-0.026503678
2	0x3d198cfb	0.037487965
3	0xbe36e788	-0.1786176
4	0x3e9156a4	0.28386414
5	0x3ecba155	0.39771524
6	0xbe85ba42	-0.26118666
7	0x3e589a21	0.21152546
8	0xbe40702c	-0.1879279
9	0x3e5d8473	0.21632557
10	0x3c982a6b	0.018574914
11	0xbd0cd1f8	-0.03437993
12	0xbe15214c	-0.14563483
13	0x3dd725fc	0.10505292
14	0x3b866bb1	0.0041021933
15	0x3d4c1800	0.049827576
16	0xbe6f1ca7	-0.23350774
17	0xbe8b1944	-0.27167714
18	0x3e57cab6	0.21073422
19	0x3d5166b5	0.05112334
20	0x3d966b32	0.07344665
21	0x3e435389	0.19074835
22	0xbe048d37	-0.12944494
23	0x3de7ccbb	0.11318346
24	0x3ccfe845	0.02537931
25	0xbe81cdf8	-0.25352454
26	0xbe26a660	-0.16274405
27	0xbcb5cc2b	-0.022192081
28	0x3d4934fd	0.0491228
29	0xbdafb60f	-0.08579647
30	0x3d949856	0.07255618
31	0x3e449bdd	0.19200082
32	0xbe0ef92e	-0.13962242
33	0x3eb9a470	0.36258268
34	0xbe81971d	-0.25310603
35	0x3d8c438b	0.0684882
36	0xbe3f1f99	-0.18664397
37	0xbe3a337f	-0.18183707
38	0x3d52cc12	0.051464148
39	0x3e0bfd43	0.1367083

model/hidden_layers/1/W f4 [40, 40]
0	0xbc128f3f	-0.008945285
1	0x3ea3c489	0.31985882
2	0xbeadbfe4	-0.33935463
3	0x3e3ed4e1	0.18635894
4	0x3e526400	0.2054596
5	0x3e1c464a	0.15261188
6	0x3e123e5c	0.142816
7	0x3c679702	0.014135124
8	0xbe73a6c6	-0.23794088
9	0x3d9e692c	0.07734904
10	0x3c7c22ce	0.015389157
11	0xbdaf6882	-0.08564855
12	0x3e9c315f	0.30506417
13	0x3d1ef403	0.038806926
14	0xbd5b7383	-0.053576957
15	0xbe063ec6	-0.13109884
16	0x3d64d810	0.055870116
17	0x3e89627f	0.2683296
18	0x3d8e0f8c	0.06936559
19	0xbc575494	-0.013142724
20	0xbea52eed	-0.32262364
21	0xbd04623f	-0.032320257
22	0xbe8b5340	-0.27211952
23	0x3f04b57c	0.51839423
24	0x3f005a81	0.501381
25	0x3ba8584c	0.005137479
26	0xbcc54446	-0.024080407
27	0xbefce37e	-0.49392313
28	0x3d53650a	0.05161003
29	0x3d5a1af8	0.053248376
30	0x3db52f6f	0.08846938
31	0x3e3e0cec	0.18559617
32	0x3ec4c5fd	0.38432303
33	0x3ce311d4	0.027718462
34	0x3e012c75	0.12614615
35	0xbe9cef30	-0.30651236
36	0x3dcec6e1	0.10096527
37	0xbd835fc9	-0.06414754
38	0x3e963512	0.29337364
39	0xbe482602	-0.19545749
40	0x3cfb1030	0.030647367
41	0x3dd2c014	0.10290542
42	0xbd578b6f	-0.05262321
43	0xbc1b61f6	-0.009483805
44	0xbdfa7895	-0.122300304
45	0xbf0eb5b9	-0.55746037
46	0x3e23d86c	0.16000527
47	0xbb10e9ce	-0.0022112015
48	0x3ea48a97	0.32136986
49	0xbeb8e601	-0.3611298
50	0xbd31fe26	-0.043455265
51	0xbe576135	-0.21033175
52	0x3e4f4674	0.2024172
53	0x3d0d4de1	0.0344981
54	0xbe01a245	-0.12659557
55	0xbe184366	-0.1486946
56	0x3e1d4166	0.15356979
57	0x3e1f5618	0.15560186
58	0xbe4db704	-0.20089346
59	0x3d41773b	0.047232848
60	0xbe36ccbc	-0.17851537
61	0xbc2d65b0	-0.010583326
62	0x3e146caa	0.14494577
63	0xbd9c5b87	-0.07634645
64	0x3e39a0c3	0.18127732
65	0x3e0b3fda	0.13598576
66	0x3e91bf1e	0.28466123
67	0xbe2796a3	-0.16366057
68	0xbe50019d	-0.20313115
69	0x3ec67021	0.38757423
70	0xbe76fe4f	-0.24120449
71	0xbd59b47f	-0.05315065
72	0x3e933a0b	0.2875522
73	0xbec92014	-0.39282286
74	0x3c334efe	0.010944126
75	0x3e09c381	0.13453485
76	0x3e82cd21	0.25547126
77	0xbd08a34c	-0.033358857
78	0x3da4cd4f	0.08046972
79	0xbe8d2a9f	-0.2757158
80	0x3e003d3c	0.12523359
81	0xbe6991c9	-0.22809519
82	0xbe08303c	-0.1329965
83	0x3df36fbd	0.11886547
84	0xbe977d71	-0.29587892
85	0xbc6e6069	-0.014549353
86	0xbe659478	-0.22419918
87	0x3ecf4973	0.40485725
88	0x3e9d9b3c	0.30782497
89	0xbdb2d42d	-0.087318756
90	0x3e3d9842	0.18515113
91	0x3da28b18	0.07936686
92	0xbe9110fc	-0.2833327
93	0x3cdbdc42	0.026838426
94	0x3d4689af	0.04847115
95	0xbd833733	-0.06407013
96	0xbe32576c	-0.17416161
97	0xbf16a92a	-0.58851874
98	0x3d3bd437	0.04585668
99	0xbe0c4d2f	-0.13701318
100	0x3deb7962	0.11497761
101	0x3f160c65	0.5861266
102	0xbe7898b1	-0.24276997
103	0x3ca15a8c	0.019696496
104	0xbe1e22b9	-0.15442933
105	0xbd83a3fd	-0.06427763
106	0x3e0d2887	0.13784991
107	0x3ef8ff40	0.4863224
108	0xbe1b6119	-0.15173759
109	0x3d272324	0.040804997
110	0xbe9623d4	-0.2932421
111	0xbe3cbf6e	-0.184324
112	0xbf59df75	-0.85106593
113	0x3c0bf984	0.008543376
114	0x3e9f8a84	0.31160367
115	0xbea284db	-0.31741986
116	0xbf375d5c	-0.7162683
117	0xbefe6141	-0.49683574
118	0x3c84cab8	0.016209945
119	0x3f20b5e5	0.6277755
120	0x3e3a257e	0.18178365
121	0x3e0377f0	0.12838721
122	0xbc8c7551	-0.017145785
123	0x3e1f82b2	0.155772
124	0xbea66c41	-0.32504466
125	0xbe407fb1	-0.1879871
126	0x3ebdaa35	0.3704392
127	0x3da16075	0.07879726
128	0x3e219629	0.15779938
129	0xbeb0e0aa	-0.34546405
130	0xbe419ef1	-0.18908288
131	0xbdd1879a	-0.10230942
132	0x3dcdb393	0.10044017
133	0xbb3c1613	-0.002869968
134	0xbd514479	-0.05109069
135	0x3c54dc64	0.012991998
136	0x3d4d40ce	0.05011063
137	0x3d091946	0.03347137
138	0xbe133719	-0.14376487
139	0x3d902304	0.07037929
140	0xbe1d40a0	-0.15356684
141	0xbdcc18fc	-0.09965703
142	0xbd5cdcec	-0.053921625
143	0xbec6461e	-0.3872537
144	0xbe7eea4f	-0.24894069
145	0x3e20903b	0.1568002
146	0x3e79424f	0.24341701
147	0x3dcf1bce	0.10112725
148	0x3dee2a42	0.11629154
149	0x3e888f5c	0.26671875
150	0x3d6a735d	0.057238925
151	0xbec50b52	-0.384852
152	0xbd0fd657	-0.03511652
153	0xbe02748d	-0.12739773
154	0x3dee5ca9	0.11638767
155	0x3e186d5a	0.14885464
156	0x3e192f52	0.14959458
157	0x3ccf13a4	0.02527792
158	0x3ddb139c	0.106970996
159	0xbce4fead	-0.02795347
160	0xbd31ef5e	-0.04344117
161	0x3f1dd517	0.61653274
162	0x3e5d3f0b	0.2160608
163	0x3cf8ffe5	0.030395458
164	0xbe078262	-0.13233331
165	0x3ee310a1	0.44348624
166	0xbd72568b	-0.059164565
167	0xbc93ec8d	-0.018057132
168	0x3e095088	0.13409626
169	0x3c5e5039	0.013568931
170	0xbe1a3b87	-0.1506177
171	0x3deedf0f	0.11663639
172	0x3e8c664b	0.27421793
173	0x3c7f2ab3	0.015574145
174	0x3d5a4348	0.05328682
175	0xbdedff40	-0.11620951
176	0xbf054854	-0.5206349
177	0x3d0a6173	0.03378434
178	0x3ea8f72c	0.33001077
179	0xbe89b7b8	-0.2689798
180	0xbeb70209	-0.3574374
181	0xbe1c2424	-0.15248162
182	0xbeb981dd	-0.3623189
183	0xbe5b4bc3	-0.2141562
184	0x3ec15a06	0.37763995
185	0x3de6cc04	0.11269382
186	0xbf1ffd5a	-0.6249596
187	0xbf0eae0c	-0.55734324
188	0xbe03a9e9	-0.12857784
189	0xbe0a735e	-0.13520572
190	0x3e33d5e2	0.17562059
191	0xbcd964c7	-0.026537312
192	0x3e58903f	0.21148776
193	0xbe22a9e9	-0.15885128
194	0xbe5e2c6b	-0.21696632
195	0xbde0de8a	-0.10979946
196	0x3f1f0afc	0.62126136
197	0xbd8c4fd6	-0.06851165
198	0x3e785b00	0.24253464
199	0xbe7f13cc	-0.24909896
200	0xbe2b0e00	-0.1670456
201	0xbe672f4d	-0.22576638
202	0x3de12b95	0.10994641
203	0x3c3c229c	0.011482861
204	0x3e3ff2a8	0.1874491
205	0xbea01533	-0.31266174
206	0x3db79574	0.08964053
207	0xbe9116dd	-0.28337756
208	0x3eaaca42	0.33357435
209	0xbe25d174	-0.16193181
210	0xbe0e8514	-0.13917953
211	0xbdf4fc4c	-0.11962184
212	0x3d7bbd18	0.06145963
213	0xbd75c080	-0.059998035
214	0xbdf7d5d0	-0.121013284
215	0x3c70f029	0.014705696
216	0x3e997f8b	0.2998012
217	0x3e8d2b5f	0.27572152
218	0xbe744cc2	-0.23857406
219	0x3d4ae99c	0.049539194
220	0xbd9a5fdd	-0.07537816
221	0x3dc8612f	0.09784161
222	0xbe258005	-0.16162117
223	0x3db673b4	0.08908787
224	0x3d83e584	0.06440261
225	0x3e38023f	0.17969607
226	0x3e311690	0.17293763
227	0x3d53a6d5	0.051672775
228	0xbe3b962a	-0.18319002
229	0xbe0b7ffd	-0.13623042
230	0x3cad5984	0.021160848
231	0xbe482448	-0.1954509
232	0x3d1aaa22	0.037759908
233	0xbea0fda7	-0.3144352
234	0x3e54fa9f	0.2079873
235	0xbe2416fa	-0.1602439
236	0x3d1e355c	0.038625106
237	0x3e8304db	0.25589642
238	0x3d8b63b0	0.06806123
239	0xbe3ed59d	-0.18636174
240	0x3ddf96f8	0.10917467
241	0xbe27fc3b	-0.16404812
242	0x3e16ed88	0.14739048
243	0xbe341c95	-0.17589028
244	0x3ee1a214	0.44068968
245	0x3dacd6d7	0.08439415
246	0x3c91caa9	0.017796831
247	0x3e249410	0.16072106
248	0x3e62cca1	0.22148372
249	0x3e1db5e1	0.15401413
250	0xbd809204	-0.0627785
251	0xbe814b99	-0.2525299
252	0xbd2de3a6	-0.04245343
253	0x3ea7a9b2	0.32746655
254	0xbde1524f	-0.11002027
255	0x3e0810ec	0.13287705

model/hidden_layers/1/b f4 [40]
0	0x3d359f08	0.044341117
1	0xbe4bbb59	-0.19895686
2	0x3dde0386	0.10840516
3	0xbdfbad81	-0.122889526
4	0x3d89831e	0.06714462
5	0xbe13e72e	-0.14443657
6	0x3d9f5ae7	0.0778101
7	0xbc81f70f	-0.015864877
8	0xbdca3fb3	-0.09875431
9	0xbcca943c	-0.024728887
10	0xbdb5182e	-0.088425025
11	0xbdd8db08	-0.10588652
12	0x3e2016ab	0.15633647
13	0xbdce378e	-0.1006919
14	0x3cf00d8a	0.02930333
15	0xbdea5c4d	-0.11443386
16	0x3de0099b	0.10939332
17	0xbc37794f	-0.011198356
18	0xbd874c49	-0.06606347
19	0x3d08cd80	0.033399105
20	0xbc1ee37e	-0.009697793
21	0x3d618323	0.055056702
22	0x3d949ffc	0.07257077
23	0xbae4bea0	-0.001745183
24	0xbcfb643c	-0.030687444
25	0x3ca2fc0d	0.019895578
26	0x3a7c05b2	0.0009613886
27	0x3dbd8dbc	0.09255549
28	0x3d404533	0.046940994
29	0x3dc8967a	0.09794326
30	0x3c6d16bf	0.014470755
31	0xbce7577f	-0.028239964
32	0xbc9e7620	-0.019343436
33	0x3d69e6bd	0.057104815
34	0x3bc8fb7d	0.0061334954
35	0xbd93943b	-0.07206007
36	0xbdca4570	-0.098765254
37	0xba36a2b9	-0.00069669966
38	0xbde6b90e	-0.11265765
39	0xbbd2627f	-0.006420433

model/output/W f4 [9, 40]
0	0x3eb483ac	0.35256708
1	0x3ec3c365	0.38235012
2	0xbf19d5b6	-0.6009172
3	0x3db9c6b1	0.090711005
4	0x3e88d502	0.26725012
5	0x3ea4a347	0.3215582
6	0xbe1dfbca	-0.15428081
7	0xbbfd7e49	-0.0077360016
8	0x3e2e1f2b	0.17004077
9	0x3d9feda6	0.07809
10	0x3e8ccbf2	0.27499348
11	0x3da80bb9	0.08205361
12	0xbe3909dc	-0.18070167
13	0x3e1dd5c1	0.15413572
14	0x3e2d3362	0.16914132
15	0x3e38dd24	0.18053108
16	0xbdd31e12	-0.1030847
17	0x3e49fd84	0.19725615
18	0x3ddf818a	0.109133795
19	0xbdeef905	-0.116685905
20	0x3de3f729	0.111311264
21	0xbeb417e8	-0.3517449
22	0x3e13802b	0.14404361
23	0xbd3f68fe	-0.046730988
24	0xbd44f377	-0.04808375
25	0xbe21e2e3	-0.15809207
26	0xbe98c0f2	-0.29834706
27	0xbe4ea821	-0.20181324
28	0xbe0d7792	-0.13815144
29	0xbd75de1e	-0.06002628
30	0xbede36fd	-0.43401328
31	0x3e56e4ac	0.20985669
32	0x3e69274b	0.22768895
33	0x3c1e98c9	0.0096799815
34	0x3e46dd41	0.19420339
35	0x3efc2b29	0.4925168
36	0x3c0a54e5	0.008443092
37	0xbdf5b225	-0.11996869
38	0x3e6c07e9	0.23049892
39	0x3e22c7f3	0.15896587
40	0xbce0b10d	-0.027428174
41	0x3e7e595a	0.24838772
42	0xbf0922ae	-0.5356854
43	0x3e582b95	0.21110375
44	0x3e9d3047	0.30700895
45	0x3e91e3f2	0.2849422
46	0x3c9e07f4	0.019290902
47	0x3d3435de	0.043996684
48	0x3e15ca30	0.1462791
49	0x3d88677a	0.066603616
50	0x3ec50bb3	0.38485488
51	0x3e7003c7	0.23438941
52	0xbed3629e	-0.41286176
53	0x3dbe14c6	0.09281306
54	0x3e03c2ca	0.12867275
55	0x3df71695	0.12064854
56	0xbd8d0b38	-0.068869054
57	0x3ea9f108	0.33191705
58	0xbdf6178c	-0.1201621
59	0xbecf3f50	-0.4047799
60	0xbdda4dac	-0.10659346
61	0xbdbf48df	-0.09340071
62	0x3db8be60	0.09020686
63	0x3e04870d	0.12942143
64	0x3d456972	0.048196264
65	0xbdab0584	-0.083506614
66	0xbe46c150	-0.1940968
67	0xbe92f001	-0.28698733
68	0xbde1dbf7	-0.11028283
69	0xbe9d263a	-0.30693227
70	0xbe639cb1	-0.22227742
71	0x3ebf5309	0.37368038
72	0x3e1364f7	0.14393984
73	0xbb554286	-0.0032540872
74	0xbd91f187	-0.07126146
75	0x3eeccf4b	0.46251902
76	0x3c8b4666	0.017001342
77	0xbe199c30	-0.15000987
78	0x3e821ced	0.25412694
79	0x3d553181	0.052049164
80	0x3ec20ff7	0.37902805
81	0x3e4338dd	0.1906466
82	0xbeb6233d	-0.3557376
83	0x3ea080ad	0.31348172
84	0x3ed13e42	0.4086781
85	0x3edb8ac8	0.4287932
86	0xbe7adfd8	-0.24499452
87	0xbe7a06a2	-0.24416593
88	0x3d46b43d	0.048511732
89	0x3d877bd1	0.06615413
90	0x3e9c375f	0.30510995
91	0x3e700d35	0.23442538
92	0xbddea6b0	-0.10871637
93	0x3d90da1e	0.070728526
94	0x3e206f49	0.15667452
95	0x3e3acedd	0.18242975
96	0xbdd577bb	-0.104232274
97	0x3e820c84	0.25400174
98	0x3e03ecfe	0.12883374
99	0x3e1761c3	0.14783387
100	0x39263666	0.00015851259
101	0xbe1da527	-0.15395032
102	0x3e51f6c0	0.20504284
103	0x3d4b35ca	0.049611844
104	0x3d6a80b9	0.057251666
105	0xbd56f8f2	-0.052483507
106	0xbeb76a2e	-0.35823196
107	0xbe9c8cfa	-0.30576307
108	0xbd8b3d54	-0.06798807
109	0x3cb6f193	0.022331988
110	0xbeb2f1a8	-0.34949994
111	0x3e8ddaec	0.27706087
112	0x3e9358f9	0.28778818
113	0xbde2b9e6	-0.110706136
114	0x3e1474fc	0.14497751
115	0x3ea6b5c3	0.32560548
116	0x3deb84f1	0.11499966
117	0xbee9b4be	-0.45645708
118	0x3e2ad78d	0.16683789
119	0x3e589588	0.21150792
120	0x3e94c4be	0.29056352
121	0x3e7a565a	0.24447003
122	0xbe77fb6e	-0.24217007
123	0x3e86e3ac	0.26345575
124	0x3ea53bc3	0.32272157
125	0x3e38b55f	0.18037938
126	0xbe1af875	-0.15133841
127	0x3de42367	0.11139565
128	0x3e2ec686	0.17067918
129	0x3e0e2db5	0.13884623
130	0x3e3fc52e	0.18727562
131	0x3e8f313f	0.2796726
132	0x3d36a0bb	0.04458688
133	0x3e961d6c	0.29319322
134	0xbeb6a785	-0.35674682
135	0x3dc910a5	0.09817628
136	0xbdb7a78a	-0.089675024
137	0x3eb24b5a	0.34823114
138	0xbe4aba84	-0.19797713
139	0xbf0ceab4	-0.5504563
140	0x3e3f70a1	0.18695308
141	0xbea64a40	-0.32478523
142	0xbd450f02	-0.048110016
143	0xbe3bcb35	-0.18339236
144	0x3d35ba9b	0.044367414
145	0xbdbca430	-0.09211004
146	0xbec2a3af	-0.38015506
147	0xbbab2253	-0.0052225976
148	0xbd51fef2	-0.051268525
149	0xbe227f90	-0.15868974
150	0xbe7b374e	-0.24532816
151	0x3e9f3fd8	0.31103396
152	0x3e3176aa	0.17330423
153	0xbc33f466	-0.010983562
154	0x3ebf0637	0.3730943
155	0x3f18579e	0.59508693
156	0xbdbb43d0	-0.091437936
157	0x3dbc6aa7	0.0920003
158	0x3e9c082a	0.3047498
159	0x3e8b8cf2	0.2725597
160	0x3d6bfaf8	0.05761239
161	0x3ebca9e5	0.3684837
162	0xbebbd62c	-0.36686838
163	0x3e5035e1	0.20333053
164	0x3ea075cd	0.31339875
165	0x3efea86c	0.4973787
166	0xbe2b73a4	-0.16743332
167	0xbe904068	-0.28174138
168	0x3e046b46	0.12931547
169	0x3e07c32e	0.13258049
170	0x3e9ecc5d	0.31015292
171	0x3ea37093	0.31921825
172	0xbe37c8f5	-0.17947753
173	0x3e3b5cf3	0.18297176
174	0xbdd2adc9	-0.10287053
175	0x3e040679	0.12893094
176	0xbe510c1f	-0.2041478
177	0x3ebcc794	0.36871016
178	0x3caff4d9	0.021479057
179	0xbe882b7b	-0.26595673
180	0x3dec2a80	0.11531544
181	0xbdbe318b	-0.09286793
182	0x3d736000	0.059417725
183	0x3d363226	0.04448142
184	0xbce51379	-0.027963387
185	0xbed0066f	-0.40629908
186	0xbe1e7fe5	-0.15478475
187	0xbd4609b9	-0.048349116
188	0xbde9ec36	-0.11422007
189	0xbbe311c9	-0.0069296104
190	0xbeab3197	-0.33436272
191	0x3e5254a0	0.20540094
192	0xbd500c50	-0.050792992
193	0xbd48881e	-0.048957936
194	0x3d52faf2	0.05150885
195	0x3f14a5e1	0.5806561
196	0xbde695bf	-0.112590306
197	0xbeab9b1b	-0.33516774
198	0x3e3de725	0.18545206
199	0x3ca09383	0.01960159
200	0x3dfffcb5	0.12499372
201	0x3ecac177	0.39600727
202	0xbf38111e	-0.7190112
203	0xbda078a5	-0.07835511
204	0x3c5d4296	0.013504645
205	0x3e0b9be0	0.1363368
206	0xbe9313f0	-0.2872615
207	0xbcf7b504	-0.030237682
208	0x3ea2393c	0.3168429
209	0x3db9645f	0.090523474
210	0x3e9784be	0.29593462
211	0x3df11a4d	0.117725946
212	0xbeb594e7	-0.35465166
213	0x3dc706b3	0.09718075
214	0xbdb0509d	-0.08609126
215	0x3dd15541	0.10221339
216	0xbe0e9226	-0.13922939
217	0x3dbf42ea	0.09338935
218	0xbede82ce	-0.4345917
219	0xbf240601	-0.6407166
220	0x3c055f43	0.008140388
221	0xbe8710ac	-0.26379907
222	0x3eb620c3	0.3557187
223	0xbe017860	-0.12643576
224	0x3e2c660d	0.16835804
225	0xbf15a87b	-0.58460206
226	0xbd800251	-0.06250442
227	0xbe817d78	-0.25291038
228	0x3ce99996	0.028515618
229	0xbebb2f94	-0.36559737
230	0xbe99d474	-0.300449
231	0xbdb7ac45	-0.08968405
232	0x3dffc5d6	0.12488906
233	0xbdea0b74	-0.11427966
234	0xbc096c49	-0.008387634
235	0x3e972130	0.29517508
236	0x3e6d3774	0.23165685
237	0xbe779f86	-0.24181947
238	0x3e9399c9	0.28828266
239	0x3c508042	0.012725892
240	0x3db2c853	0.08729615
241	0x3f083854	0.5321095
242	0xbf17bfda	-0.5927712
243	0x3e695624	0.22786766
244	0x3e9417e0	0.28924465
245	0xbc1b7f14	-0.009490747
246	0x3d06a7e7	0.032874968
247	0x3ea0b8e8	0.31391072
248	0x3d4b9bd9	0.049709175
249	0x3dbe4874	0.09291163
250	0x3e94d6e8	0.2907021
251	0x3ead70d8	0.33875155
252	0xbece08b4	-0.40241015
253	0x3dc2b4ef	0.095071666
254	0xbc920712	-0.017825637
255	0x3d3c4c36	0.045971118

model/output/b f4 [9]
0	0xbe4677a8	-0.19381583
1	0x3c82524a	0.01590838
2	0xbad0d7a5	-0.0015933408
3	0xbd5eb606	-0.05437281
4	0xbcac0690	-0.020999223
5	0xbd7c8d3d	-0.061658133
6	0xbda026ff	-0.07819938
7	0x3ceff28f	0.029290466
8	0x3b5b3fe8	0.003345484
