python/results/2017_12_22_10_38_44/agent300/target_model.npz (npz, 14904 bytes, 6 tensors)

model/hidden_layers/0/W f4 [40, 40]
-0.10184206 -0.22470114 0.13158897 -0.27975368 0.0628295 0.1176621 0.062003203 0.06107614
0.10203333 0.0593736 -0.2505864 0.09741025 0.19607157 -0.14822353 0.30979723 -0.024024276
-0.013345319 0.11674208 0.24685267 0.08642647 -0.33665195 -0.35603958 -0.29866895 -0.16838591
0.20831284 -0.027818393 0.005965264 0.28552762 0.039773982 -0.07469303 -0.19530736 -0.08102115
0.061885867 -0.047226813 0.32698774 0.021074811 -0.19033101 -0.19669972 0.32193497 0.08862242
-0.05062218 0.82227296 0.27830872 -0.23666148 0.28496692 0.01864804 0.31489417 0.07038731
-0.11003923 -0.011484967 -0.02649909 -0.10443824 -0.02789158 -0.351051 0.13363864 -0.26915577
0.024827661 -0.16754696 0.055877436 -0.17543091 0.2086522 0.32929516 0.37997466 0.35950556
0.36857918 0.29953474 0.5391276 0.36331978 0.44727695 0.1470058 0.2545211 -0.01059513
0.05598243 0.072300464 0.38124475 0.041637346 0.26559618 0.12691809 0.06892472 0.13918957
-0.041138668 0.081796706 -0.213804 0.2964848 0.07041039 0.013353563 -0.08157577 0.05507417
0.06973204 0.013711322 0.034309316 -0.040031046 0.31724155 -0.037273042 0.08065458 -0.08275601
-0.30488032 -0.2930869 -0.15394992 -0.27704573 0.088831216 -0.1264215 0.13522634 0.025074735
-0.18543331 -0.3666952 -0.0055586398 0.4283516 0.1473575 -0.080924794 0.071750656 -0.15242015
0.19137955 -0.14713646 0.049528673 -0.017269243 0.10325919 -0.14225455 0.008425697 0.023238005
0.17673825 0.09003033 -0.05256461 -0.2762635 -0.010767842 0.17942739 -0.05884088 0.18688783
0.039809342 -0.14630984 0.15834971 0.083562106 -0.14211728 -0.4652752 -0.114421576 -0.3512315
-0.37620243 -0.30768448 -0.023092566 -0.11009113 -0.1371873 -0.37629747 -0.13271967 -0.24000627
-0.026735453 -0.3878616 0.039284788 -0.005676552 -0.12671903 0.074574426 -0.12216483 0.14285667
0.07006443 0.05430703 0.029374344 -0.32349843 -0.09804663 0.058942962 0.23584573 -0.1999166
-0.10876357 -0.13817932 0.029067788 0.041505992 -0.27446643 0.21354651 0.26433825 -0.24960324
0.0994756 -0.0431645 0.0704137 0.13113831 -0.0021817 0.23962161 0.021148097 -0.045710534
0.0192236 0.34678635 -0.056853235 0.14754164 0.06342883 -0.0023267805 0.12352384 0.35037372
-0.06814288 -0.31387857 0.15426803 0.050858296 -0.18530492 -0.03187511 -0.11574957 0.2087517
0.11508145 0.47539037 -0.20734538 -0.061811995 0.052445382 0.08341263 0.10848843 0.20268051
-0.056785643 0.12350875 -0.21955566 -0.12158661 0.098642044 -0.10630326 -0.13016573 -0.2087141
0.085725725 0.1365104 0.18472107 -0.115113065 -0.024393087 -0.06264708 -0.09465617 -0.15564744
0.13816756 -0.08227615 -0.053993076 -0.25956458 0.26170477 0.45708215 0.24067327 0.32108325
-0.06387249 -0.11786972 0.06287605 -0.10866529 -0.00053129706 0.18028553 0.27592683 0.11963037
0.25865665 0.23645315 0.11145197 -0.12186326 0.02520415 -0.042701796 -0.022083472 0.052959397
0.044900313 -0.15857121 -0.0629545 0.55192935 -0.040524367 -0.008823441 0.01089709 -0.038951296
0.069745064 0.2612067 -0.10049012 -0.06877666 -0.20486927 -0.10968019 -0.21105404 -0.094289914
00000000: 9292 d0bd 0e18 66be 42bf 063e e03b 8fbe
00000010: c1ac 803d d4f8 f03d 12f7 7d3d f92a 7a3d
00000020: daf6 d03d bb31 733d dc4c 80be 067f c73d
00000030: fcc6 483e e9c7 17be be9d 9e3e 8fce c4bc
00000040: 53a6 5abc 7916 ef3d f2c6 7c3e 5c00 b13d
00000050: a55d acbe d24a b6be 23eb 98be 5b6d 2cbe
00000060: f64f 553e 66e3 e3bc 4378 c33b ad30 923e
00000070: 0bea 223d a9f8 98bd a7fe 47be 6bee a5bd
00000080: 097c 7d3d e770 41bd f06a a73e 15a5 ac3c
00000090: 22e6 42be a76b 49be a9d4 a43e ac7f b53d
000000a0: 3459 4fbd 7b80 523f 7b7e 8e3e 6357 72be
000000b0: 2fe7 913e c6c3 983c cf39 a13e 3927 903d
000000c0: 3f5c e1bd 712b 3cbc 9f14 d9bc b7e3 d5bd
000000d0: e27c e4bc f5bc b3be 91d8 083e c9ce 89be
000000e0: 6163 cb3c 6e91 2bbe bddf 643d 29a4 33be
000000f0: eca8 553e 6099 a83e 0a8c c23e 1d11 b83e
00000100: 69b6 bc3e 9e5c 993e 4404 0a3f 0d05 ba3e
00000110: 7c01 e53e b088 163e 9750 823e 3297 2dbc
00000120: d54d 653d 4412 943d 8332 c33e ec8b 2a3d
00000130: 39fc 873e d1f6 013e 6728 8d3d b687 0e3e
00000140: 0581 28bd 0885 a73d 70ef 5abe dbcc 973e
00000150: 5333 903d e7c8 5a3c 3311 a7bd 7495 613d
00000160: accf 8e3d 74a5 603c ed87 0c3d 98f7 23bd
00000170: 7c6d a23e 9eab 18bd 3a2e a53d fc7b a9bd
00000180: 4619 9cbe 7c0f 96be 0ca5 1dbe f0d8 8dbe
00000190: 24ed b53d a374 01be c678 0a3e 8869 cd3c
000001a0: 3be2 3dbe 79bf bbbe 4025 b6bb e750 db3e
000001b0: e2e4 163e e6bb a5bd 02f2 923d 0714 1cbe
000001c0: 00f9 433e f1aa 16be 94de 4a3d 3a78 8dbc
000001d0: 8e79 d33d 2dab 11be ef0b 0a3c a15d be3c
000001e0: dffa 343e d261 b83d fd4d 57bd 6972 8dbe
000001f0: 9a6b 30bc d0bb 373e 2203 71bd 865f 3f3e
00000200: 1f0f 233d 3fd2 15be 6d26 223e 9c22 ab3d
00000210: 3187 11be 8d38 eebe dc55 eabd 9dd4 b3be
00000220: 9b9d c0be d288 9dbe 9f2c bdbc 7577 e1bd
00000230: d47a 0cbe 10aa c0be aae7 07be 34c4 75be
00000240: 4f04 dbbc cc95 c6be 16e9 203d 5f02 babb
00000250: a2c2 01be 7aba 983d 8e31 fabd 0549 123e
00000260: f17d 8f3d 0c71 5e3d 77a2 f03c 96a1 a5be
00000270: accc c8bd 2d6e 713d 8b81 713e f0b6 4cbe
00000280: 6fbf debd e17e 0dbe 921f ee3c 3002 2a3d
00000290: dd86 8cbe f0ab 5a3e 5857 873e fe97 7fbe
000002a0: ddb9 cb3d 42cd 30bd 0f35 903d 1f49 063e
000002b0: dafa 0ebb 5e5f 753e c63e ad3c f83a 3bbd
000002c0: d07a 9d3c fb8d b13e f0de 68bd 2815 173e
000002d0: f9e6 813d e67c 18bb 11fa fc3d 2f64 b33e
000002e0: 7f8e 8bbd b1b4 a0be 70f8 1d3e ca50 503d
000002f0: 93c0 3dbe 7a8f 02bd 1c0e edbd 01c3 553e
00000300: d3af eb3d 5e66 f33e 5952 54be 932e 7dbd
00000310: f8d0 563d 3ed4 aa3d 2f2f de3d 7b8b 4f3e
00000320: 1098 68bd 28f2 fc3d 33d3 60be 6702 f9bd
00000330: d704 ca3d 86b5 d9bd 2a4a 05be 26b9 55be
00000340: f890 af3d 62c9 0b3e 8527 3d3e 66c0 ebbd
00000350: 03d4 c7bc 1d4d 80bd 18db c1bd 0b62 1fbe
00000360: cc7b 0d3e 6680 a8bd d827 5dbd a6e5 84be
00000370: 2bfe 853e ac06 ea3e 0e73 763e 0665 a43e
00000380: 94cf 82bd ae65 f1bd 29c5 803d e88b debd
00000390: be46 0bba c59c 383e 4846 8d3e c400 f53d
000003a0: a56e 843e c620 723e ee40 e43d 7293 f9bd
000003b0: ef78 ce3c 14e8 2ebd 66e8 b4bc f4eb 583d
000003c0: 64e9 373d 7e60 22be 4aee 80bd 3e4b 0d3f
000003d0: e1fc 25bd 3290 10bc b589 323c 658b 1fbd
000003e0: 80d6 8e3d e2bc 853e c4cd cdbd c7da 8cbd
000003f0: 40c9 51be 02a0 e0bd 8d1e 58be 121b c1bd

model/hidden_layers/0/b f4 [40]
0.16766012 -0.026979081 0.037425693 -0.17847668 0.28358245 0.39723524 -0.26104414 0.21135363
-0.18736288 0.21607709 0.018628964 -0.034560785 -0.14554292 0.105052546 0.0039279577 0.04974976
-0.23348565 -0.27158573 0.21069582 0.051241633 0.07341626 0.19067305 -0.1294463 0.11306685
0.025315925 -0.25335398 -0.16235943 -0.02201705 0.049243327 -0.08578583 0.07244844 0.19208387
-0.13931133 0.36221772 -0.25285795 0.06860404 -0.1866156 -0.18157081 0.0514575 0.13694544
00000000: 18af 2b3e 3c03 ddbc af4b 193d 97c2 36be
00000010: b831 913e 6b62 cb3e 94a7 85be 166d 583e
00000020: 0edc 3fbe 5043 5d3e c59b 983c 9c8f 0dbd
00000030: 3409 15be ca25 d73d 19b6 803b 68c6 4b3d
00000040: dd16 6fbe 490d 8bbe a5c0 573e bfe2 513d
00000050: 445b 963d cc3f 433e 928d 04be 988f e73d
00000060: 5863 cf3c 9db7 81be 8d41 26be 1a5d b4bc
00000070: 5fb3 493d 7bb0 afbd d95f 943d a2b1 443e
00000080: a1a7 0ebe 9a74 b93e 9976 81be 4680 8c3d
00000090: 2918 3fbe b3ed 39be 19c5 523d 6d3b 0c3e

model/hidden_layers/1/W f4 [40, 40]
-0.008916616 0.31985855 -0.33916342 0.18617903 0.20554091 0.1527449 0.14268856 0.014388276
-0.23805779 0.0774916 0.015555211 -0.08543176 0.3053315 0.039025825 -0.05341973 -0.13123903
0.056152787 0.26821488 0.06960332 -0.012836608 -0.32289967 -0.032282963 -0.27191246 0.5186192
0.5013119 0.005425455 -0.024221925 -0.49382696 0.05138846 0.05340396 0.08879051 0.18561175
0.38402176 0.027893303 0.12596129 -0.30654907 0.10095583 -0.06438923 0.29307988 -0.19537862
0.030779235 0.10305785 -0.05285669 -0.008845391 -0.12264502 -0.557549 0.15971683 -0.0018538024
0.32176498 -0.36090288 -0.043439396 -0.21055436 0.20138694 0.03422165 -0.1266101 -0.14869969
0.15329328 0.15550752 -0.20113355 0.046987686 -0.17803128 -0.010331999 0.1448576 -0.0766215
0.18138032 0.13580835 0.28445226 -0.16361398 -0.20326766 0.38714463 -0.24122418 -0.0530899
0.28740612 -0.3928363 0.011214001 0.13448077 0.25543898 -0.033508677 0.08069601 -0.27564275
0.12521334 -0.22827476 -0.13298926 0.11886929 -0.29591408 -0.014701315 -0.22397402 0.4045761
0.30772218 -0.087622486 0.1851377 0.07928612 -0.28340423 0.026793076 0.04838001 -0.064027436
-0.17415449 -0.5886978 0.046012014 -0.13709241 0.1151008 0.58611876 -0.24280627 0.01962113
-0.1544955 -0.06430235 0.13799275 0.48631653 -0.15154208 0.040731125 -0.29331908 -0.18434918
-0.8509539 0.008592349 0.31187707 -0.31737775 -0.71633077 -0.49663696 0.016229814 0.6279049
0.1819973 0.12864397 -0.017082833 0.15565708 -0.3248295 -0.18767163 0.3702375 0.079218395
0.1577442 -0.34496298 -0.18909219 -0.102171466 0.10029414 -0.002728586 -0.05102864 0.012946483
0.05007409 0.03347994 -0.14364828 0.07038644 -0.15374744 -0.099582925 -0.053820785 -0.38727298
-0.2487936 0.15679389 0.24302483 0.10107418 0.11608013 0.2667815 0.057386022 -0.38465077
-0.03519055 -0.12721276 0.11609575 0.14878495 0.14968053 0.025038235 0.10696393 -0.027989857
-0.043403886 0.6165375 0.21620214 0.030324006 -0.1323007 0.44360235 -0.05928446 -0.017885944
0.13407016 0.013683727 -0.15049815 0.11679965 0.27440578 0.015706493 0.053451013 -0.116323
-0.52038395 0.03371092 0.33013827 -0.26875496 -0.357662 -0.1524506 -0.36213574 -0.2139744
0.377589 0.11294246 -0.62506396 -0.55723757 -0.12878485 -0.13508499 0.17588122 -0.026553076
0.21126333 -0.15876229 -0.2171434 -0.10980551 0.6212145 -0.06868982 0.24229445 -0.24901944
-0.16670991 -0.22545028 0.10997476 0.011134397 0.18779586 -0.31236646 0.0893466 -0.2828026
0.33343214 -0.1613579 -0.13917321 -0.119377814 0.061616175 -0.05972214 -0.12091525 0.014614697
0.29978198 0.27576798 -0.23838677 0.04981156 -0.07587084 0.09799332 -0.16156547 0.089343585
0.06461928 0.179744 0.17249498 0.051582944 -0.1833741 -0.13606833 0.02165805 -0.19526553
0.037750907 -0.3142387 0.20748973 -0.16029273 0.038721003 0.25559166 0.067937925 -0.18645275
0.1088404 -0.16398273 0.1471691 -0.17556794 0.44038427 0.08425454 0.018128216 0.16034731
0.22174585 0.15377417 -0.06292604 -0.25275642 -0.042767484 0.3271926 -0.110239476 0.13310422
00000000: 0017 12bc 80c4 a33e d4a6 adbe b7a5 3e3e
00000010: 5179 523e 2969 1c3e f31c 123e cebc 6b3c
00000020: 6cc5 73be eab3 9e3d 49db 7e3c d9f6 aebd
00000030: 6954 9c3e 8bd9 1f3d a6ce 5abd 8663 06be
00000040: 7700 663d 7653 893e 2f8c 8e3d a350 52bc
00000050: 1b53 a5be 243b 04bd 1c38 8bbe 3ac4 043f
00000060: fa55 003f 04c8 b13b 0f6d c6bc e3d6 fcbe
00000070: b57c 523d 1cbe 5a3d cdd7 b53d 0211 3e3e
00000080: 809e c43e 7f80 e43c fffb 003e 00f4 9cbe
00000090: eec1 ce3d 80de 83bd 910e 963e 5511 48be
000000a0: bc24 fc3c fe0f d33d 4280 58bd 42ec 10bc
000000b0: 502d fbbd 88bb 0ebf cf8c 233e 49fb f2ba
000000c0: 61be a43e 43c8 b8be 82ed 31bd 909b 57be
000000d0: 6138 4e3e 002c 0c3d 14a6 01be bb44 18be
000000e0: eaf8 1c3e 5d3d 1f3e f4f5 4dbe 2976 403d
000000f0: d54d 36be 8b47 29bc 8d55 143e bceb 9cbd
00000100: c3bb 393e 5811 0b3e baa3 913e 6c8a 27be
00000110: 6625 50be d237 c63e 7903 77be cc74 59bd
00000120: e526 933e d721 c9be eeba 373c 54b5 093e
00000130: e6c8 823e 6540 09bd f343 a53d 0c21 8dbe
00000140: ed37 003e dcc0 69be 562e 08be be71 f33d
00000150: 0d82 97be c9dd 70bc 7259 65be 9924 cf3e
00000160: c38d 9d3e 6b73 b3bd bd94 3d3e c360 a23d
00000170: 5c1a 91be 277d db3c 1e2a 463d d120 83bd
00000180: 8e55 32be e6b4 16bf 1877 3c3d f461 0cbe
00000190: f8b9 eb3d e10b 163f 35a2 78be 7ebc a03c
000001a0: 1134 1ebe f3b0 83bd f94d 0d3e 7bfe f83e
000001b0: d92d 1bbe aed5 263d eb2d 96be 08c6 3cbe
000001c0: 1dd8 59bf ecc6 0c3c 5aae 9f3e 567f a2be
000001d0: 7461 37bf 3347 febe 63f4 843c 60be 203f
000001e0: 805d 3a3e 3fbb 033e 4cf1 8bbc 9264 1f3e
000001f0: 0d50 a6be fe2c 40be c58f bd3e 413d a23d
00000200: b287 213e fd9e b0be 62a1 41be 463f d1bd
00000210: 0467 cd3d 14d2 32bb 6803 51bd 7c1d 543c
00000220: 7d1a 4d3d 4322 093d 8918 13be c426 903d
00000230: f86f 1dbe 22f2 cbbd 2f73 5cbd a548 c6be
00000240: c0c3 7ebe 948e 203e 80db 783e fbff ce3d
00000250: 6bbb ed3d 9697 883e 9b0d 6b3d f2f0 c4be
00000260: f723 10bd 1044 02be 9cc3 ed3d 155b 183e
00000270: da45 193e fc1c cd3c e80f db3d fc4a e5bc
00000280: 46c8 31bd 67d5 1d3f 1864 5d3e 0d6a f83c
00000290: d679 07be d91f e33e 43d4 72bd 8b85 92bc
000002a0: b049 093e b631 603c 301c 1abe a834 ef3d
000002b0: ea7e 8c3e e7aa 803c 73ef 5a3d c13a eebd
000002c0: e237 05bf 7614 0a3d e207 a93e 409a 89be
000002d0: 791f b7be 031c 1cbe db69 b9be 1b1c 5bbe
000002e0: 5853 c13e 604e e73d 3104 20bf 1fa7 0ebf
000002f0: 2de0 03be b853 0abe 351a 343e d685 d9bc
00000300: 6a55 583e 9592 22be d75a 5ebe b6e1 e0bd
00000310: ea07 1f3f 40ad 8cbd 091c 783e f4fe 7ebe
00000320: 01b6 2abe 70dc 66be 723a e13d 0c6d 363c
00000330: 8f4d 403e 7fee 9fbe 5afb b63d 81cb 90be
00000340: 9eb7 aa3e 013b 25be 6c83 0ebe 5b7c f4bd
00000350: 3e61 7c3d 349f 74bd 6aa2 f7bd 7b72 6f3c
00000360: 067d 993e 7631 8d3e a91b 74be 3507 4c3d
00000370: 2c62 9bbd b9b0 c83d 6b71 25be c5f9 b63d
00000380: 1d57 843d d00e 383e 86a2 303e a348 533d
00000390: 6cc6 3bbe 7f55 0bbe 396c b13c b0f3 47be
000003a0: b2a0 1a3d e5e3 a0be 3078 543e c723 24be
000003b0: ea99 1e3d e9dc 823e 0a23 8b3d 78ed 3ebe
000003c0: b7e7 de3d 17eb 27be 7fb3 163e 15c8 33be
000003d0: 0c7a e13e a58d ac3d a081 943c 1632 243e
000003e0: 5811 633e fa76 1d3e 5edf 80bd 4a69 81be
000003f0: f52c 2fbd ca85 a73e 3cc5 e1bd 794c 083e

model/hidden_layers/1/b f4 [40]
0.044062186 -0.19867074 0.10839239 -0.12285206 0.066892795 -0.14439069 0.07805853 -0.015710171
-0.09876121 -0.024853924 -0.08836003 -0.1058598 0.15645088 -0.100598626 0.029201142 -0.11446634
0.10941448 -0.011383154 -0.06605769 0.033201307 -0.009598395 0.05507248 0.07238911 -0.0018596193
-0.030673439 0.019717148 0.0010579674 0.09266477 0.04712527 0.09779238 0.014470757 -0.028395541
-0.019392535 0.057256475 0.006193465 -0.072043546 -0.09874433 -0.000188682 -0.11238769 -0.006471596
00000000: 8d7a 343d 5870 4bbe d4fc dd3d dc99 fbbd
00000010: 17ff 883d 27db 13be 27dd 9f3d 9eb2 80bc
00000020: 5143 cabd 759a cbbc 1af6 b4bd 06cd d8bd
00000030: a934 203e a706 cebd 3c37 ef3c 546d eabd
00000040: b314 e03d 6980 3abc 4149 87bd 18fe 073d
00000050: 9642 1dbc ae93 613d be40 943d 78be f3ba
00000060: dd46 fbbc db85 a13c 7fab 8a3a 07c7 bd3d
00000070: 6d06 413d 5f47 c83d c116 6d3c c49d e8bc
00000080: 18dd 9ebc c485 6a3d 8df2 ca3b 918b 93bd
00000090: 783a cabd f0d8 45b9 842b e6bd af0f d4bb

model/output/W f4 [9, 40]
0.3527674 0.38218233 -0.6010824 0.09106364 0.26759857 0.3216299 -0.15450597 -0.008043115
0.17067157 0.07794871 0.2748062 0.08250843 -0.18113579 0.15447628 0.16929679 0.18108617
-0.103448614 0.19741817 0.109363854 -0.11702917 0.11138848 -0.35200676 0.14399068 -0.04671632
-0.048021458 -0.15843208 -0.2985751 -0.202308 -0.13819642 -0.060103115 -0.43419105 0.20997825
0.22793856 0.009853029 0.19458225 0.4928354 0.008181873 -0.12005022 0.23058678 0.15927961
-0.027419297 0.2479255 -0.53559804 0.21023305 0.30678782 0.28411 0.01988067 0.044220395
0.145378 0.06663562 0.38466623 0.2336244 -0.41210723 0.09228241 0.12862822 0.12015018
-0.06826074 0.3318198 -0.12017939 -0.40458658 -0.10681906 -0.09277901 0.09016925 0.12951857
0.04819625 -0.08330192 -0.19400547 -0.28626478 -0.11010985 -0.3064414 -0.22216558 0.37356356
0.14373748 -0.003343215 -0.071633674 0.46234062 0.016889064 -0.14996234 0.25325048 0.05134164
0.37847024 0.18950544 -0.3548719 0.3119785 0.40821618 0.42728382 -0.24491273 -0.24318674
0.046863187 0.06648306 0.3038085 0.2331032 -0.10734199 0.06990017 0.15580083 0.18112445
-0.102685735 0.25326952 0.1295454 0.1482872 -0.00029895976 -0.15253451 0.20467713 0.05005438
0.056578573 -0.05187829 -0.35764945 -0.3041962 -0.06756714 0.023076996 -0.34859034 0.27636233
0.28710368 -0.11070976 0.14357567 0.3252252 0.11514046 -0.45609456 0.16544199 0.21084008
0.29092464 0.24442077 -0.24247795 0.26329428 0.32302386 0.18015437 -0.15112822 0.111097895
0.1706799 0.13852784 0.18734978 0.27988052 0.044695567 0.29332012 -0.35649166 0.09784633
-0.08986866 0.34853712 -0.19814143 -0.55075794 0.18703414 -0.32500935 -0.04797417 -0.18355364
0.044378668 -0.09242966 -0.38044643 -0.0052822405 -0.051411256 -0.15867189 -0.24558476 0.3112297
0.1735891 -0.010597867 0.37338248 0.59540784 -0.09178906 0.09162691 0.3046295 0.2725257
0.05697105 0.3672708 -0.36615315 0.20209761 0.31271553 0.49605364 -0.16708678 -0.28104845
0.12830913 0.13287896 0.30890578 0.31785795 -0.17821707 0.18204588 -0.10348792 0.1281039
-0.2029605 0.3680084 0.022047903 -0.26522905 0.114721976 -0.09152458 0.058879815 0.04502463
-0.028499281 -0.40549108 -0.1540752 -0.047078487 -0.11371672 -0.006076844 -0.33360702 0.204639
-0.051536754 -0.049420204 0.0504121 0.57991314 -0.11245561 -0.3345383 0.18422991 0.018708073
0.12495935 0.39621243 -0.71884775 -0.07780051 0.0135028735 0.13696979 -0.28763208 -0.030078074
0.31751156 0.090465024 0.2962465 0.11836613 -0.3547415 0.097142324 -0.08618016 0.10248672
-0.13940169 0.093200386 -0.43450248 -0.6407505 0.008148387 -0.26403826 0.35552832 -0.12666401
0.16829298 -0.5845409 -0.062391277 -0.2533343 0.028208323 -0.36585397 -0.30032638 -0.08976386
0.12475038 -0.11461701 -0.008459491 0.29504952 0.23192373 -0.24161243 0.2889099 0.013155568
0.08652262 0.53159314 -0.5922743 0.22826675 0.28868368 -0.009332003 0.032506723 0.314246
0.0504636 0.09323414 0.29046518 0.3394602 -0.40248126 0.095041655 -0.018270368 0.046252917
00000000: ee9d b43e 67ad c33e 89e0 19bf 937f ba3d
00000010: ae02 893e adac a43e d036 1ebe 45c7 03bc
00000020: 87c4 2e3e 93a3 9f3d 66b3 8c3e 2efa a83d
00000030: a97b 39be 082f 1e3e 235c 2d3e a76e 393e
00000040: dedc d3bd fd27 4a3e 28fa df3d fdac efbd
00000050: a51f e43d 3b3a b4be 4b72 133e 9d59 3fbd
00000060: 26b2 44bd 053c 22be d6de 98be d429 4fbe
00000070: 5d83 0dbe af2e 76bd 4a4e debe 8a04 573e
00000080: ba68 693e 996e 213c 9240 473e ec54 fc3e
00000090: 430d 063c e4dc f5bd f11e 6c3e 321a 233e
000000a0: 6f9e e0bc 2fe0 7d3e f41c 09bf 5547 573e
000000b0: 4b13 9d3e de76 913e c9dc a23c 7220 353d
000000c0: f8dd 143e 4278 883d f9f2 c43e 3c3b 6f3e
000000d0: b8ff d2be 8ffe bc3d 1eb7 033e 4c11 f63d
000000e0: 49cc 8bbd 49e4 a93e 9d20 f6bd f925 cfbe
000000f0: f4c3 dabd ec02 bebd a8aa b83d 84a0 043e
00000100: 6e69 453d 329a aabd 5fa9 46be 4c91 92be
00000110: 4681 e1bd e3e5 9cbe 607f 63be b943 bf3e
00000120: eb2f 133e d719 5bbb adb4 92bd e9b7 ec3e
00000130: ef5a 8a3c ba8f 19be 0caa 813e 9d4b 523d
00000140: dac6 c13e b70d 423e c5b1 b5be a5bb 9f3e
00000150: b601 d13e f2c4 da3e 67ca 7abe f205 79be
00000160: 9df3 3f3d 4528 883d ca8c 9b3e 9bb2 6e3e
00000170: 1ed6 dbbd d227 8f3d 418a 1f3e b078 393e
00000180: e64c d2bd 8bac 813e 8da7 043e 9ad8 173e
00000190: b3bd 9cb9 0232 1cbe e296 513e d205 4d3d
000001a0: efbe 673d 547e 54bd d41d b7be 9bbf 9bbe
000001b0: a460 8abd f80b bd3c 6f7a b2be 5d7f 8d3e
000001c0: 41ff 923e ccbb e2bd 8005 133e eb83 a63e
000001d0: c3ce eb3d 3a85 e9be a069 293e 76e6 573e
000001e0: 13f4 943e 7049 7a3e 244c 78be 82ce 863e
000001f0: 6263 a53e 637a 383e 5bc1 1abe 4b87 e33d
00000200: b6c6 2e3e 3eda 0d3e 9fd8 3f3e 804c 8f3e
00000210: b312 373d 0e2e 963e 1386 b6be a863 c83d
00000220: 0f0d b8bd 7573 b23e 96e5 4abe 79fe 0cbf
00000230: e185 3f3e a067 a6be 9080 44bd 7cf5 3bbe
00000240: 68c6 353d c34b bdbd e0c9 c2be a516 adbb
00000250: 9c94 52bd e27a 22be 927a 7bbe 8059 9f3e
00000260: 57c1 313e ada2 2dbc fd2b bf3e a66c 183f
00000270: e7fb bbbd e4a6 bb3d 66f8 9b3e 7d88 8b3e
00000280: 7a5a 693d eb0a bc3e 6d78 bbbe adf2 4e3e
00000290: 401c a03e befa fd3e cc18 2bbe 95e5 8fbe
000002a0: 7863 033e 6c11 083e e628 9e3e 47be a23e
000002b0: 897e 36be 3c6a 3a3e 79f1 d3bd ab2d 033e
000002c0: e1d4 4fbe 996b bc3e ce9d b43c 1acc 87be
000002d0: 5bf3 ea3d 3d71 bbbd f62b 713d bf6b 383d
000002e0: 5377 e9bc 879c cfbe e4c5 1dbe 5fd5 40bd
000002f0: 50e4 e8bd 4320 c7bb 8ace aabe e38c 513e
00000300: 3418 53bd d76c 4abd eb7c 4e3d 3075 143f
00000310: 204f e6bd 9b48 abbe c4a6 3c3e ac41 993c
00000320: b0ea ff3d 5bdc ca3e 6806 38bf e055 9fbd
00000330: 283b 5d3c cf41 0c3e 8344 93be 4b66 f6bc
00000340: e090 a23e ba45 b93d 9fad 973e f169 f23d
00000350: aea0 b5be 8ef2 c63d 397f b0bd 8fe4 d13d
00000360: 51bf 0ebe d8df be3d 1c77 debe 3a08 24bf
00000370: d080 053c 0630 87be cf07 b63e 36b4 01be
00000380: ff54 2c3e 79a4 15bf ff8d 7fbd 09b5 81be
00000390: 2415 e73c 3651 bbbe 61c4 99be 1dd6 b7bd
000003a0: 217d ff3d 53bc eabd ad99 0abc bb10 973e
000003b0: 6a7d 6d3e 4069 77be 00ec 933e 748a 573c
000003c0: c532 b13d 7d16 083f 4a9f 17bf c2be 693e
000003d0: 59ce 933e 42e5 18bc c525 053d dae4 a03e
000003e0: ebb2 4e3d 8af1 be3d dab7 943e bacd ad3e
000003f0: 0612 cebe 33a5 c23d bdab 95bc b373 3d3d

model/output/b f4 [9]
-0.19344337 0.015764728 -0.0028051129 -0.0540515 -0.02176631 -0.061632786 -0.07855808 0.029397273
0.0035493858
00000000: 0516 46be 0825 813c fcd5 37bb 1b65 5dbd
00000010: 434f b2bc a972 7cbd 0fe3 a0bd 8dd2 f03c
00000020: d09c 683b
